notebooks/gene-expression-classification/20fa72a17e324da9b78fae597a821440/checkpoints/epoch=0-step=18940.ckpt (torch, 436719 bytes, 18 tensors)

linear_relu_stack.0.weight f4 [512, 3]
000000 90 41 a2 3d 86 be cb be 32 c3 c3 be 41 34 72 3e
       0.07922661 -0.39793795 -0.3823486 0.23652746
000010 e2 86 a9 bd 56 8d b2 be 10 90 ce be 6c 3b 08 3e
       -0.0827768 -0.34873456 -0.40344286 0.13303918
000020 fc 45 cb 3d 20 1e c5 be 6d 40 a7 3e 87 9c 83 3d
       0.09925458 -0.38499546 0.3266634 0.064263396
000030 44 f9 72 be 38 d3 af be 95 4d a4 be c6 47 ce be
       -0.237279 -0.34340835 -0.3209044 -0.40289134
000040 43 29 fe 3e c2 36 1b be df e2 ab be 67 51 24 bd
       0.49640855 -0.15157607 -0.33571526 -0.040116694
000050 70 6f bc 3e e8 3b d0 be 06 b5 e4 3e 65 43 da bd
       0.3680377 -0.40670705 0.4466936 -0.10657386
000060 a5 88 ee 3d 11 f5 01 be 82 4f 08 bc bd d1 0e bf
       0.116471566 -0.12691142 -0.008319737 -0.55788785
000070 01 f5 17 be 7e 1e 88 3e 64 b9 e2 be 89 1f fc 3d
       -0.14839555 0.26585764 -0.44282067 0.12310702
000080 65 fe 48 be e2 ca 49 3f ff 40 0e bf e8 4f b0 bd
       -0.19628294 0.788252 -0.55567926 -0.08608991
000090 b9 b5 35 bf 76 e5 20 3e 1c b6 90 3d 44 f4 7e 3e
       -0.7098041 0.15712532 0.070659846 0.24897867
0000a0 6e a1 9a be 36 ba 9f 3e 40 42 f4 3d 52 4d 7e 3c
       -0.30201286 0.31196755 0.11926699 0.015521364
0000b0 19 57 a3 3e 75 33 f7 3d 63 96 dc be 7c 4d bc 3e
       0.31902388 0.120703615 -0.43083486 0.36777866
0000c0 f3 c4 dc bd 1b 16 d9 be b2 6a a5 3e 9a 7b a1 bc
       -0.107797526 -0.42399678 0.32307965 -0.019712258
0000d0 9b dd 9b bd 6e 35 9a bc ee 02 35 3f 11 34 e3 be
       -0.07610627 -0.018824305 0.70707595 -0.4437566
0000e0 25 65 72 bd bf 87 2e bf 86 16 9e be 7a 60 96 bd
       -0.05917849 -0.6817588 -0.3087656 -0.0734262
0000f0 e7 2a c3 be 8e b0 1a bf 56 c0 1b 3f f7 18 57 be
       -0.3811867 -0.6042565 0.60840356 -0.21005617
000100 f8 7b 02 3e af ed 1d 3e 60 ad 66 3d e5 7d 07 bf
       0.12742603 0.154227 0.056317687 -0.52926475
000110 84 1c 20 be a4 77 67 be d0 ef 6b bd 0e 53 36 be
       -0.15635878 -0.22604233 -0.05760175 -0.1780512
000120 59 e0 ff be af f0 89 3d 6e a5 d0 3e 03 c3 38 3f
       -0.4997585 0.0673536 0.40751213 0.72172564
000130 c7 d7 3c be ff 63 1f be da e7 85 3e 58 ba 69 be
       -0.18441688 -0.15565489 0.2615345 -0.22824991
000140 ed a4 f9 3e 14 44 b4 be ce 8b 30 be 74 84 c4 be
       0.4875864 -0.3520819 -0.17240831 -0.38382304
000150 7b af dc 3e 29 d5 be 3d a2 3a bb be 89 09 0b bd
       0.4310263 0.09318001 -0.3656817 -0.03394464
000160 44 9c d4 3d ed 83 03 be 90 14 3d 3f 73 03 8c be
       0.10381368 -0.12843294 0.738595 -0.27346382
000170 10 05 89 be 8d a8 18 3e cc 58 14 3e c0 c8 9c be
       -0.26761675 0.14908047 0.14486998 -0.3062191
000180 5c e5 42 3a 1b ef c6 3e a2 7e 34 3c 25 25 87 3e
       0.000743469 0.38854298 0.01101652 0.26395527
000190 54 3d ac 3d 6a 2d a1 3d 77 4c 01 3f 06 5d 21 bd
       0.08410135 0.0786999 0.505073 -0.039395355
0001a0 96 9d 74 be c2 19 1e 3f c3 e3 58 bd 02 44 69 be
       -0.2388824 0.61758053 -0.052951586 -0.22779849
0001b0 fa 75 cb 3e dd 1c 49 3e b7 d8 00 bf 1d 11 f6 3d
       0.39738446 0.19639917 -0.5033068 0.12014983
0001c0 67 f1 d0 3d 8c 47 06 be 9d 6c 24 3f 68 dc c3 bd
       0.10202294 -0.1311323 0.6422823 -0.095635235
0001d0 32 e9 74 be cd ec 00 3f 6f bf 39 3e 4d 22 12 bf
       -0.23917082 0.5036133 0.18139432 -0.5708359
0001e0 e2 4b 36 bf 7f 26 0a be 13 c8 ae 3e bd 74 20 bf
       -0.7120954 -0.13491248 0.3413702 -0.6267813
0001f0 b8 19 52 be e8 12 37 be 24 99 ec be c6 14 d6 bd
       -0.20517623 -0.17878306 -0.46210587 -0.10453181
000200 1b 88 80 bd 42 69 2a be 6c 42 04 bf 41 9b 54 3e
       -0.0627596 -0.16641715 -0.5166385 0.2076235
000210 ca 8f 38 3e 37 e9 b7 be f5 46 a4 3e 1e a5 03 3e
       0.18023601 -0.35920116 0.32085386 0.12855956
000220 25 bc 38 3e 29 11 4d be f5 1f 13 bc 3f cf 60 bd
       0.18040521 -0.20026077 -0.008979787 -0.054885145
000230 93 10 3f 3e d5 75 e5 be 56 36 b7 bd 18 00 70 3e
       0.18658666 -0.4481646 -0.08945911 0.23437536
000240 d6 58 9a 3e 6d 88 7b 3e f8 de 2d bf c6 17 db be
       0.301459 0.24563761 -0.6791835 -0.42791575
000250 5f 46 5c 3e 9d 60 ab 3e 18 7f 09 3e 49 f8 ed bd
       0.2151122 0.33472148 0.13427389 -0.11619622
000260 a3 cf 8f 3e c6 a7 e9 3e c1 10 d3 3e a0 1c c2 be
       0.28088102 0.45635813 0.4122372 -0.37912464
000270 5c 38 2c bf bf 58 90 3d 5e 04 89 be ed 9d cf 3e
       -0.672735 0.07048177 -0.26761144 0.40550175
000280 44 7e ce 3c 9f 4f fd be 68 b0 9a 3e 50 f5 9a be
       0.025206693 -0.4947481 0.30212712 -0.30265284
000290 96 09 18 3f 48 75 a5 be 2a 81 db 3e 39 e6 b9 be
       0.59389627 -0.3231604 0.42871982 -0.36308458
0002a0 bc de c8 be e8 c9 a2 3e 61 bc 68 be 89 dc 56 3e
       -0.39232433 0.31794667 -0.22728111 0.20982565
0002b0 1b b6 ff 3c 58 19 df be 3c c2 03 3e a7 fe 35 bf
       0.031214764 -0.43574023 0.12867063 -0.71091694
0002c0 2e 7a 98 3e 2b 4d 9c bd 2a 6d b5 3d 21 2e 19 be
       0.29780716 -0.07631906 0.08858712 -0.14959003
0002d0 81 ce b7 3e 17 ad a5 3e 1d 22 28 bf d2 18 d9 be
       0.35899737 0.3235862 -0.6567705 -0.4240175
0002e0 ba 78 08 bf 07 21 c2 3e bd 7b dc be a6 c9 74 be
       -0.53309214 0.37915823 -0.43063155 -0.23905048
0002f0 41 59 36 3e f4 da b0 3e e2 d3 99 be 0e ca cc 3e
       0.17807485 0.34542048 -0.30044466 0.39997905
000300 5b d0 20 bf ce 20 63 3e 2f 66 d2 3b d8 ed 04 bf
       -0.62817925 0.22180483 0.0064208726 -0.5192542
000310 94 1e 9b be bd 74 0a 3f 39 37 82 be 0d 62 e4 be
       -0.30296767 0.5408438 -0.25432757 -0.44606057
000320 6f 50 e3 3e fe 47 1d bf 8f f2 07 3f ea d7 ab be
       0.44397303 -0.61437976 0.5310449 -0.33563167
000330 15 9e 6f 3e ed b4 15 bf 1e e6 17 3f f0 ec 86 be
       0.23400147 -0.58479196 0.59335506 -0.26352644
000340 ac 5e 26 3d cd c3 d3 3d 88 75 e2 3e 7f 56 18 bf
       0.04061763 0.103400804 0.44230294 -0.5950698
000350 ed 7a 7d bd 98 52 ed be 3f fd 9f be bc 4d a4 3e
       -0.06188481 -0.46352077 -0.312479 0.32090557
000360 df 4f a8 be d7 10 4e 3e 6c db f9 be cd 31 00 bf
       -0.32873437 0.20123611 -0.48800218 -0.5007599
000370 f6 f9 9b bd dd b6 98 bd 6b 10 1c bf b5 6d 87 3e
       -0.07616036 -0.074567534 -0.6096255 0.26450887
000380 8c 61 98 be 05 cc e3 be c5 50 f7 be d3 7c 83 3e
       -0.29761922 -0.44491592 -0.4830381 0.2568117
000390 cd 06 e1 3e 2d 8f eb 3d e6 42 ce be 73 fc 90 3d
       0.439505 0.11501918 -0.40285414 0.07079401
0003a0 d5 b1 f2 3d 8b 83 c6 be 3b d4 1a 3d fe 10 02 bc
       0.11850325 -0.38772234 0.037800055 -0.007938622
0003b0 1b 4c 24 3e 80 1a b0 3e 41 32 2b 3e c7 f2 20 bd
       0.16044657 0.34395218 0.16718389 -0.03929403
0003c0 df 7c 01 bf 4e 18 b5 3e 3a 48 d6 3c cb 87 20 3f
       -0.50581163 0.35370106 0.026157487 0.62707204
0003d0 ff 79 b6 3d 1e 5b 0e bf 3a 2d 32 bf 0a 0f af be
       0.08909988 -0.55607784 -0.6960026 -0.3419116
0003e0 25 fe 9b 3d 25 15 86 bd 28 34 55 3e 7e 5f 59 be
       0.076168336 -0.06547002 0.20820677 -0.21227834
0003f0 f0 a1 0d bf 78 4b c3 be 85 d8 a1 3e 3b 34 3d bf
       -0.5532522 -0.38143516 0.31610504 -0.7390782

linear_relu_stack.0.bias f4 [512]
000000 1c dd 66 be 3f 95 90 3d fc 1b 21 3f 18 a1 6f bf
       -0.22545284 0.070597164 0.62933326 -0.93605185
000010 0f ee cb be 69 f8 7d bf a3 c3 49 3e 22 18 75 bf
       -0.39830062 -0.9920717 0.19703536 -0.9573995
000020 d1 f1 4f be 79 3a 2d 3f 88 da 30 3e 6a 81 1d 3f
       -0.2030709 0.6766735 0.17270863 0.61525595
000030 47 75 8f bd 04 f4 70 3f 12 c8 94 bf 14 b4 1f 3f
       -0.07004791 0.9412234 -1.1623557 0.6238415
000040 03 76 cd 3e 59 0e 46 3f d1 45 a8 3e 6d 3f bb 3e
       0.40129098 0.7736564 0.32865766 0.36571828
000050 1b c7 44 be 93 e8 29 bf 40 06 e4 bc 2f ef 0f bf
       -0.19216578 -0.66370505 -0.027835011 -0.5622434
000060 d4 11 10 bf 02 65 be be 41 4c 5b bf d5 27 0e bf
       -0.56277204 -0.37186438 -0.8566323 -0.5552953
000070 28 bb b6 be 01 e7 dd 3d 18 90 4e be 3b f4 33 bf
       -0.35689664 0.10835076 -0.20172155 -0.7029454
000080 23 13 8a bf 39 70 6c bf 29 dc db 3e 3b d7 48 bf
       -1.078709 -0.9235874 0.42941406 -0.78453416
000090 0d 68 65 bf 8c 9b 21 bf c5 74 dc be 00 75 57 bf
       -0.89611894 -0.6312797 -0.43057838 -0.841629
0000a0 04 07 92 3e 07 a9 29 3e 6c ad 10 bf b5 d0 63 3e
       0.28520977 0.16568385 -0.5651462 0.22247584
0000b0 c4 92 43 3f 97 0c 70 bf 50 4a c0 3e 89 48 a1 3d
       0.7639582 -0.9376921 0.37556696 0.07875163
0000c0 30 27 2a bd fc 10 73 bf 82 b2 24 bf 9e e8 94 bf
       -0.04154128 -0.9494779 -0.6433488 -1.1633489
0000d0 27 ca 4a be 28 0a 73 3f a1 f3 3e bf 74 09 67 bf
       -0.19803677 0.9493737 -0.745905 -0.902488
0000e0 88 eb 12 be 2a f3 5f be 38 05 1b 3f b4 c6 c1 3e
       -0.1434766 -0.21870103 0.6055484 0.3784691
0000f0 43 d7 52 3d 7e c7 f3 be 6f 0f da 3e 25 7d 02 3f
       0.05147482 -0.47613138 0.425899 0.50972205
000100 a5 d4 3a bf 81 45 4e 3f 8b fb 4a be 38 52 12 be
       -0.7298072 0.80574805 -0.19822519 -0.14289176
000110 1c e7 07 bf 8e 1a 3f 3f 45 53 87 be 53 93 36 bd
       -0.5308702 0.74649894 -0.26430717 -0.044574093
000120 dc b4 9e 3e bc ce 3a bf a4 b1 23 3e 78 74 7f be
       0.3099736 -0.729717 0.15985733 -0.24946773
000130 f7 9c e5 be 03 db 63 3d 46 a7 28 bf 55 b4 bc bf
       -0.44846317 0.055628788 -0.6588024 -1.4742533
000140 b7 0e 2e bf 07 1e aa bd 78 49 45 be 25 7a 4a 3f
       -0.67991203 -0.083065085 -0.19266307 0.7909263
000150 5e 4e d0 3e c9 27 33 bf fd 01 ac 3e 56 82 81 3f
       0.4068479 -0.6998258 0.33595267 1.01179
000160 cb 49 f1 3e 99 2f 83 bf 71 8f 01 bf b5 ea 6e 3e
       0.47126612 -1.0248901 -0.506095 0.23331721
000170 05 0d 4a bf 5c c2 1b be af 23 19 bf 31 6f d1 3e
       -0.78926116 -0.15210861 -0.59820074 0.40905145
000180 1c c6 6d be 78 77 1c 3e ef a7 b5 3e f5 99 0e 3f
       -0.23220104 0.15279949 0.35479686 0.5570367
000190 18 d6 af be ba 9a 6d 3e c5 e5 8b be b4 ce 10 3f
       -0.34343028 0.23203555 -0.27323738 0.56565404
0001a0 40 64 db bd 74 c5 10 3e bd fd 56 3f 52 00 21 3f
       -0.107124805 0.14137822 0.83980924 0.62891114
0001b0 38 9a 61 3f 2c 8d 1b bf 70 64 f4 be 4b 9f 0c 3f
       0.88125944 -0.60762286 -0.47732878 0.5493056
0001c0 b5 2b ae be 99 a0 e2 3d 9a 4f 08 bf 49 18 82 be
       -0.3401772 0.11065788 -0.5324646 -0.25409153
0001d0 07 0d 12 3e f2 29 12 3e b2 b4 c1 3e f5 83 14 bf
       0.14262782 0.14273813 0.37833172 -0.5801385
0001e0 c1 e2 18 bf 05 73 4e 3f 01 24 2b bf b9 7f 59 bf
       -0.59721 0.80644256 -0.6685181 -0.84960514
0001f0 86 d4 e2 3e d4 8e 49 bf 5c 18 70 3e ce 76 11 3f
       0.44302768 -0.78733563 0.23446792 0.56821907
000200 4a fa 26 be d2 df 48 3f 91 07 a9 bc 3a c5 e0 be
       -0.16306415 0.7846652 -0.02063349 -0.43900472
000210 66 bd 3b bf 48 aa 3f bf e5 04 83 be d5 f3 46 3f
       -0.73335874 -0.74869204 -0.25589672 0.7771581
000220 71 62 f2 3c 66 06 58 3f 2e 6b 56 3d 3d bc 62 3f
       0.029587956 0.84384763 0.05234831 0.8856848
000230 bd 6e e7 3e 01 f5 88 be f3 20 d5 be 2b b2 ba be
       0.45201674 -0.26749423 -0.416267 -0.36464056
000240 30 d4 8a 3f 54 67 db be 8a 38 3b 3f 20 b9 2a bd
       1.0846004 -0.4285227 0.73133147 -0.041680455
000250 15 30 ca 3e e2 ae f2 be 5e 8a 48 bf b7 06 bf 3d
       0.3948981 -0.4739905 -0.7833613 0.09327453
000260 b4 af 0d be f3 a1 34 bf f3 3b bd 3d c8 32 3a be
       -0.13836557 -0.70559615 0.0923995 -0.18183434
000270 7b 94 5c 3f 08 50 e9 3e 92 be a6 bd 6a da 5e 3f
       0.86164063 0.45568871 -0.08141817 0.87052023
000280 f8 0c 7e bf 45 41 e0 be f4 41 16 bf 3f eb 98 bf
       -0.9923854 -0.43799797 -0.58694386 -1.1946791
000290 3d 9b 3c bf a0 eb 18 bf 47 b2 ca 3e 65 7d 98 3f
       -0.73674375 -0.59734535 0.3958914 1.1913267
0002a0 20 a5 f7 3c 35 89 e7 be 24 d7 ab 3e 5d b9 0b 3f
       0.030230105 -0.45221868 0.33562577 0.54579717
0002b0 fd 5e ec be fd 1a 30 bf fb bf 7b 3f 57 53 71 bd
       -0.4616622 -0.6879118 0.98339814 -0.05891737
0002c0 fb b8 fe 3d e8 00 44 3f 0b 45 15 3e ec 1d fa 3e
       0.12437626 0.7656388 0.14577119 0.48850954
0002d0 60 c8 db be 3a 04 82 3f 2b df 53 3e fd db 8d bf
       -0.42926311 1.015754 0.206906 -1.108276
0002e0 fa 17 55 3d 7d fe 72 3e 5b 74 eb be e3 68 07 3f
       0.05202482 0.23729892 -0.4598721 0.5289442
0002f0 21 20 76 be 5d fb 35 bf ba b0 50 3f 16 bc 9c 3e
       -0.24035694 -0.71086675 0.81519663 0.30612248
000300 97 45 46 bf 93 44 23 bf fb c9 9e 3d ee 1c 61 be
       -0.77449936 -0.6377651 0.077533685 -0.21983692
000310 5b 97 87 3e c7 3a 4a 3f 5b c6 14 3f 27 49 3a bd
       0.26482663 0.7899594 0.58115166 -0.04547992
000320 7d 41 c5 be 62 eb 95 bf f5 98 39 3f 16 90 e7 be
       -0.38526526 -1.1712458 0.7249902 -0.45227116
000330 86 ba 76 3f 5d 26 a3 3f c2 8b 0d 3f fb 51 11 bf
       0.9637836 1.2746083 0.5529138 -0.5676572
000340 fc 91 ee be 33 7d 1e bf 96 da 7c 3f df 9f dc be
       -0.46595752 -0.6190979 0.98771036 -0.43090722
000350 b5 4d 80 3e fb f0 2d 3e bf 82 33 3f 34 1f 3c bf
       0.25059286 0.16986458 0.7012138 -0.7348511
000360 cc 80 5e 3f 30 cf 7f 3e b2 4b 96 bf 68 ba 31 be
       0.8691528 0.2498138 -1.174185 -0.17356265
000370 42 5e 67 3f 59 38 08 bf c7 12 47 3f f2 75 81 be
       0.903782 -0.5321098 0.77763027 -0.25285298
000380 41 e8 0e be 1a 5e 39 bf 58 45 66 be 12 8e 98 be
       -0.13955785 -0.7240921 -0.2248739 -0.2979589
000390 ac 86 07 be ba 27 67 be 9c 0f 0f 3e ef aa 60 3e
       -0.13234967 -0.22573748 0.13970798 0.21940206
0003a0 b0 5e 2c 3f ce 74 cf be 44 18 c8 3e b4 82 79 bf
       0.6733198 -0.40518802 0.39081013 -0.9746506
0003b0 8f 01 c8 be c6 07 4d bf dd c1 7a 3f ca 1e bb be
       -0.3906369 -0.80089986 0.9795206 -0.36546928
0003c0 b2 3a 44 3f 64 b1 20 bf 85 0d 06 bf 54 f3 fb 3e
       0.7665206 -0.62770677 -0.5236438 0.49209082
0003d0 1a 0e 4d bf 1e c4 cf be b5 18 09 bf d7 3c 1a bf
       -0.8009964 -0.40579313 -0.53553325 -0.60249084
0003e0 98 42 53 3f 3d d5 e6 be 33 ce c8 3e 2a e9 00 bf
       0.8252349 -0.45084563 0.39219818 -0.5035578
0003f0 64 12 b5 be ab 93 e8 bd 9c 14 6c 3e ba 59 a7 3e
       -0.35365593 -0.113562904 0.23054737 0.32685643

linear_relu_stack.2.weight f4 [64, 512]
000000 4a 29 98 3c f2 c9 eb bd 6a 57 31 bd 3e 61 05 3e
       0.018574376 -0.115131274 -0.043296255 0.13025376
000010 1a 59 02 bd 85 bd 3d 3e 4e e3 7f 3c 7c 8c 1f 3e
       -0.031823255 0.18529327 0.0156181585 0.15580934
000020 01 c5 0d 3e 6f 1e 2f bd 55 e0 e2 bd 00 9e d7 bc
       0.13844682 -0.042753633 -0.11077944 -0.026320457
000030 19 4e b0 be 16 34 0f be b9 54 2a 3e 65 dc 9b bd
       -0.34434584 -0.13984713 0.16633882 -0.07610396
000040 91 ad ea be 98 ab 55 be d3 e9 10 bd 94 81 9d bd
       -0.45835546 -0.20866239 -0.035379242 -0.07690731
000050 14 92 6e bd 9e 00 b6 3d b4 4f 31 bd 82 73 ff 3c
       -0.05824478 0.088868365 -0.0432889 0.031183008
000060 70 95 21 bd 63 69 0c 3d c2 62 1e 3e f1 53 10 bd
       -0.039449155 0.034280192 0.1546736 -0.035236303
000070 fe c2 a6 bd b8 d3 3a 3d 47 f3 cd 3d d1 1d 8d 3d
       -0.081426606 0.045612067 0.10056167 0.06890453
000080 9d a4 00 3e 31 6f 97 3e 19 54 cd bd 32 d9 5d 3e
       0.12562795 0.2957702 -0.10025806 0.21664885
000090 65 ff f7 bd e4 77 4a 3d 41 34 cb 3d 42 6a b9 bd
       -0.121092595 0.049430743 0.09922076 -0.0905347
0000a0 6c c8 95 bd 7d 98 9a bc 2a fb 93 bc 54 2e a5 be
       -0.07313618 -0.01887154 -0.0180641 -0.32261908
0000b0 63 ba bb bd ba bf af 3d 29 18 86 3b 6b 39 ae bd
       -0.0916641 0.08581491 0.0040922356 -0.08507045
0000c0 aa c8 c7 bd 84 0e 18 3e fb e6 a2 3d e3 c0 0b 3e
       -0.097550705 0.14849287 0.07954212 0.13647799
0000d0 08 a9 86 be 97 33 6c be f9 5d 5a 3e 5a ab a7 3d
       -0.26300836 -0.23066555 0.2132491 0.081869796
0000e0 31 1d 5b 3d ff fb 2d 3d b2 01 58 be b2 00 48 bd
       0.053494636 0.04247665 -0.21094397 -0.048828788
0000f0 68 b9 73 bd b7 79 3e be 88 8f ea 3c de ac 3f 3d
       -0.05950299 -0.18601118 0.028632894 0.04679572
000100 92 96 6d be fc 89 19 be f4 4a 09 bb 10 3f 80 3d
       -0.2320197 -0.14994043 -0.0020949217 0.06262028
000110 ca 3a e3 3d d9 6b cd bd b2 9f a9 3e d9 3d 2c be
       0.110951975 -0.10030336 0.3312965 -0.16820468
000120 0d 8e 96 bb ff 9e e3 bd 79 7d 12 be c5 c3 fa be
       -0.0045945705 -0.111143105 -0.14305677 -0.48977485
000130 b1 fe e7 bb 30 c4 d6 bd 95 17 84 3e 59 58 58 3e
       -0.007079922 -0.104866385 0.25799242 0.21127452
000140 fc 0a 1b bc 2e 5c 88 bd ef 02 b2 bd 8e 60 ad bd
       -0.009463068 -0.06658207 -0.08691966 -0.08465682
000150 c9 f6 4d be 6f a1 20 be d6 9b 38 be c5 5f 2b be
       -0.20113672 -0.15686582 -0.18028197 -0.16735752
000160 f8 6b eb 3c 03 60 cf 3d 1f 7e 30 3d bb 1e bc bd
       0.028738007 0.10125735 0.04308903 -0.09185549
000170 cd e1 97 3d 20 22 4f be 34 78 00 3e b0 f4 82 be
       0.07416115 -0.20227861 0.12545854 -0.25577307
000180 b2 86 f9 3c 58 cf 49 be 7d 25 3f be d3 91 00 bd
       0.030459736 -0.19708002 -0.18666644 -0.03138907
000190 b3 09 7a bd f6 ae 44 be 2e a8 ef bc 8d 9b 18 bd
       -0.061044406 -0.19207367 -0.029254999 -0.03725772
0001a0 20 5f b8 bc 37 b1 0b 3d 99 da 4e bd e8 d2 24 be
       -0.022506297 0.034104552 -0.05050144 -0.1609608
0001b0 65 80 78 bd d2 2e b7 bd 54 f9 53 3c 55 ae 45 be
       -0.06066932 -0.08944477 0.012937862 -0.19304784
0001c0 19 f3 5b 3b 23 04 0a bd 69 68 f9 3c 80 8f ef bb
       0.0033561646 -0.03369535 0.030445294 -0.0073108077
0001d0 0d b7 21 be 0e a4 e3 bb 18 8c 1c bd 5b ca df bc
       -0.15792485 -0.006947047 -0.03821954 -0.02731817
0001e0 a7 0e f7 3d c6 47 39 be 9f 5c 6b 3e ed 84 ab 3e
       0.120633416 -0.18093786 0.22984551 0.33499852
0001f0 cb 8e fc bd ce 50 6c 3e 33 3d 36 bd b7 81 a3 be
       -0.12331923 0.230777 -0.044491958 -0.31934902
000200 59 5b ce 3c d8 50 98 be 71 fb d2 bd a0 5b 2f bd
       0.025190042 -0.2974918 -0.10301865 -0.04281199
000210 76 f4 92 bd d2 58 42 be db 39 fb 3c c4 2f 4a bd
       -0.071755335 -0.18979195 0.030667236 -0.04936196
000220 52 34 bb 3d 6c 7d 63 3b 9f 29 a4 bb ed 82 24 be
       0.09140839 0.0034712208 -0.0050098444 -0.16065569
000230 6f 7a 52 bc 27 d1 8f be f3 59 00 3e f1 56 a2 3e
       -0.012846573 -0.28089258 0.12534313 0.31706956
000240 34 0a 87 be 7f 0f 30 3e 3d fa 89 be da 50 0b bd
       -0.26374972 0.17193411 -0.2694873 -0.034012653
000250 33 04 c1 be f3 98 b8 3d f3 83 a7 bd 4d 0d e7 bc
       -0.37698516 0.09013548 -0.08179464 -0.028204584
000260 31 67 d7 bc 2f b3 13 3e b7 ad 1a bd 7e b4 a2 bd
       -0.026294323 0.14423822 -0.037763324 -0.079445824
000270 f6 ed e1 bd 51 97 69 bd aa d4 ff bd c5 bb ba be
       -0.110317156 -0.057029072 -0.12491734 -0.36471382
000280 be 36 22 3e 7c 3c 09 be a9 a9 c1 bd 7e dc b8 3e
       0.15841195 -0.13401979 -0.09456188 0.36105722
000290 46 74 87 3e 3c 1a ff 3d 99 b5 99 be 38 b3 ef be
       0.26455897 0.12456176 -0.3002136 -0.4681642
0002a0 52 f5 d7 3c 2c 69 b8 bc 0c d6 7d 3c dd cd 45 be
       0.026362095 -0.022511087 0.015492927 -0.19316812
0002b0 66 8c b8 bc 7c e7 19 3e be 4a 6a be 9a 68 12 3d
       -0.022527885 0.1502971 -0.22880074 0.035744287
0002c0 c5 bc ac be 19 11 1e be f5 62 d1 b9 08 9c 86 3e
       -0.3373777 -0.1543621 -0.00039937315 0.26290917
0002d0 17 9e 29 3e c9 3d 30 be 94 3a 8c bc b8 c8 98 3e
       0.16564213 -0.17211069 -0.017117776 0.29840636
0002e0 95 a1 aa bd d4 6c 5e bd 22 f4 f3 3d f9 ec 44 bd
       -0.083316006 -0.054303005 0.11911799 -0.048077557
0002f0 9c 0a e1 39 14 50 19 3e 1d f0 ce be 90 78 82 3c
       0.0004292325 0.14971954 -0.40417567 0.01592663
000300 a4 cf 5c 3e e7 9a ce 3d 89 64 b9 be 8f 9c 8c 3d
       0.21563584 0.10088139 -0.36209515 0.06865799
000310 be 5b f7 bd 0f aa 2a bb d1 39 f5 be 7b 4e 8a bb
       -0.12078045 -0.0026041304 -0.47895673 -0.0042207814
000320 86 b4 27 bb ac 5a 86 3e 9f 2f 25 be 0e e8 29 3d
       -0.0025589778 0.26241052 -0.16131447 0.04148107
000330 f4 72 3c be 9a 97 04 bf 43 a0 58 be a2 67 b3 be
       -0.18403226 -0.51793826 -0.21154885 -0.35040003
000340 71 9e 25 be bc 58 52 be d3 51 7b be 4d 89 5a 3c
       -0.16173722 -0.20541662 -0.24542932 0.013338399
000350 f4 16 6f 3d 24 97 30 3c c6 ae 73 be 5d 25 da 3e
       0.0583715 0.010778222 -0.2379714 0.4260663
000360 2a 35 10 be 71 b8 9d bd 01 11 9a 3e f8 15 6a bd
       -0.1408278 -0.07701195 0.30091098 -0.057149857
000370 35 7b 14 be 9a 9d 97 be 1e d5 8c be a3 36 16 3d
       -0.14500125 -0.29612428 -0.27506346 0.0366732
000380 70 d2 d1 be 0a 39 a8 3e a4 b8 e8 bd f6 03 3e be
       -0.40980864 0.32856017 -0.113633424 -0.18556198
000390 b3 fa 6c bb e9 72 a5 3d 98 d0 03 be 83 09 f2 bc
       -0.003616017 0.08078558 -0.12872541 -0.029545551
0003a0 60 b3 a4 bc fe c3 cb 3d 91 33 3e bd d9 23 10 3e
       -0.020105064 0.09949492 -0.046435896 0.14076175
0003b0 da ba 2e bd e4 5f 2a 3e 0c 76 4e bd 4b 2a ec 3d
       -0.042658664 0.16638142 -0.050405547 0.11531504
0003c0 ff a1 9a bd 67 e5 23 3e 46 c5 ca 3c 8d f7 9d be
       -0.075504296 0.16005479 0.02475227 -0.3085293
0003d0 f1 a1 40 3e 21 52 ba 3d 33 fb db bc fc 43 d1 3d
       0.18811776 0.09097696 -0.02685318 0.10218045
0003e0 3e 2d 83 be 75 cd db bd 22 c6 05 bd 00 d2 02 b9
       -0.25620455 -0.10732547 -0.032659657 -0.00012475997
0003f0 1b e3 ba 3d 77 99 ad be 61 f9 8e be cd 5d 6d bc
       0.09125348 -0.33906147 -0.27924636 -0.014487696

linear_relu_stack.2.bias f4 [64]
000000 da 70 9b be cd 1d 5e 3a e7 4a 28 3a 58 5a 2c 3d
       -0.30359536 0.00084730686 0.0006419853 0.042078346
000010 05 71 c9 bd 31 c8 a3 bd 97 90 a9 3a 5e d4 2d bd
       -0.0983601 -0.07997168 0.0012936768 -0.042438857
000020 f9 3b b4 bc 88 a6 93 be 2f be 15 be cc 08 aa bc
       -0.022001253 -0.2883799 -0.1462333 -0.020756148
000030 0f d0 47 bd 19 db 1a 3d 21 57 65 3d 7a f5 87 3e
       -0.048782405 0.037806604 0.055991296 0.2655447
000040 3d 93 a3 3e ae fd 08 3f 1a 19 63 3c 8a 31 9a 38
       0.3194827 0.53512084 0.013860965 7.3525196e-05
000050 7d 6d 44 bd 31 71 07 be 35 09 a9 bb 71 c7 20 be
       -0.04795598 -0.13226773 -0.0051585683 -0.15701081
000060 be 17 96 3c d0 ac c1 bc b4 c0 ac 3c 3e ed 8e 3d
       0.018321868 -0.023641974 0.021087982 0.06978844
000070 8f 23 d3 be 1d 67 fc 3c 42 ae f1 be 0f 27 3d bd
       -0.41238067 0.030810887 -0.4720326 -0.046179827
000080 50 dc 88 be f2 88 79 be e5 12 79 3e 6e 0b e5 bc
       -0.26730585 -0.24368647 0.24323614 -0.027959552
000090 5e b1 67 bc f6 13 2f be f6 8e 88 3c 57 94 00 be
       -0.014141409 -0.17097458 0.016669732 -0.12556587
0000a0 29 53 2d bd 5c cf 84 bb 2f 26 a5 3c 65 7f 6d bc
       -0.042315636 -0.0040530395 0.020159809 -0.014495705
0000b0 17 1b 32 bd 89 e6 17 bb 92 9c 19 bd b3 c3 7a 3d
       -0.043482866 -0.002317818 -0.037502833 0.06122179
0000c0 c5 59 87 bd 9e ae 0b 3e 75 3b 2d 3e 82 81 5c be
       -0.06608919 0.1364083 0.16917212 -0.21533778
0000d0 77 44 e9 bd c4 2c e3 bc 80 51 6b 3e 18 08 61 3d
       -0.11390012 -0.027731307 0.22980309 0.05493936
0000e0 7c a8 57 bd 0e c2 60 bd dd 30 0c 3e b6 f5 e4 3c
       -0.052650914 -0.054872565 0.13690515 0.027949195
0000f0 20 5a 44 bd a7 d0 c5 3c 2c 28 35 3e 19 da d6 3d
       -0.047937512 0.024147345 0.17691106 0.104908176

linear_relu_stack.4.weight f4 [16, 64]
000000 19 c4 83 3c a2 a7 41 bc 57 4d a1 3d 6d dd 2d 3d
       0.016084718 -0.011819752 0.078760795 0.042447496
000010 2b 45 b0 bd a3 59 59 bc 4e 12 b2 3b 1d 13 d9 bd
       -0.08606943 -0.013266 0.005434311 -0.10599349
000020 4b 50 88 bd 94 fa d9 bc ff b0 a8 bc 9e b4 ff 3b
       -0.0665594 -0.026608743 -0.02059221 0.0078035137
000030 56 17 bc 3d 3a 6a ad 3d bc ba 78 bd 13 4a 97 3b
       0.091841385 0.08467527 -0.06072496 0.0046169846
000040 25 15 84 3d 13 24 e8 bc 37 6f bf 3c 95 e2 f8 bd
       0.064493455 -0.028337514 0.023368461 -0.12152592
000050 23 6c e0 3b 9e b7 9a bc 45 8e 4b 3d 2a 4d 03 3e
       0.0068488284 -0.018886384 0.049696226 0.12822405
000060 78 d2 7b bd 03 d1 4e 3d 2c 44 80 bd 3e de 2a bd
       -0.061480016 0.050492298 -0.06263003 -0.041715853
000070 1e ad 51 bb 9f 60 e4 bb 48 0c c4 bb b4 92 b0 3d
       -0.0031994055 -0.006969526 -0.0059829094 0.086217314
000080 39 7c 03 bd 05 43 25 3c 28 df a2 3d 4b a5 36 3d
       -0.03210089 0.0100867795 0.0795272 0.04459123
000090 aa bc c9 bc fc ee 34 3d b4 83 4a 3d fd 10 8f bd
       -0.024626095 0.044173226 0.04944201 -0.06985662
0000a0 8d ff ac bd 25 1b d7 bd cc db 9f bc 4f 00 81 3d
       -0.0844718 -0.10503224 -0.019513987 0.06298887
0000b0 47 1b db 3d 2c 8d d1 bc 63 f0 4d 3d 10 0f e6 3d
       0.10698562 -0.025580011 0.05027808 0.11233342
0000c0 d3 ff 2b 3d 03 3a fc 3c bb 3d a5 bd b1 64 a8 3d
       0.04199202 0.03078938 -0.08068415 0.0822233
0000d0 87 8d 0a 3d ec da 0f be 08 d3 c8 bc 47 26 5f 3d
       0.033826377 -0.14048356 -0.02451469 0.054479863
0000e0 17 cf be bc de a7 2c bd 83 fc 5a 3d 50 ce a3 bd
       -0.023292108 -0.042152278 0.05346347 -0.07998335
0000f0 7c 92 fd 3c 3d f1 94 bc b5 df 35 3d 57 aa 85 3d
       0.030953638 -0.018181438 0.044402797 0.0652663
000100 d0 5c 33 3e ea ae eb 3d 59 d2 cf 3c de fc a3 bd
       0.17515874 0.115079716 0.025368856 -0.08007215
000110 47 43 90 3d 51 94 03 bd 56 83 c8 bd b9 18 cc 3d
       0.07044082 -0.032123867 -0.09790675 0.09965653
000120 8b fe 40 bc f3 12 db 3d 57 96 30 3e 81 62 5a bd
       -0.011779438 0.10696974 0.1724485 -0.053316597
000130 c0 bd 97 3d 67 ad cd 3a 9d 49 00 bf fd ff 21 bf
       0.07409239 0.0015691937 -0.50112325 -0.6328123
000140 80 f8 e5 be 22 65 81 bf 45 9d 93 bd 66 ff 3d 3c
       -0.44916153 -1.0108988 -0.07207731 0.011596536
000150 5f 1d 13 be b3 1c 2e be ae 45 df 3d 58 b2 03 3e
       -0.14366673 -0.17003135 0.10901962 0.12861001
000160 a0 2c 57 bc 41 66 0d be 6a 0d 25 be 0d f9 9e 3c
       -0.013133198 -0.13808538 -0.16118398 0.019405866
000170 3f 8a 94 bd 51 c1 f0 bd 5b cb 0f 3e f2 03 00 bd
       -0.07252931 -0.11755622 0.14042418 -0.031253763
000180 34 c4 92 be 54 3f 54 3d e6 5b 0c be 86 a6 0d bd
       -0.28665316 0.051818207 -0.13706931 -0.034582637
000190 4f 74 df 3d fd a7 77 3d 85 9a c8 ba ab 6b 38 3d
       0.10910856 0.06046294 -0.001530484 0.045024555
0001a0 8f 3a 7b bc b7 41 7f 3d e0 a8 8d 3d 8a cd 3b bc
       -0.015333786 0.06231853 0.06916976 -0.011462579
0001b0 a2 18 1e 3e 41 74 bc bd a6 95 74 3c 8d 31 cd bd
       0.15439084 -0.09201861 0.014928257 -0.10019217
0001c0 d9 0e 25 be 5d d6 bd bd 04 d8 cb bd 7f a8 9c bf
       -0.16118945 -0.09269402 -0.09953311 -1.2238921
0001d0 7e 2d b8 be 3d 63 2f bd 7d 0d d3 bf 7a d3 20 bd
       -0.35972208 -0.04281925 -1.6488491 -0.03926418
0001e0 5d 89 8f 3a 10 64 c0 bd 8b 98 47 be bb 19 f1 3b
       0.0010950972 -0.093940854 -0.19491784 0.0073578036
0001f0 7f e3 b0 3d 49 50 99 bc 04 71 3e 3d f7 ed 4e 3d
       0.086371414 -0.01871504 0.0464945 0.05051991
000200 37 0d b8 be e5 9c cd be 8a e5 eb 3d da 0c 29 bd
       -0.35947582 -0.40158764 0.115183905 -0.04127202
000210 49 0e 2c be dd d7 98 3d 7d fb 8f 3d e5 ec fc 3c
       -0.16802324 0.07463048 0.070303895 0.030874679
000220 52 2f d6 3d f3 82 cf 3d c5 56 4b bc b0 49 c2 bc
       0.104582444 0.101323985 -0.012410824 -0.023716778
000230 2d 53 a5 bc b2 76 26 3d 19 11 98 be d4 41 ea bd
       -0.020181263 0.04064054 -0.29700544 -0.11438337
000240 f5 00 37 bf 47 40 37 be 2a 5d bf 3d 26 1b 4d 3d
       -0.71485835 -0.17895614 0.093439415 0.05007472
000250 a5 cb 86 bd 1b 4e 70 bd 59 4e 98 3d bc c8 92 bc
       -0.06581811 -0.058668237 0.07436819 -0.017917983
000260 b4 5b 70 bd 06 4e f3 bd e1 d3 28 3e 67 cd 1f be
       -0.058681205 -0.11880116 0.16487075 -0.15605699
000270 f3 86 93 be 12 c1 80 3d e4 d9 fa 3d ea df b9 bc
       -0.28813896 0.06286825 0.122485906 -0.022689778
000280 41 3f 89 bd 2a a9 e2 be d7 76 a1 be 51 6a 32 be
       -0.06701518 -0.44269687 -0.3153598 -0.17423369
000290 4f 2e b8 bc 68 c3 0d bf 78 91 8e bc 3c 0f 99 3c
       -0.02248302 -0.5537629 -0.01740335 0.018684022
0002a0 cd 5f 0d bd 41 ee 92 bc ff 8e 01 3e 27 29 a3 3d
       -0.03451519 -0.017935874 0.12652205 0.079668336
0002b0 e1 5b 8e bd 8d 6b bd bd 7f cb e1 3d 08 e0 0f bf
       -0.06951118 -0.09249029 0.11025142 -0.5620122
0002c0 41 2b d8 bd f6 eb 2b be 7e 91 9a 3e d1 23 99 be
       -0.10555125 -0.1678923 0.30189127 -0.29910138
0002d0 0b 59 ac be d0 e9 00 3d fb 65 f6 bd 4f c1 87 bf
       -0.33661684 0.03147298 -0.1203117 -1.0605868
0002e0 0b ff 94 3c d5 df 2b bd 18 cc 09 3d ab ae ed bd
       0.01818802 -0.04196151 0.033641905 -0.11605581
0002f0 98 31 ac bd b5 40 7b bc 59 5b 1a 3e d8 5b 21 be
       -0.08407897 -0.015335252 0.15073909 -0.15757692
000300 f6 42 0f bf 7a 81 d4 be 70 5f 20 3d a5 76 32 bd
       -0.5596155 -0.41505033 0.039153516 -0.04357018
000310 48 fb bf bb 81 96 a6 bd 55 09 b6 3d ac e0 4a 3c
       -0.0058588125 -0.08134175 0.08888499 0.0123826675
000320 fb fe d4 3c 9c 84 b5 bd 8f e6 4d bd 65 b7 1c bd
       0.02600049 -0.08863184 -0.050268706 -0.038260836
000330 f9 4d f8 bd 52 1a 1e bd ba 1e 99 bf 87 93 cd be
       -0.12124247 -0.03859932 -1.1962502 -0.40151617
000340 2f 86 aa be 1c 49 8b bf f7 7b a0 bc bf d2 ba bd
       -0.333055 -1.0881686 -0.019590361 -0.09122228
000350 a3 02 e8 bc e5 26 0b be fa 2b 12 3d a5 8e 79 bd
       -0.02832157 -0.13589056 0.03568647 -0.060927052
000360 68 2a ad bd 5d ed 39 bc d2 40 7a bd fb ef 38 bd
       -0.08455354 -0.011348096 -0.061096974 -0.04515074
000370 ae 50 e3 be 8d 3c f4 3d 92 0e 22 bd 21 2a b9 bd
       -0.4439749 0.11925612 -0.039564677 -0.090412386
000380 d9 22 cc bd b9 fb 6b 3d e6 24 7c be bd 78 dd bc
       -0.09967584 0.05761311 -0.2462345 -0.027035112
000390 f1 64 d2 bd 20 96 1e be b5 8d ea bd ae 2e 42 be
       -0.10273159 -0.15486956 -0.1145281 -0.1896312
0003a0 56 d2 09 bb 3e 03 f9 bd a3 77 69 bc 2d 8c 91 3c
       -0.002102991 -0.121588215 -0.014249715 0.017767036
0003b0 71 de e4 bd 94 9d 63 bc e1 6c a9 bd 97 ce 48 3e
       -0.1117524 -0.01389255 -0.0827272 0.19610058
0003c0 0f e0 48 3d 98 a8 d9 3d 2b 74 7d 3d f0 b2 2a bf
       0.049041804 0.1062786 0.061878365 -0.66679287
0003d0 5e d3 cf 3d 02 8b 39 3d 83 71 05 bf f1 0e 80 3d
       0.10147737 0.045298584 -0.5212633 0.0625285
0003e0 99 aa 15 bd f6 ed df bd 60 73 a0 bd 1e 02 f0 3d
       -0.036539648 -0.10934059 -0.07834506 0.11719154
0003f0 d1 48 c0 3c 80 7f af bd ad 19 c0 3d 20 86 07 bf
       0.023472222 -0.085692406 0.09379897 -0.52939034

linear_relu_stack.4.bias f4 [16]
000000 03 01 23 3e 27 be a5 be 0d c2 58 3e aa 5a 3f 3e
       0.15918355 -0.32371637 0.21167774 0.1868693
000010 47 65 f8 bd ff 37 ac bd 64 5e f3 3c fd bc dd 3d
       -0.12128692 -0.08409118 0.029708095 0.10827062
000020 de 7e c0 be 5d 27 00 bf 61 63 23 3e ce f6 ae be
       -0.37596792 -0.50060064 0.15955879 -0.34172672
000030 79 7e 5f be ad 44 eb bd 55 37 8e 3e 49 f8 a9 3e
       -0.21825589 -0.11487708 0.2777659 0.3319724

exp_avg f4 [512, 3]
000000 00 00 00 00 00 00 00 00 00 00 00 00 47 95 a7 b8
       0.0 0.0 0.0 -7.9909856e-05
000010 73 bb 87 b7 1c 88 60 b8 3c a2 1b 3a b9 8a ef 3c
       -1.6180542e-05 -5.3532523e-05 0.00059369556 0.029240953
000020 f7 67 ef 3b 04 ef 78 ba 58 d8 d6 bb ec 6c 16 ba
       0.0073060947 -0.00094960653 -0.006556552 -0.00057382765
000030 00 00 00 00 00 00 00 00 00 00 00 00 8d d7 bc 3a
       0.0 0.0 0.0 0.0014407501
000040 d3 67 c3 bb ca c9 15 3b d0 d5 95 38 42 ee 55 3c
       -0.0059633045 0.0022855871 7.144699e-05 0.013057293
000050 e9 00 eb 3a 5f 41 45 ba 01 fe 0d bc 22 57 6d 3a
       0.0017929348 -0.00075246947 -0.008666516 0.00090538163
000060 aa d8 4b b9 16 21 93 b8 f9 cd 0d b9 bb 94 5c ba
       -0.00019440302 -7.015669e-05 -0.00013523539 -0.00084144966
000070 26 13 24 39 03 a8 98 3a 82 01 0c 3a 0b 1b cd 38
       0.00015647392 0.0011646751 0.0005340801 9.780199e-05
000080 e2 02 fc 39 f0 bb 20 3b ed bc 2a 3b a6 c7 18 3b
       0.00048067333 0.0024526082 0.002605255 0.002331236
000090 d8 a9 1b bb 7b 7e 37 bc 29 aa ff ba 3f 8a 97 bb
       -0.0023752358 -0.011199589 -0.0019505668 -0.0046246345
0000a0 e5 76 1f bb 3d 00 49 bb 28 d9 90 3a a0 ce 10 bb
       -0.0024332341 -0.0030670308 0.0011051046 -0.0022095814
0000b0 43 23 2a ba c3 51 6c 3b 0a 4e d6 3b b3 4f 6e 3b
       -0.000649024 0.0036059476 0.0065400647 0.0036363422
0000c0 e1 c3 e8 ba d6 8b f5 39 e0 4b 58 ba 7e 50 f5 3b
       -0.0017758572 0.00046834227 -0.00082510523 0.007486402
0000d0 1a 80 4b 3d 46 4c 18 3c 4b 8c f5 3b 01 1e 3e 3c
       0.049682714 0.009295529 0.007493531 0.011603833
0000e0 bf 8b 0a 3c 64 7e ef 3a 4e d2 ed ba df 6f c0 bb
       0.00845617 0.001827192 -0.0018144341 -0.005872711
0000f0 e0 25 59 ba 46 3a 37 3a fd 52 5b 3b e6 70 57 bb
       -0.0008283537 0.00069895794 0.0033466213 -0.003287369
000100 13 d7 ce bc a3 90 04 bb 00 00 00 00 00 00 00 00
       -0.02524904 -0.0020227812 0.0 0.0
000110 00 00 00 00 00 00 00 00 00 00 00 00 00 00 00 00
       0.0 0.0 0.0 0.0
000120 78 d7 98 bb ef d0 3e bc dc 3b 67 bb 89 64 cc 3b
       -0.0046643578 -0.011646493 -0.0035283482 0.0062375707
000130 74 48 34 3c 0a 8b b7 3b 4a 39 ab 3b ad 51 25 3c
       0.011003602 0.0056012915 0.0052253352 0.010090274
000140 53 24 b0 3b 00 00 00 00 00 00 00 00 00 00 00 00
       0.005375424 0.0 0.0 0.0
000150 3e 3e e7 bb 26 ec 0c bd 4e 05 29 bc a1 1e 02 39
       -0.0070569804 -0.034404896 -0.010316206 0.00012409176
000160 3c 51 0a 3c 72 38 dd 3a 47 1d b3 3b 10 8b 07 3c
       0.008442219 0.0016877784 0.0054661366 0.008272901
000170 2e 20 91 3b 56 63 eb 39 fa ee 8a bb 81 25 04 3a
       0.004428885 0.00044896704 -0.004239914 0.0005040989
000180 42 18 95 ba c4 9b cf bb 96 cc 66 bb 5a 90 50 bb
       -0.0011375027 -0.0063357074 -0.0035217158 -0.0031824321
000190 27 3f eb bc 9a d1 10 bc aa 11 17 bb 72 fc 30 bb
       -0.028716637 -0.008839035 -0.00230513 -0.0027005938
0001a0 a2 93 07 bb d4 3b 98 3b d8 5c 0d 3c a0 35 83 3b
       -0.0020687361 0.004645804 0.008628093 0.0040041953
0001b0 a9 e4 ef bb de 4a b6 bd 04 fa 96 bc 18 a2 c3 b9
       -0.0073209596 -0.089009985 -0.018429764 -0.00037314068
0001c0 98 19 b2 bc 1b a0 78 bb 5c 2f 33 3b a4 3a ba 3b
       -0.02174072 -0.0037937227 0.002734146 0.00568326
0001d0 44 1c 0f 3b 39 ed 24 3b ac 64 d9 bc 16 55 16 b8
       0.0021836916 0.002516581 -0.026537262 -3.584203e-05
0001e0 e8 bb 4d ba 22 26 5a 39 72 08 a7 3a 71 13 14 3b
       -0.00078481296 0.00020804306 0.0012743606 0.0022594596
0001f0 59 d4 4d bb 8f 68 80 bb 43 8a a0 39 64 26 f3 b9
       -0.0031407087 -0.0039187144 0.0003062059 -0.00046377175
000200 85 bf 89 b8 be 2f b6 b9 93 bf 95 39 14 77 5d 3a
       -6.568342e-05 -0.00034749316 0.00028562229 0.0008448225
000210 ab 87 57 39 a6 9b 49 ba e8 8d bd ba df 63 ea 3a
       0.00020554538 -0.0007690735 -0.0014461847 0.0017882547
000220 7a c2 65 ba 67 59 94 3a 4f bb 5b ba 81 61 2f 3c
       -0.0008764636 0.0011318148 -0.0008382098 0.010704399
000230 f6 2f 65 39 a7 05 f5 b9 c2 1d 01 ba 30 b5 40 3a
       0.00021857009 -0.00046734253 -0.0004925394 0.0007351218
000240 44 07 84 ba 6a aa 2f bb a9 8e 87 ba 4f 60 42 bb
       -0.0010072966 -0.0026804456 -0.0010342199 -0.0029659455
000250 0f 21 b5 bc 2e 6f 14 bb 8d 0d f3 3b 88 b1 5d 3c
       -0.02211049 -0.0022649276 0.007417387 0.013531096
000260 0b 40 de 3b fd c5 96 bb a1 b8 4e bc 65 9d cb bb
       0.006782537 -0.0046012388 -0.012617261 -0.0062138312
000270 f4 18 71 3a a2 6f 80 ba 6b b6 b3 ba 22 ab 00 bb
       0.0009197139 -0.0009798894 -0.0013710981 -0.0019633253
000280 79 28 76 3c 67 39 28 39 36 40 6f 3c e2 d1 b6 3c
       0.015024298 0.00016043113 0.014602711 0.022316877
000290 c0 51 26 3c 35 26 89 bc 2a de 82 bd f1 aa 9f bc
       0.010151327 -0.016741851 -0.06390031 -0.01949069
0002a0 35 5e a9 bb 01 d7 0f bc e8 24 2f bb e0 2d e8 b7
       -0.005168701 -0.008779288 -0.0026724879 -2.7677917e-05
0002b0 74 5b f1 b7 9a 96 a1 36 e9 05 c8 b9 aa b8 65 3a
       -2.8772025e-05 4.8157062e-06 -0.00038151376 0.0008763174
0002c0 9d 12 fc 38 ef 4f fd b9 a6 f4 e0 3b 00 d8 e5 b8
       0.000120197634 -0.00048315476 0.006865102 -0.00010959804
0002d0 ca 9a 87 ba 00 01 9d 3b 75 aa 90 3a 4f 8f cc b9
       -0.0010345813 0.004791379 0.0011037128 -0.00039016685
0002e0 fe 9b c5 39 17 2d ef 3a ef 64 9f 39 9d cd 4b bb
       0.0003769099 0.0018247691 0.00030402045 -0.0031097897
0002f0 17 77 df ba b6 d6 6b 39 23 a4 8d 3b 11 ea 2c ba
       -0.0017049041 0.00022491332 0.004322545 -0.0006596158
000300 f9 0c de bb d9 cd 47 bd 21 0f 48 bb 84 57 ee 38
       -0.006776449 -0.048780296 -0.0030526596 0.000113650254
000310 6f 3f 12 3b 8f 51 f3 3a bf 15 96 ba 6c 51 89 3a
       0.0022315641 0.0018563735 -0.0011450573 0.0010476536
000320 66 55 84 3b 21 ad 4e 3b 22 17 2a 3c 52 35 01 3c
       0.0040385006 0.0031536298 0.010381492 0.007886248
000330 b3 b2 54 ba db 04 b5 ba 32 dd 44 39 f6 c1 32 b9
       -0.00081137865 -0.0013810651 0.00018774418 -0.00017047659
000340 8b 67 c5 3c a7 fe ea 3a 34 3a a7 b8 c9 e6 03 b8
       0.024097225 0.0017928676 -7.974022e-05 -3.144777e-05
000350 72 7a 80 b8 c4 62 b9 b9 06 36 1d 3a ae 44 11 3b
       -6.126323e-05 -0.00035359536 0.0005997125 0.002216618
000360 a8 f0 e2 39 b5 3f e3 3b 29 76 13 3b 26 17 4b 3a
       0.00043285382 0.0069350847 0.002250085 0.0007747285
000370 ee 59 9f ba 5e 81 80 ba b1 f9 3b ba 14 96 5f 3b
       -0.0012157538 -0.000980418 -0.0007170691 0.0034116553
000380 da cc 27 3b c4 a2 43 3b ce ab 95 bb 22 00 ae bb
       0.0025604279 0.0029851655 -0.0045676 -0.0053100744
000390 af 64 fd ba fb 51 38 bc 5e a4 4a bb 55 ce b9 ba
       -0.0019332374 -0.011250014 -0.0030920724 -0.0014175872
0003a0 bc d2 32 bb 55 4c c1 ba b3 e8 03 3c f0 7e 4f 3c
       -0.0027286252 -0.001474748 0.008051085 0.012664542
0003b0 b6 99 da 3b b1 c4 20 bb 14 83 a6 bc f6 67 b5 bb
       0.006671156 -0.00245313 -0.020326175 -0.0055360748
0003c0 41 4c 80 bb 62 4a 88 bc c5 d3 4e 3a 1c 88 40 bb
       -0.00391534 -0.016637031 0.00078898325 -0.0029378003
0003d0 f5 90 5d bc a5 b2 7c bb 52 e4 38 3a 85 24 76 ba
       -0.01352333 -0.003855863 0.00070530653 -0.0009389597
0003e0 16 2c 89 ba e0 64 b3 ba ea 8e 5b 3c 98 de b7 39
       -0.0010465409 -0.0013686679 0.013400773 0.00035070325
0003f0 40 e1 ef 38 6e fb 73 bb 3b a8 d0 ba 2e 40 86 bb
       0.00011438364 -0.0037228721 -0.0015919277 -0.0040970063

exp_avg_sq f4 [512, 3]
000000 00 00 00 00 00 00 00 00 00 00 00 00 16 66 cf 38
       0.0 0.0 0.0 9.889544e-05
000010 f0 34 5b 39 89 00 3f 37 3e 4f 3d 3b 31 5d 8a 3c
       0.00020905188 1.1384612e-05 0.0028886343 0.01689014
000020 df 32 67 3b 5d 64 ab 3a c5 03 dc 3b 4c 14 f0 3a
       0.0035278124 0.0013076175 0.0067143166 0.0018316596
000030 00 00 00 00 00 00 00 00 00 00 00 00 25 dc 99 3b
       0.0 0.0 0.0 0.0046954327
000040 ad c7 ba 3c c2 97 14 3c 9e f7 71 3a e2 b1 bf 3b
       0.022800291 0.009069385 0.0009230318 0.0058500627
000050 f6 9a c5 3a b6 73 40 3b ee 8a 6f 3c 7c ed 9c 3b
       0.0015076089 0.0029365844 0.014620526 0.0047890525
000060 18 ac 9d 35 86 1d fe 34 34 9f 8e 35 96 83 3f 38
       1.1747497e-06 4.7332668e-07 1.0626159e-06 4.5660498e-05
000070 1d 68 7c 3a fc 76 44 3a a3 67 9d 38 5e 2e 00 3b
       0.0009628551 0.00074945367 7.505647e-05 0.0019558887
000080 fc fe 99 39 e7 8e 9d 3a 20 ff d9 3a 45 4d 52 3a
       0.00029372412 0.0012020738 0.0016631819 0.00080223783
000090 25 dc 4c 39 a2 12 b3 3b ca 65 a3 3a 70 6f 11 3c
       0.00019536966 0.0054648677 0.0012466249 0.008876666
0000a0 d4 5b f8 3c 9e e6 18 3c db 83 ed 3a 8f ad e5 3b
       0.030317225 0.009332327 0.0018120961 0.007009215
0000b0 54 eb 0f 3b 96 43 9f 3a 74 a3 37 3b e5 42 38 3b
       0.0021960335 0.001215088 0.002802101 0.0028116044
0000c0 52 b7 ad 39 0d bb 51 3a 0e 18 c0 3a 91 c7 19 3c
       0.00033133716 0.000800059 0.0014655606 0.009385959
0000d0 18 ae 57 3d 63 84 fa 3b 93 f1 6c 3b 70 46 c2 3b
       0.052656263 0.0076451763 0.0036154732 0.005928807
0000e0 f2 b7 bb 3a 84 e8 f4 38 45 1c 89 39 25 73 32 3a
       0.0014321788 0.00011678136 0.0002615174 0.0006807319
0000f0 c8 42 53 38 c4 7f 52 3a 7c 5f a0 3a 0c 42 d9 3b
       5.0368515e-05 0.0008029903 0.0012235488 0.006630188
000100 7a 95 23 3d 41 71 de 3b 00 00 00 00 00 00 00 00
       0.039937474 0.0067884033 0.0 0.0
000110 00 00 00 00 00 00 00 00 00 00 00 00 00 00 00 00
       0.0 0.0 0.0 0.0
000120 3f 25 1c 3a 3e 22 9a 3b f8 08 bc 3a 04 52 ea 3b
       0.0005956478 0.004703789 0.0014345935 0.0071508903
000130 15 b5 cc 3c 2d 50 d0 3b f2 68 12 3b a7 76 07 3c
       0.02498869 0.006357214 0.0022340384 0.008268035
000140 40 73 33 3b 00 00 00 00 00 00 00 00 00 00 00 00
       0.0027381927 0.0 0.0 0.0
000150 4a a1 c1 3b 9c 25 13 3d 5d 64 e6 3b 83 a7 2e 3a
       0.0059091197 0.03592454 0.007031007 0.00066625344
000160 eb 5d 2e 3b 4e 91 12 3a 83 05 32 3c 1e ec c3 3c
       0.0026606272 0.000559111 0.010865572 0.0239163
000170 a9 80 a3 3b 7f ad 15 3a 5d df 15 3b 71 0f 92 39
       0.0049897027 0.0005709752 0.002286873 0.00027858795
000180 32 bf af 3a 06 e6 d7 3b f1 78 3c 3b bc 22 5e 3b
       0.0013408421 0.0065887 0.002875861 0.0033895215
000190 88 0e bb 3c 34 18 7f 3b c6 4c 08 3b 4a 44 72 3c
       0.022834077 0.0038924338 0.0020797714 0.014786789
0001a0 50 51 47 3b f4 3d 0b 3c e7 f1 e1 3c 3b 55 e7 3b
       0.0030413456 0.0084986575 0.027581168 0.007059721
0001b0 eb 9a dc 3c a1 75 f9 3d 25 d4 9f 3c da c3 d7 3a
       0.02692934 0.12180639 0.019510338 0.0016461567
0001c0 8e 38 27 3c bc b5 8f 3a b5 89 c9 3b 4a 86 b9 3c
       0.010206355 0.0010964195 0.006150449 0.022647042
0001d0 57 80 c3 3b 98 1e aa 3c b8 b9 c2 3d df f7 83 3c
       0.005966227 0.020766541 0.09508079 0.016109405
0001e0 c6 62 1d 38 5f 93 7f 3a fd f4 42 3a 32 3e 03 3a
       3.7523707e-05 0.0009749438 0.0007437019 0.0005006521
0001f0 55 df 97 3a d1 78 bb 3a 23 34 94 3a 32 54 2d 3b
       0.0011586944 0.0014302974 0.0011307042 0.002644789
000200 a3 7c 5c 3b 0d 73 25 38 c3 d2 34 38 ef 36 b0 39
       0.0033643625 3.9446215e-05 4.311163e-05 0.00033610265
000210 cb 38 05 3b 44 82 ca 3b 9c 58 34 3b 93 46 ef 39
       0.002032804 0.0061800797 0.0027518636 0.00045638214
000220 a4 79 2d 3b c0 66 b5 39 89 46 a5 3a b5 f7 a3 3b
       0.0026470209 0.00034599565 0.0012609522 0.005003894
000230 ed d7 a0 3a 98 8c cf 37 3b 9c 1e 3a 69 56 01 3a
       0.0012271382 2.4741792e-05 0.0006050502 0.00049338356
000240 3d b5 b4 3a 46 ff 0d 3c 48 33 06 3b f8 a4 dc 3b
       0.0013786923 0.008666819 0.0020477343 0.006733533
000250 24 06 23 3d 6b fa ef 3b f2 0d 81 3a 33 1c 65 3b
       0.039800778 0.0073235533 0.0009846075 0.0034959435
000260 09 9f a8 3a 34 af 2a 3b a2 a3 fc 3b c9 f9 23 3b
       0.0012864779 0.002604437 0.0077099362 0.002502071
000270 18 db 31 38 4f a9 ef 38 c4 87 0d 39 1e e8 af 3b
       4.2404135e-05 0.00011427944 0.00013497384 0.0053682467
000280 63 a3 c5 3c e2 41 9f 3b 97 53 d3 3b 94 45 bd 3c
       0.02412576 0.0048601488 0.0064491737 0.023104466
000290 e8 16 f4 3b 07 df 02 3b 06 8e 9d 3c e3 f0 24 3b
       0.0074490197 0.001996936 0.019232761 0.0025167994
0002a0 21 4d e9 3a 29 4b 12 3c 13 8f 0a 3b 75 f7 c6 37
       0.0017799475 0.008929052 0.0021142408 2.371867e-05
0002b0 96 51 04 39 df 9d 46 37 84 14 e6 39 0b b4 d2 39
       0.00012618894 1.1838477e-05 0.00043884304 0.00040188464
0002c0 16 a9 c4 3a 81 f0 7a 3a fc f0 7e 3b 05 be 5a 3a
       0.0015004005 0.0009572581 0.0038900962 0.0008344355
0002d0 16 eb a3 3a 4d 5c ba 3b 2d 4d c9 3a bf 6a 22 38
       0.0012505974 0.0056872726 0.0015358083 3.8723225e-05
0002e0 18 c9 9d 38 b3 f1 85 39 38 e9 7d 37 5e fe 94 39
       7.5238e-05 0.00025547817 1.5134276e-05 0.00028418278
0002f0 0d 5b a4 39 69 fe 20 3b 59 5b 0f 3c 2d 88 30 3b
       0.00031348356 0.0024565703 0.008749806 0.0026936636
000300 25 30 f3 3a 8d 48 62 3d 98 44 24 3b 38 0b 7a 39
       0.0018553777 0.05524497 0.00250653 0.00023846037
000310 44 b4 a8 3a 6e f5 9d 3a 6a 1e a2 38 47 b3 a0 3a
       0.0012871106 0.0012051293 7.730427e-05 0.001226046
000320 b0 13 f9 3a e5 a2 87 3b 69 53 9a 3c fb 5e af 3b
       0.001900306 0.0041392916 0.018838601 0.0053518987
000330 51 59 c7 39 9e 88 03 3b aa c2 45 3b ff c7 b7 3b
       0.00038022784 0.0020070444 0.0030175843 0.005608558
000340 6a 01 d3 3c f7 4b 99 3b d8 96 b8 35 58 de ad 33
       0.02575751 0.004678245 1.375297e-06 8.0963844e-08
000350 e6 59 d4 35 46 c0 e9 37 d4 f8 1a 3a e3 77 65 3a
       1.5821395e-06 2.7865299e-05 0.0005911712 0.0008753521
000360 25 54 08 3a 95 21 59 3b 15 5d 38 39 27 b2 8b 3a
       0.0005200527 0.0033131589 0.00017582283 0.0010657952
000370 56 85 24 3b f2 84 4f 3b 9c 53 01 39 3b 68 34 3b
       0.0025103888 0.0031664935 0.00012333546 0.0027527947
000380 53 d8 09 3a 4b c9 72 39 16 63 00 3a e7 b7 5c 3a
       0.000525837 0.00023153906 0.00048975775 0.00084197376
000390 8f 9b c4 3a 57 8f 18 3c 05 77 00 3b f8 4e 83 39
       0.0014999973 0.009311519 0.0019602191 0.00025045103
0003a0 1f 80 0b 3b 2c c6 b4 39 40 da 84 3b 18 f8 70 3c
       0.0021286083 0.00034479925 0.0040543377 0.014707588
0003b0 30 0c af 3b 48 12 69 3b 60 ac ba 3c 4c 9e 44 3b
       0.005342029 0.0035563875 0.022787273 0.003000158
0003c0 b9 bf 7e 3b 71 87 a5 3c fe 54 8e 3b 9e b3 71 3b
       0.00388716 0.020206185 0.004343628 0.0036880742
0003d0 48 15 bb 3c 58 c0 a2 3b ae 22 87 38 b0 52 1d 39
       0.022837296 0.004966777 6.443761e-05 0.0001500349
0003e0 d4 23 90 39 ca d5 3c 3b 63 0f 4b 3c 1c 33 86 3b
       0.00027492514 0.0028813952 0.012393805 0.004095448
0003f0 d0 67 03 38 9f 57 d7 39 3b 3f 07 3a 8d ee 74 3a
       3.1329517e-05 0.00041073278 0.00051592634 0.0009343408
