notebooks/checkpoints/checkpoint-1.ckpt (torch, 13583 bytes, 8 tensors)

linear_relu_stack.0.weight f4 [64, 3]
0.6992746 0.1927104 -0.31377223 0.41755828 0.2109249 -0.67222536 0.47880888 -0.4973998
0.25841647 -0.13276865 0.35607967 -0.71378416 -0.77679425 0.80091333 -0.17464522 0.23614109
-0.55212665 -0.4392882 -0.17869747 -0.50231236 -0.44290078 -0.54805577 -0.38445196 -0.3509915
-0.23242901 0.43750262 -0.54878724 -0.15831399 0.12874575 -0.19203202 0.16822164 -0.47233897
0.4286172 -0.36904278 0.118066415 -0.2268441 -0.005435615 0.19951999 -0.596286 -0.47351414
-0.39636335 -0.020475576 -0.5550635 -0.5208914 -0.47273204 0.38616198 0.35945463 0.29584154
0.11746214 -0.19034015 0.1875684 -0.30128786 -0.6644362 0.6596553 -0.16527484 0.49203
-0.18900383 -0.3461426 -0.29700795 0.5358814 -0.1929146 0.65781647 -0.35826445 0.02431345
-0.5037082 -0.5298549 -0.4080728 -0.104372256 -0.33124042 0.7676457 -0.27012095 0.5908344
0.7144955 -0.69863373 0.83030677 -0.71895945 0.12674043 0.62105644 0.17380281 0.22188054
-0.08639653 0.40088958 -0.63887763 0.9428689 -0.8269155 0.11891967 0.7543462 0.28701726
0.2823952 0.27001163 -0.37402323 0.17659214 -0.5960007 0.25444463 -0.30452725 -0.02484183
-0.6781376 -0.18040809 0.82203543 0.17906587 -0.5069667 0.24655855 0.42472306 0.6973272
-0.114787795 0.47844094 0.25048772 0.16633989 0.09084335 0.34005967 -0.13911296 -0.6190755
0.48305762 -0.46346557 0.21830815 -0.50983965 -0.52355355 0.65817183 0.096390635 -0.39938766
0.29025936 -0.5535078 -0.27586195 0.61772096 0.7069436 -0.4909785 -0.37096846 0.61042714
-0.5950268 -0.5221699 0.41758835 0.39459452 -0.9447546 0.7321707 -0.44900405 -0.36907792
0.3847584 0.32905883 0.044840097 -0.08539823 -0.182349 0.23784792 -0.28418648 -0.10295992
-0.424887 0.04523446 0.14989132 -0.2862369 -0.35139713 -0.43248314 0.88195187 -0.15599401
-0.4634045 0.38606128 -0.34412724 -0.22763185 0.39569655 -0.31539884 -0.4005695 0.14779998
0.694496 -0.19372672 0.0610218 0.24132219 -0.32092008 -0.13389309 0.113562465 0.4401711
-0.70091 0.58138835 0.3134252 0.7836511 -0.48346478 0.5203364 -0.6155927 -0.85329396
0.60293037 0.18336968 0.5629332 -0.66363007 0.6447624 0.21486858 -0.55905074 -0.40106007
0.15210515 -0.5467149 0.27950004 -0.3326668 0.0030043155 -0.10286348 -0.43234295 0.044713218
00000000: a903 333f e055 453e c1a6 a0be 33ca d53e
00000010: b2fc 573e f616 2cbf 7026 f53e 30ab febe
00000020: 2a4f 843e 81f4 07be 1350 b63e 8fba 36bf
00000030: fddb 46bf a808 4d3f 32d6 32be f8ce 713e
00000040: 2c58 0dbf 62ea e0be 78fc 36be 8b97 00bf
00000050: e4c3 e2be 624d 0cbf e3d6 c4be 28b5 b3be
00000060: df01 6ebe 5800 e03e 527d 0cbf 101d 22be
00000070: edd5 033e 0ba4 44be 4b42 2c3e 6ad6 f1be
00000080: b773 db3e 2df3 bcbe cecc f13d d249 68be
00000090: 3e1d b2bb f84e 4c3e 33a6 18bf 7270 f2be
000000a0: 23f0 cabe 65bc a7bc a418 0ebf 2459 05bf
000000b0: ef09 f2be 06b7 c53e 700a b83e 8b78 973e
000000c0: fe8f f03d 87e8 42be ee11 403e 6742 9abe
000000d0: 7e18 2abf 2bdf 283f cf3d 29be 5beb fb3e
000000e0: 388a 41be 9a39 b1be 6d11 98be 862f 093f
000000f0: 688b 45be a966 283f 706e b7be 002d c73c
00000100: 05f3 00bf 92a4 07bf ebee d0be 1fc1 d5bd
00000110: 5898 a9be 6e84 443f 4b4d 8abe ec40 173f
00000120: 2de9 363f a9d9 32bf fc8e 543f ba0d 38bf
00000130: 3ec8 013e 8efd 1e3f 5df9 313e a734 633e
00000140: aaf0 b0bd 6641 cd3e 7c8d 23bf db5f 713f
00000150: bcb0 53bf 288c f33d d51c 413f edf3 923e
00000160: 1b96 903e f73e 8a3e f97f bfbe 92d4 343e
00000170: 8093 18bf 9146 823e ffea 9bbe 1881 cbbc
00000180: 6d9a 2dbf e6bc 38be ea70 523f 0b5d 373e
00000190: 92c8 01bf d879 7c3e 4d75 d93e 0984 323f
000001a0: dd15 ebbd 36f6 f43e ed3f 803e 0155 2a3e
000001b0: 140c ba3d 4d1c ae3e a173 0ebe bb7b 1ebf
000001c0: 5453 f73e 5c4b edbe 2c8c 5f3e da84 02bf
000001d0: 9b07 06bf f37d 283f 7468 c53d 8a7c ccbe
000001e0: e09c 943e b0b2 0dbf c73d 8dbe f622 1e3f
000001f0: 41fa 343f 8961 fbbe 94ef bdbe f444 1c3f
00000200: ad53 18bf edac 05bf 24ce d53e 4b08 ca3e
00000210: 70db 71bf 8a6f 3b3f dce3 e5be c8f7 bcbe
00000220: 0eff c43e 667a a83e 40aa 373d 44e5 aebd
00000230: b2b9 3abe 688e 733e e480 91be a7dc d2bd
00000240: ca8a d9be c547 393d 1c7d 193e a58d 92be
00000250: 53ea b3be 6e6e ddbe 99c7 613f e5bc 1fbe
00000260: 5b43 edbe d3a9 c53e 7231 b0be 5318 69be
00000270: bd98 ca3e f57b a1be 7217 cdbe e158 173e
00000280: 7dca 313f 4c60 46be fff1 793d 2a1d 773e
00000290: a34f a4be 451b 09be 7093 e83d 1b5e e13e
000002a0: d66e 33bf ded5 143f 4579 a03e 5c9d 483f
000002b0: b288 f7be c434 053f 7c97 1dbf 7971 5abf
000002c0: a559 1a3f 43c5 3b3e 641c 103f a9e3 29bf
000002d0: 260f 253f 8206 5c3e f31d 0fbf bf57 cdbe
000002e0: 74c1 1b3e 82f5 0bbf a11a 8f3e 4e53 aabe
000002f0: 0de4 443b 17aa d2bd 0e5c ddbe 3525 373d

linear_relu_stack.0.bias f4 [64]
0.50597745 -0.4845751 0.8142854 0.038491774 -0.19510612 -0.41861212 0.3522262 0.0633626
-0.3230289 0.48893297 0.4806791 0.51957387 0.2473083 -0.11884808 -0.052146554 0.22139527
-0.19135657 -0.16280751 -0.401468 0.0022991118 -0.19917968 -0.22257847 -0.16590895 0.2451139
0.43428287 0.7491392 0.54156196 -0.14598313 -0.12694998 0.42285937 0.3379043 0.3239069
0.6017407 0.2371136 -0.4511192 -0.51212823 -0.341844 0.07120399 0.57104385 -0.119635075
-0.5005535 -0.5865282 0.6160864 0.73643076 -0.22984676 -0.3958582 -0.13377616 0.02105708
-0.5427132 -0.4590368 -0.34496966 -0.08984179 -0.38528973 -0.03980772 0.41303623 -0.67649806
-0.7148689 0.32612503 0.040635824 0.23716706 -0.20747773 0.42053193 0.1809655 -0.06585065
00000000: bd87 013f 3a1a f8be 0275 503f 8da9 1d3d
00000010: e6c9 47be 5454 d6be fe56 b43e 40c4 813d
00000020: 0b64 a5be 6c55 fa3e 921b f63e cb02 053f
00000030: 633e 7d3e 9f66 f3bd a097 55bd 71b5 623e
00000040: faf2 43be 03b7 26be 378d cdbe b2ac 163b
00000050: c2f5 4bbe 9ceb 63be 09e4 29be 23ff 7a3e
00000060: 535a de3e 96c7 3f3f cea3 0a3f 9a7c 15be
00000070: 2dff 01be 0681 d83e cb01 ad3e 20d7 a53e
00000080: ae0b 1a3f e8cd 723e 19f9 e6be d61a 03bf
00000090: 2d06 afbe 66d3 913d ee2f 123f 3c03 f5bd
000000a0: 4624 00bf b626 16bf d7b7 1d3f ba86 3c3f
000000b0: f35c 6bbe edad cabe 9efc 08be e67f ac3c
000000c0: 41ef 0abf df06 ebbe dd9f b0be f9fe b7bd
000000d0: b244 c5be 6b0d 23bd 7c79 d33e fa2e 2dbf
000000e0: a601 37bf dcf9 a63e c071 263d ecdb 723e
000000f0: 0b75 54be f64f d73e 054f 393e b5dc 86bd

linear_relu_stack.2.weight f4 [16, 64]
0.14784624 0.119577035 0.3708629 -0.07808604 0.23232178 0.07364452 -0.11063476 -0.06291404
0.10387163 0.100118846 0.20962751 0.1718264 -0.043757856 -0.0024309303 -0.081811786 -0.07259722
-0.011221144 0.02693536 -0.003644149 0.13124962 0.15170994 0.0044386983 -0.008236503 0.20714267
0.28796738 0.21763235 -0.047876112 0.034146644 0.12885515 -0.020934453 -0.018718109 -0.050633382
0.20030698 0.20075276 0.012155072 -0.21509995 0.042220563 0.28519937 0.10292378 0.12163716
0.068241574 0.08697483 0.17115532 0.0939379 0.44710922 -0.040202964 0.079663545 -0.06712246
0.16982496 0.122731194 0.26158917 -0.06023266 -0.03655452 -0.10924018 0.13730113 -0.064780824
-0.11412446 0.39722216 0.2220412 0.16185221 0.07755126 0.0657755 0.07866 -0.11478645
0.011946491 0.08265397 0.18079743 -0.02708527 0.042450875 -0.03777857 -0.028196022 -0.010992572
0.015916131 -0.03625937 0.18661804 0.09819731 0.11478596 -0.09277772 -0.0026474297 -0.1593113
0.1633286 0.12334229 -0.034801558 0.0020390719 -0.060518365 0.069738194 0.045239046 0.19634181
0.51289964 -0.36174476 -0.18113852 0.4282807 -0.09686033 -0.12894538 0.101812646 0.16410713
-0.15055119 0.34701443 -0.16417879 0.086708434 -0.1452885 0.0104713915 -0.017520651 0.05399455
-0.09496779 -0.33584931 -0.077270485 -0.43265733 0.05668234 -0.123985596 -0.12204063 0.062960856
-0.022552017 -0.019048288 0.24409552 0.08497566 -0.05801526 -0.48589545 0.029805768 -0.042101905
0.038796287 0.40941703 -0.11979609 -0.026347773 -0.17874531 0.089399785 0.19093812 -0.12623374
-0.040648114 0.19089985 0.01970293 0.022231372 0.19842444 0.08665417 -0.013181075 0.10241686
-0.11306096 0.06846126 -0.18833786 -0.013833592 0.067282975 -0.02277952 0.013146669 0.070589475
0.10250877 -0.16613768 0.057966437 -0.23272143 0.12798032 -0.058990315 0.014825451 0.028628968
-0.44880477 0.10684842 -0.028986178 -0.37884566 0.2658835 0.09781586 0.057407465 -0.036252417
0.2704947 0.045031145 -0.011415532 0.03615929 0.07018877 -0.022049213 -0.09893978 -0.073597945
-0.010455733 -0.006372718 -0.019345477 0.19409697 0.18086724 -0.018182911 0.11169638 -0.11295267
-0.13088045 0.043338552 0.15440294 0.084213614 0.11349708 -0.040390708 0.031655926 0.07897031
0.116113864 -0.20167246 -0.17953102 -0.19450273 -0.017929522 -0.018204737 0.061289348 -0.10744483
-0.113409445 0.075708404 -0.17000219 0.01767945 0.1281106 -0.12284587 0.0012273043 0.014393285
-0.05439741 0.03543751 -0.07083374 -0.03814163 -0.014013805 0.03072762 -0.08005786 -0.17158791
-0.05535239 0.19628865 0.0034643183 0.25443804 -0.09862996 0.06592952 0.093621075 -0.20754836
-0.24520285 0.31318232 -0.13210209 -0.03969222 0.34364045 -0.23276095 0.009793066 -0.04211282
0.32490826 -0.1585256 -0.48207518 -0.2019974 -0.041481674 -0.1095691 -0.0025283694 -0.09492886
0.032954037 -0.17568564 -0.22897321 0.18647845 0.035995018 0.029733023 0.11527492 0.07894393
0.03825658 0.0071789324 -0.11983875 0.09273798 0.058642637 -0.15356052 -0.09533771 0.11036804
0.26876104 -0.38752085 0.34459388 -0.1000288 -0.0929598 0.08325177 0.018371642 -0.12810506
00000000: 0165 173e cee4 f43d bee1 bd3e 93eb 9fbd
00000010: c3e5 6d3e f0d2 963d 7a94 e2bd 14d9 80bd
00000020: a6ba d43d 1c0b cd3d 98a8 563e 43f3 2f3e
00000030: 703b 33bd 3e50 1fbb f08c a7bd daad 94bd
00000040: e4d8 37bc 8ba7 dc3c add2 6ebb 4d66 063e
00000050: da59 1b3e 8072 913b 66f2 06bc 351d 543e
00000060: 7670 933e 04db 5e3e be19 44bd 5add 0b3d
00000070: 9bf2 033e bb7e abbc b856 99bc f364 4fbd
00000080: 461d 4d3e 2292 4d3e 1126 473c 2943 5cbe
00000090: 78ef 2c3d a705 923e b4c9 d23d e71c f93d
000000a0: 3dc2 8b3d dc1f b23d 5743 2f3e 8462 c03d
000000b0: 80eb e43e ddab 24bd a426 a33d 8077 89bd
000000c0: 98e6 2d3e 7e5a fb3d 04ef 853e 86b6 76bd
000000d0: 31ba 15bd 51b9 dfbd ab98 0c3e cfab 84bd
000000e0: 16ba e9bd b460 cb3e c55e 633e 96bc 253e
000000f0: 32d3 9e3d 4eb5 863d 7e18 a13d 2915 ebbd
00000100: 37bb 433c 7c46 a93d f622 393e eee1 ddbc
00000110: f8e0 2d3d b4bd 1abd 58fb e6bc 301a 34bc
00000120: 8c62 823c b584 14bd cd18 3f3e ac1b c93d
00000130: e714 eb3d 3f02 bebd 8080 2dbb 8022 23be
00000140: 9d3f 273e e29a fc3d 148c 0ebd f3a1 053b
00000150: 1be2 77bd e6d2 8e3d 944c 393d d40d 493e
00000160: 644d 033f 9c36 b9be 607c 39be 9c47 db3e
00000170: b55e c6bd 420a 04be 2683 d03d b30b 283e
00000180: 172a 1abe e0ab b13e 7c1e 28be 3194 b13d
00000190: 82c6 14be 3390 2b3c 7887 8fbc 6429 5d3d
000001a0: 797e c2bd 71f4 abbe fd3f 9ebd 4385 ddbe
000001b0: be2b 683d 29ec fdbd 70f0 f9bd 9ff1 803d
000001c0: 02bf b8bc 280b 9cbc 2df4 793e b807 ae3d
000001d0: 69a1 6dbd 4ac7 f8be 3a2b f43c 0c73 2cbd
000001e0: dbe8 1e3d 1c9f d13e a757 f5bd 49d7 d7bc
000001f0: 0309 37be 3c17 b73d 4885 433e 6b43 01be
00000200: a37e 26bd 407b 433e 0a68 a13c 911e b63c
00000210: c72f 4b3e be77 b13d 70f5 57bc eebf d13d
00000220: 818c e7bd 6b35 8c3d a4db 40be 4aa6 62bc
00000230: a8cb 893d 1e9c babc 2065 573c 3791 903d
00000240: 1ef0 d13d ff1f 2abe 376e 6d3d 874e 6ebe
00000250: 460d 033e d49f 71bd 73e6 723c 4c87 ea3c
00000260: bdc9 e5be 58d3 da3d 6c74 edbc 0ff8 c1be
00000270: e221 883e ae53 c83d 1724 6b3d 6a7d 14bd
00000280: 487e 8a3e 9472 383d 3608 3bbc c31b 143d
00000290: 21bf 8f3d 8da0 b4bc f0a0 cabd 85ba 96bd
000002a0: 864e 2bbc 3cd2 d0bb 687a 9ebc 5bc1 463e
000002b0: 4335 393e 54f4 94bc 12c1 e43d bb53 e7bd
000002c0: 8605 06be c483 313d ce1b 1e3e 3078 ac3d
000002d0: 2871 e83d ba70 25bd a5a9 013d 30bb a13d
000002e0: 1bcd ed3d 3a83 4ebe fbd6 37be b92b 47be
000002f0: efe0 92bc 1a22 95bc 8a0a 7b3d 090c dcbd
00000300: 3643 e8bd 020d 9b3d 0e15 2ebe 7ed4 903c
00000310: 6d2f 033e 9e96 fbbd 80dd a03a d0d1 6b3c
00000320: d2cf 5ebd ec26 113d 4811 91bd 663a 1cbd
00000330: 299a 65bc 7db8 fb3c 60f5 a3bd beb4 2fbe
00000340: 30b9 62bd e4ff 483e 9e09 633b b445 823e
00000350: 81fe c9bd 0e06 873d 68bc bf3d 8f87 54be
00000360: 7516 7bbe 6f59 a03e c545 07be 4f94 22bd
00000370: a4f1 af3e e358 6ebe 1973 203c 7e7e 2cbd
00000380: 605a a63e 8954 22be 8fd2 f6be 68d8 4ebe
00000390: b0e8 29bd c465 e0bd 00b3 25bb 106a c2bd
000003a0: d0fa 063d f0e6 33be f477 6abe 35f4 3e3e
000003b0: 836f 133d ab92 f33c 4215 ec3d 5bad a13d
000003c0: eeb2 1c3d 403d eb3b 056e f5bd 69ed bd3d
000003d0: 4333 703d f83e 1dbe 6b40 c3bd a408 e23d
000003e0: 0c9b 893e 2269 c6be 9c6e b03e e6db ccbd
000003f0: b561 bebd e77f aa3d 2080 963c f92d 03be

linear_relu_stack.2.bias f4 [16]
0.16877879 -0.09186553 0.021788673 -0.13788581 -0.06442677 -0.21950717 -0.0063752644 0.124264546
-0.2837474 -0.5486673 0.17618679 -0.14473635 -0.06187538 -0.13410603 -0.07208559 0.8122429
00000000: 59d4 2c3e ff23 bcbd 297e b23c f031 0dbe
00000010: 2ff2 83bd 7dc6 60be 98e7 d0bb 697e fe3d
00000020: 5747 91be 7675 0cbf 4f6a 343e c435 14be
00000030: 0a71 7dbd 1753 09be 9ca1 93bd 27ef 4f3f

momentum_buffer f4 [64, 3]
0.009159217 0.122969925 0.039208073 -0.19022036 -0.251513 -0.09185153 -0.15854141 -0.2629085
-0.22175302 -0.10647948 -0.19801548 -0.017792752 0.09798386 0.35409287 0.3159962 0.0
0.0 0.0 0.0 0.0 0.0 0.0 0.0 0.0
-0.050397694 -0.12587987 -0.0042761005 0.020618448 0.08790441 0.076687604 0.033345863 0.026241835
-0.025465233 0.015768334 0.015474841 -0.0003698077 -0.055624176 -0.08316982 0.00015868456 -0.0015343261
0.0013825609 0.0037437463 0.0 0.0 0.0 -0.05630421 -0.13039826 -0.020107586
0.01546244 -0.015231887 -0.046404466 0.029086897 -0.07733955 -0.19225469 -0.033297244 0.05008413
0.15835509 0.08219618 -0.0019432483 -0.020714825 0.026445895 0.15738988 0.16848263 0.0
0.0 0.0 0.0008995721 -0.0011205594 -0.00047785896 -0.029118646 -0.114423506 -0.1435221
-0.226006 -0.44390604 -0.34110987 0.2925739 0.5414109 0.27205062 -0.03171543 0.022492364
0.018845597 -0.06541301 -0.38914484 -0.39658928 0.07758035 0.1277329 0.06824461 0.052431364
0.07001735 0.03188323 0.0024689948 -0.054870274 0.0035952553 -0.019191548 -0.009960064 -0.031070162
-0.020749956 -0.26794562 -0.18710417 0.00323238 -0.011983441 -0.045419417 -0.03691753 -0.18928765
-0.09965807 -0.07813173 -0.22821476 -0.12011772 -0.013008174 -0.07948502 -0.074646294 -0.006294446
0.042651776 0.03796685 0.0 0.0 0.0 0.016674165 0.23309809 0.13728997
0.00018950777 -1.5895173e-08 0.00015593566 -0.079814926 -0.21604672 -0.0962776 0.18666853 0.37650594
0.18282963 0.13362938 0.39462584 0.2671263 -0.17685348 -0.48217282 -0.27828473 -0.064381815
-0.16305023 -0.09932417 0.0 0.0 0.0 0.004649055 0.007825786 -0.0047965054
0.017019523 -0.024477698 -0.011183951 0.0 0.0 0.0 -0.34025523 -0.5157107
-0.19226976 0.0073727043 0.012287214 -0.006969898 -0.001053579 -0.0011153257 0.00020561449 0.009760672
0.09582764 0.12993285 0.060449947 0.110381335 0.057039678 -0.102999374 -0.30858684 -0.22380692
-0.1459457 -0.12469644 0.023618322 -0.0057865446 -0.073287465 -0.16870043 0.058959756 -0.05165429
-0.12870812 0.07496345 0.13588987 0.09145501 -0.02306528 0.042168792 0.014416778 0.0135686705
-0.029705811 -0.002218055 -0.0005579378 0.0031093552 -0.0044194288 -0.00011940254 2.2457203e-05 -2.3712246e-05
00000000: 8a10 163c a8d7 fb3d a598 203d 20c9 42be
00000010: 50c6 80be a81c bcbd ae58 22be f19b 86be
00000020: 3913 63be ea11 dabd 92c4 4abe 1bc2 91bc
00000030: c3ab c83d a94b b53e 41ca a13e 0000 0000
00000040: 0000 0000 0000 0000 0000 0000 0000 0000
00000050: 0000 0000 0000 0000 0000 0000 0000 0000
00000060: d06d 4ebd a7e6 00be 881e 8cbb 05e8 a83c
00000070: 3a07 b43d 640e 9d3d ac95 083d 1ef9 d63c
00000080: 779c d0bc 982c 813c 308a 7d3c c0e2 c1b9
00000090: 2dd6 63bd f054 aabd 9064 2639 711b c9ba
000000a0: 0c37 b53a a459 753b 0000 0000 0000 0000
000000b0: 0000 0000 3e9f 66bd 1f87 05be aab8 a4bc
000000c0: 2d56 7d3c 2a8f 79bc 9c12 3ebd a547 ee3c
000000d0: 3364 9ebd 6ade 44be b162 08bd 0425 4d3d
000000e0: d627 223e 7956 a83d 98b4 feba 23b2 a9bc
000000f0: 10a5 d83c d02a 213e b686 2c3e 0000 0000
00000100: 0000 0000 0000 0000 43d1 6b3a bcdf 92ba
00000110: 2589 fab9 3a8a eebc df56 eabd 75f7 12be
00000120: 1e6e 67be a747 e3be f4a5 aebe 3fcc 953e
00000130: e899 0a3f 384a 8b3e 0ae8 01bd e841 b83c
00000140: 1562 9a3c 42f7 85bd fe3d c7be c00d cbbe
00000150: 72e2 9e3d 6acc 023e d5c3 8b3d 45c2 563d
00000160: 4265 8f3d fd97 023d dcce 213b a7bf 60bd
00000170: 609e 6b3b 9837 9dbc 892f 23bc da86 febc
00000180: d0fb a9bc 2b30 89be 3c98 3fbe 56d6 533b
00000190: 3256 44bc b609 3abd d636 17bd 9fd4 41be
000001a0: 8819 ccbd 8703 a0bd 21b1 69be 4700 f6bd
000001b0: 3c20 55bc 0bc9 a2bd 28e0 98bd a441 cebb
000001c0: a1b3 2e3d 2183 1b3d 0000 0000 0000 0000
000001d0: 0000 0000 4298 883c 44b1 6e3e be95 0c3e
000001e0: 9bb6 4639 db89 88b2 a982 2339 0276 a3bd
000001f0: 5a3b 5dbe 312d c5bd 0926 3f3e 63c5 c03e
00000200: b137 3b3e 24d6 083e 660c ca3e c7c4 883e
00000210: 1419 35be 5bdf f6be 567b 8ebe 9dda 83bd
00000220: a4f6 26be 786a cbbd 0000 0000 0000 0000
00000230: 0000 0000 1a57 983b ba37 003c 012c 9dbb
00000240: 876c 8b3c 7485 c8bc e43c 37bc 0000 0000
00000250: 0000 0000 0000 0000 ef35 aebe 9e05 04bf
00000260: 5de2 44be ba96 f13b 5050 493c be63 e4bb
00000270: 3f18 8aba 1f30 92ba 389a 5739 3aeb 1f3c
00000280: 4841 c43d 1e0d 053e 5d9a 773d 9c0f e23d
00000290: 70a2 693d 56f1 d2bd 18ff 9dbe a42d 65be
000002a0: ca72 15be d960 ffbd 367b c13c 0e9d bdbb
000002b0: bd17 96bd cebf 2cbe c97f 713d 7393 53bd
000002c0: 10cc 03be 7086 993d b726 0b3e c44c bb3d
000002d0: 66f3 bcbc 2fb9 2c3d 5a34 6c3c 214f 5e3c
000002e0: 9a59 f3bc ca5c 11bb 9242 12ba 53c6 4b3b
000002f0: dbd0 90bb c067 fab8 7a62 bc37 a9e9 c6b7

momentum_buffer f4 [64]
-0.013471835 -0.022542888 -0.08974386 -0.019991621 0.07340628 0.0 0.0 0.0
-0.0082993815 0.009397493 -0.009815746 0.0040320028 -0.009766588 0.00057831564 0.0 -0.014922101
-0.0026408485 -0.031743824 0.039558843 -0.0057636667 0.04092392 0.0 -0.00020448887 -0.03482885
-0.08939521 0.044050086 -0.026763096 -0.060251225 0.028186109 -0.014188914 -0.0078007914 -0.0094672935
-0.054794706 -0.008571047 -0.001375326 -0.008657723 0.0048506693 0.012189246 0.0 0.031055942
2.3514385e-05 -0.00014614873 0.029482685 0.02929592 -0.06246949 0.0010131171 0.0 0.0016608242
-0.003244603 0.0 -0.05337796 0.001976086 -0.00017013977 0.022019725 -0.00058237277 -0.014688591
0.019730438 -0.04478992 -0.02081282 0.011764975 0.01498542 -0.004899442 0.00047144602 4.4933313e-06
00000000: f9b8 5cbc ddab b8bc a1cb b7bd 78c5 a3bc
00000010: 0856 963d 0000 0000 0000 0000 0000 0000
00000020: 21fa 07bc f1f7 193c 39d2 20bc e41e 843b
00000030: 0a04 20bc 1b9a 173a 0000 0000 d47b 74bc
00000040: 1612 2dbb d005 02bd 7408 223d 24dd bcbb
00000050: d79f 273d 0000 0000 106c 56b9 b2a8 0ebd
00000060: d614 b7bd dd6d 343d 483e dbbc fdc9 76bd
00000070: 8ee6 e63c 9e78 68bc c89d ffbb b51c 1bbc
00000080: 6a70 60bd 946d 0cbc 4844 b4ba 1fd9 0dbc
00000090: 5df2 9e3b 67b5 473c 0000 0000 0869 fe3c
000000a0: c240 c537 803f 19b9 ac85 f13c fffd ef3c
000000b0: 02e0 7fbd 92ca 843a 0000 0000 03b0 d93a
000000c0: 68a3 54bb 0000 0000 d9a2 5abd 3981 013b
000000d0: 8c67 32b9 b662 b43c 60aa 18ba 6aa8 70bc
000000e0: baa1 a13c a375 37bd a67f aabc e2c1 403c
000000f0: 6885 753c 808b a0bb 6a2c f739 6cc5 9636

momentum_buffer f4 [16, 64]
0.097405896 0.0069539174 -0.008236811 0.032177262 -0.01266402 0.0 0.0 0.0
0.014781341 -0.0036904737 0.010950698 -0.034385104 0.033669047 -5.05735e-05 0.0 0.11639815
0.0045532035 0.025299806 0.034299213 -0.02370937 0.052657314 0.0 -0.0021703232 0.061357997
0.03394025 -0.12474609 0.056784935 0.037475158 -0.14757319 0.09200719 0.008374315 0.00861358
-0.11898931 0.011765232 0.15305267 0.102345884 0.061458945 -0.049636185 0.0 0.024423655
8.66776e-07 0.18702224 0.014997184 -0.027285933 -0.086242124 -0.013462588 0.0 0.005556088
-0.055585757 0.0 -0.03763134 -0.00068929174 -0.0075227683 0.1058974 0.04295198 -0.012376847
-0.046106108 0.012415287 0.029691748 0.092671834 0.03966924 0.00065305457 0.011013428 8.0766295e-05
0.005562117 4.975874e-06 -0.007869718 2.0918084e-07 8.6057975e-05 0.0 0.0 0.0
8.210404e-08 6.608418e-05 -0.009263226 2.1936958e-06 4.7913534e-07 1.3133703e-07 0.0 0.0044429186
-0.0076617813 -0.01327081 9.082417e-05 -0.0050175935 0.00015439202 0.0 2.5940899e-11 -0.012819618
-0.020961503 0.010695437 0.008694099 -0.02347946 0.004105775 0.005617762 5.454794e-09 -0.004808469
0.0017159139 -0.010931987 0.0077959183 -0.0042222296 0.0015132594 1.7394748e-07 0.0 -0.0005243328
-1.3765202e-06 0.0089185815 0.0001072181 0.015603903 1.6583685e-06 0.0039711017 0.0 -0.0050152326
6.509781e-06 0.0 -0.008268553 -0.0055232616 -3.9679406e-05 0.014288599 0.0012556784 -0.0053988807
0.00050192454 -0.01601742 0.0012468735 0.0003983733 0.0032858353 4.9426085e-09 -0.0070084054 2.708545e-05
0.053845532 0.0026340738 0.0024734128 0.006805877 0.054672714 0.0 0.0 0.0
0.024316397 0.0049648304 0.0060220067 0.011821492 0.0024578345 3.7902993e-07 0.0 0.085814334
0.00012319974 0.0068544922 0.037170384 0.02529814 0.049006984 0.0 2.0907391e-05 0.04521636
0.04200177 0.038055617 0.038530573 0.03219295 0.029133374 0.07268171 0.0016690344 2.5313937e-05
0.014590288 4.241548e-05 0.09260893 0.05643402 0.03311214 0.015174558 0.0 0.030214835
1.820535e-17 0.083437204 0.031846054 0.068849005 0.022777976 0.04915496 0.0 6.247957e-07
0.018189402 0.0 0.0008159173 6.988651e-07 1.07198574e-07 0.08107371 0.020941153 0.027784003
0.054195102 0.042395625 0.0056034187 0.048314072 0.03598577 0.0018087191 1.0284812e-05 1.5441456e-08
0.0002547102 2.084762e-07 0.0053653913 3.289643e-05 0.018356213 0.0 0.0 0.0
0.00060249463 -0.0027399098 0.034146525 -0.0023929044 4.765881e-06 0.00123904 0.0 0.032635495
0.008659038 0.05178442 -0.005856727 0.052154914 -0.0012084423 0.0 3.027173e-06 0.04212154
0.05953199 0.09053454 0.001343389 0.065147646 0.09296218 0.03322766 0.00029462163 3.871885e-06
0.09902004 0.0060725734 0.006711229 0.008038203 0.002548766 -0.007584962 0.0 2.0768548e-05
4.4151463e-20 0.00079680147 0.002164177 0.07149992 -0.0060256813 0.044324443 0.0 2.0459337e-08
0.017364774 0.0 5.727561e-07 1.5013972e-08 3.627979e-13 -0.0039523607 0.0003088977 0.038818512
0.050731525 0.024211131 0.05317049 0.00024598528 1.440397e-05 0.0007149481 1.938998e-06 3.9930974e-06
00000000: be7c c73d b0dd e33b b0f3 06bc 4ecc 033d
00000010: c07c 4fbc 0000 0000 0000 0000 0000 0000
00000020: 702d 723c e0db 71bb 8e6a 333c 65d7 0cbd
00000030: 8ee8 093d e21e 54b8 0000 0000 2762 ee3d
00000040: 0a33 953b 8a41 cf3c 557d 0c3d 273a c2bc
00000050: 32af 573d 0000 0000 fb3b 0ebb 8652 7b3d
00000060: ee04 0b3d e17a ffbd 5297 683d 8d7f 193d
00000070: 6d1d 17be 446e bc3d 6c34 093c f91f 0d3c
00000080: abb0 f3bd f6c2 403c d7b9 1c3e b89a d13d
00000090: 60bc 7b3d 504f 4bbd 0000 0000 1e14 c83c
000000a0: 65ac 6835 c282 3f3e c0b6 753c c086 dfbc
000000b0: b69f b0bd 3092 5cbc 0000 0000 d80f b63b
000000c0: e4ad 63bd 0000 0000 5223 1abd 96b1 34ba
000000d0: 8e81 f6bb bce0 d83d 6aee 2f3d 42c8 4abc
000000e0: c2d9 3cbd 7d69 4b3c 1c3c f33c bbca bd3d
000000f0: 377c 223d c031 2b3a aa71 343c 1361 a938
00000100: 6b42 b63b 6ff6 a636 fdef 00bc 319b 6034
00000110: 067a b438 0000 0000 0000 0000 0000 0000
00000120: 2c51 b033 ad96 8a38 c9c4 17bc 6837 1336
00000130: ee9d 0035 a605 0d34 0000 0000 e795 913b
00000140: ae0f fbbb d06d 59bc db78 be38 a06a a4bb
00000150: 4be4 2139 0000 0000 b62d e42d 6009 52bc
00000160: 75b7 abbc ea3b 2f3c b271 0e3c ff57 c0bc
00000170: bd89 863b 3415 b83b e06c bb31 5d90 9dbb
00000180: 84e8 e03a 141c 33bc e774 ff3b a15a 8abb
00000190: 8f58 c63a 52c6 3a34 0000 0000 6173 09ba
000001a0: e0c0 b8b5 3e1f 123c 47da e038 83a7 7f3c
000001b0: 1c95 de35 0420 823b 0000 0000 d256 a4bb
000001c0: 986e da36 0000 0000 d378 07bc 7afc b4bb
000001d0: 706d 26b8 ba1a 6a3c 9395 a43a 18e9 b0bb
000001e0: 9693 033a f736 83bc 226e a33a c2dc d039
000001f0: 2b57 573b a5d3 a931 c4a6 e5bb 9035 e337
00000200: 228d 5c3d 6da0 2c3b fb18 223b d603 df3b
00000210: 7ff0 5f3d 0000 0000 0000 0000 0000 0000
00000220: 2e33 c73c 04b0 a23b 4154 c53b eeae 413c
00000230: 9f13 213b 7a7d cb34 0000 0000 6dbf af3d
00000240: 2e2f 0139 a69b e03b f93f 183d 0b3e cf3c
00000250: 8cbb 483d 0000 0000 4862 af37 ca34 393d
00000260: 0c0a 2c3d 35e0 1b3d 3cd2 1d3d c1dc 033d
00000270: 1da9 ee3c 26da 943d 80c3 da3a 4459 d437
00000280: 1a0c 6f3c 46e7 3138 c0a9 bd3d 5c27 673d
00000290: 98a0 073d b69e 783c 0000 0000 1a85 f73c
000002a0: 2bea a723 20e1 aa3d 0271 023d b500 8d3d
000002b0: e198 ba3c b656 493d 0000 0000 a2b7 2735
000002c0: f101 953c 0000 0000 48e3 553a a599 3b35
000002d0: 0a35 e633 f909 a63d c88c ab3c 479b e33c
000002e0: affb 5d3d 09a7 2d3d e29c b73b fae4 453d
000002f0: d165 133d 8b12 ed3a ee8c 2c37 1fa4 8432
00000300: a08a 8539 80d9 5f34 2ad0 af3b 46fa 0938
00000310: c55f 963c 0000 0000 0000 0000 0000 0000
00000320: bbf0 1d3a 0f90 33bb 3add 0b3d 46d2 1cbb
00000330: 9bea 9f36 4967 a23a 0000 0000 ccac 053d
00000340: a3de 0d3c e61b 543d c9e9 bfbb 64a0 553d
00000350: 9864 9eba 0000 0000 7026 4b36 a387 2c3d
00000360: d1d7 733d 2c6a b93d a814 b03a 216c 853d
00000370: f562 be3d ba19 083d 7277 9a39 3deb 8136
00000380: 05cb ca3d 70fc c63b dfe9 db3b abb2 033c
00000390: 3309 273b 468b f8bb 0000 0000 1e38 ae37
000003a0: d87f 501f 71e0 503a ddd4 0d3b 8d6e 923d
000003b0: 1473 c5bb 8c8d 353d 0000 0000 8fbe af32
000003c0: 9240 8e3c 0000 0000 80bf 1935 13f8 8032
000003d0: b03c cc2a ce82 81bb 8cf3 a139 2900 1f3d
000003e0: dccb 4f3d 6c56 c63c 4dc9 593d 96f7 8039
000003f0: 95a8 7137 5b6b 3b3a bb1f 0236 72fc 8536

momentum_buffer f4 [16]
0.006851649 0.009081899 0.0150978835 0.014538501 -0.034602936 -0.08073941 0.10033054 0.027945163
-0.035549626 -0.034736212 0.0368122 0.028406156 -0.06255663 0.046785355 0.020876609 -0.058541097
00000000: cc83 e03b 3fcc 143c 1d5d 773c e532 6e3c
00000010: cfbb 0dbd b45a a5bd 197a cd3d 41ed e43c
00000020: 7c9c 11bd 8f47 0ebd 64c8 163d 07b4 e83c
00000030: b11d 80bd 00a2 3f3d 6c05 ab3c cac8 6fbd
