notebooks/checkpoints/checkpoint-3.ckpt (torch, 13583 bytes, 8 tensors)

linear_relu_stack.0.weight f4 [64, 3]
000000 d3 5b 3c 3f e5 b8 0f 3e b4 51 ab be 25 38 05 3f
       0.7357761 0.14035375 -0.33460772 0.52038795
000010 01 a1 74 3e 46 4a 4d bf 81 b1 11 3f 6c a9 0b bf
       0.23889543 -0.8019146 0.56911474 -0.5455539
000020 e8 9c 5f 3e 94 6e 84 bd d9 dc b1 3e 9b 9e 54 bf
       0.21837199 -0.064664036 0.34738806 -0.8305451
000030 91 9a 45 bf 4b f5 51 3f ef 12 3b be f8 ce 71 3e
       -0.77188975 0.8201491 -0.18268941 0.23614109
000040 2c 58 0d bf 62 ea e0 be 78 fc 36 be 8b 97 00 bf
       -0.55212665 -0.4392882 -0.17869747 -0.50231236
000050 e4 c3 e2 be 62 4d 0c bf e3 d6 c4 be 28 b5 b3 be
       -0.44290078 -0.54805577 -0.38445196 -0.3509915
000060 f0 a8 82 be 2b 06 fc 3e b4 04 1c bf db 66 5a be
       -0.25519514 0.49223456 -0.60944676 -0.21328299
000070 92 63 11 3e 65 97 23 be 9f fb 2e 3e 68 3b ff be
       0.1419814 -0.15975721 0.17088173 -0.4985001
000080 cf 51 e4 3e c6 7d d9 be 35 b1 ee 3d aa 21 5d be
       0.44593665 -0.4247877 0.11654893 -0.21594873
000090 57 87 ae 3c 55 d2 54 3e 93 ca 28 bf c4 3d f2 be
       0.02130477 0.2078336 -0.65934104 -0.47312748
0000a0 ec 16 cb be d7 de b1 bc a4 18 0e bf 24 59 05 bf
       -0.39665926 -0.021712704 -0.5550635 -0.5208914
0000b0 ef 09 f2 be b7 9e c8 3e 1f e6 a7 3e 0e 64 89 3e
       -0.47273204 0.3918359 0.32792756 0.26834148
0000c0 02 43 0c 3e 1b 7f 52 be 87 75 4e 3e 79 bd a2 be
       0.13697436 -0.205563 0.2016202 -0.3178518
0000d0 5a 67 3a bf bb 47 37 3f 2a 7c 20 be dd 5a 07 3f
       -0.7281395 0.71593827 -0.15672365 0.5287302
0000e0 2e 2d 56 be 61 00 d5 be b9 03 99 be a0 63 0c 3f
       -0.20915672 -0.41601852 -0.29885653 0.54839516
0000f0 87 56 1d be 90 f8 34 3f 77 91 d4 be 00 2d c7 3c
       -0.15365039 0.70691776 -0.4151723 0.02431345
000100 05 f3 00 bf 92 a4 07 bf e0 2f d1 be 93 4c d4 bd
       -0.5037082 -0.5298549 -0.40856838 -0.10366168
000110 6c 72 a9 be b8 0d 5d 3f ac 15 95 be 8c 26 17 3f
       -0.3309511 0.8634906 -0.29118097 0.5904319
000120 82 c4 3d 3f 8e ab 4c bf dd 6c 7a 3f 56 a2 4d bf
       0.7412797 -0.7994927 0.9782236 -0.8032583
000130 a5 10 08 3e 6e 93 2e 3f 0b 64 37 3e a9 31 59 3e
       0.132876 0.6819371 0.17909257 0.2121035
000140 eb f2 07 be a6 a4 ee 3e fc da 40 bf be ae 8e 3f
       -0.1327626 0.46609992 -0.75334144 1.1147077
000150 38 58 80 bf ba 4b 21 3e d0 c4 59 3f 60 e5 97 3e
       -1.0026922 0.15751544 0.8506594 0.29667187
000160 76 cf 76 3e fa 00 62 3e db cc c3 be 8d d3 3a 3e
       0.24102578 0.22070685 -0.3824223 0.18244763
000170 a5 20 1f bf a2 f4 6e 3e 9c 87 ad be f5 14 99 3b
       -0.62159187 0.23335508 -0.33892524 0.0046716877
000180 cf 6e 53 bf f5 b8 44 be 52 a3 6c 3f 35 d5 04 3e
       -0.82590955 -0.1921118 0.9243671 0.12971957
000190 38 6d 0e bf bd e2 9b 3e 7e 02 d2 3e 9c 08 36 3f
       -0.55635405 0.30446425 0.41017526 0.71106887
0001a0 de a1 cc bd 3c 3c f4 3e 6f 32 74 3e fe b8 43 3e
       -0.09991811 0.47702205 0.23847364 0.19113538
0001b0 ac 0b e2 3d e5 4b b1 3e 9b a6 fb bd d2 38 22 bf
       0.110373825 0.34628215 -0.12287637 -0.6336795
0001c0 b8 16 03 3f 1a 06 07 bf 2c 8c 5f 3e da 84 02 bf
       0.5120654 -0.52743685 0.21830815 -0.50983965
0001d0 9b 07 06 bf 02 0e 49 3f 0b 2d 07 3d e3 37 d0 be
       -0.52355355 0.78537 0.03300194 -0.40667638
0001e0 68 59 94 3e b0 b2 0d bf d3 74 8d be bf df 1a 3f
       0.28974462 -0.5535078 -0.27628192 0.6049766
0001f0 cc a1 35 3f cd 17 06 bf aa 26 cb be 14 e5 28 3f
       0.7095001 -0.5238007 -0.39677936 0.65974545
000200 df d5 27 bf e6 6c 0e bf 37 6b 96 3e bb 3d cc 3e
       -0.65560716 -0.55634916 0.29378673 0.39890847
000210 2a ce 8c bf 6e 5e 5b 3f b1 04 05 bf a0 85 bd be
       -1.1000416 0.85690963 -0.51960284 -0.3701601
000220 d0 ff bb 3e 74 a6 b6 3e 40 aa 37 3d 44 e5 ae bd
       0.36718607 0.3567387 0.044840097 -0.08539823
000230 b2 b9 3a be 04 e7 78 3e a0 85 96 be e5 5d b6 bd
       -0.182349 0.24306875 -0.29398823 -0.08904628
000240 a9 0e 06 bf 18 19 95 3d b3 33 07 3e a5 8d 92 be
       -0.5236612 0.07280177 0.13203315 -0.2862369
000250 53 ea b3 be 6e 6e dd be 37 f1 87 3f 9a 56 3a be
       -0.35139713 -0.43248314 1.0620488 -0.18197098
000260 7d ae 0c bf 9d f8 cc 3e 3f b3 b3 be 48 df 53 be
       -0.5495375 0.40033427 -0.3509769 -0.20690644
000270 2f 05 d4 3e 10 05 97 be ce c2 cd be b0 98 1e 3e
       0.41410205 -0.2949605 -0.40187687 0.15487933
000280 63 36 33 3f 88 e0 48 be 29 39 2a 3d 19 7b 8e 3e
       0.7000486 -0.19616902 0.04155842 0.2782829
000290 b3 f0 b6 be cd 39 dc bd 0f a1 14 3e d0 bd fe 3e
       -0.35730514 -0.10753212 0.14514564 0.4975419
0002a0 f8 e4 46 bf 28 e6 0e 3f f7 58 c4 3e ce a9 5b 3f
       -0.7769313 0.5581994 0.38349125 0.85805976
0002b0 6d 52 0b bf 68 0e 14 3f c9 88 22 bf c2 0c 67 bf
       -0.54422647 0.5783448 -0.6348997 -0.9025384
0002c0 6d 11 1d 3f d8 6d 11 3e 6c df 24 3f 76 03 38 bf
       0.61354715 0.14202058 0.64403415 -0.7188028
0002d0 b8 e8 3b 3f fd 8b 43 3e b6 23 0d bf b9 07 d4 be
       0.73401976 0.1909637 -0.55132616 -0.41412142
0002e0 a3 f2 23 3e 38 bb 0f bf 44 2d 8e 3e d3 ff b4 be
       0.16010527 -0.5614505 0.2776891 -0.35351428
0002f0 97 6a e1 3c 22 d7 d1 bd 60 64 dd be b6 43 28 3d
       0.027516646 -0.102461115 -0.43240643 0.0410802

linear_relu_stack.0.bias f4 [64]
000000 23 ee 1c 3f af e9 07 bf c7 11 72 3f bf 27 9d 3c
       0.6130087 -0.5309095 0.94558376 0.019183991
000010 3a bd 52 be 54 54 d6 be fe 56 b4 3e 40 c4 81 3d
       -0.20579997 -0.41861212 0.3522262 0.0633626
000020 9a 20 c0 be ee a0 03 3f fb f3 03 3f 54 24 05 3f
       -0.37524873 0.51417434 0.5154416 0.5200856
000030 3e d0 70 3e d2 d8 f3 bd a0 97 55 bd a5 ed 6d 3e
       0.23516938 -0.119065896 -0.052146554 0.23235185
000040 36 75 55 be 9e d2 27 be 74 9b f1 be d1 11 45 3c
       -0.20845494 -0.16388938 -0.47188914 0.012028174
000050 4a 97 68 be 9c eb 63 be 78 c5 29 be f7 99 8e 3e
       -0.22713962 -0.22257847 -0.16579235 0.2785184
000060 70 d7 f6 3e d7 f6 67 3f 54 bd 27 3f a4 55 5b be
       0.4821124 0.9061102 0.65523267 -0.21419388
000070 fb 91 09 be 6c 02 03 3f 2a 98 ae 3e 20 b0 ad 3e
       -0.13434593 0.5117557 0.34100467 0.33923435
000080 0d 51 28 3f 35 9e 81 3e 94 f0 0c bf f4 22 1e bf
       0.65748674 0.25316015 -0.55054593 -0.61772084
000090 99 d2 d1 be cb 4a 3c 3d ee 2f 12 3f 80 b4 eb bd
       -0.40980986 0.045969766 0.57104385 -0.11509037
0000a0 b0 27 00 bf 77 6b 38 bf e5 d1 35 3f 2b 7f 63 3f
       -0.5006056 -0.7203898 0.710234 0.8886592
0000b0 ae 75 94 be 0b 36 fc be 9e fc 08 be bd 63 94 3c
       -0.28996032 -0.49259982 -0.13377616 0.018113965
0000c0 75 89 0a bf df 06 eb be cf c4 d0 be 5f 6b ba bd
       -0.5411599 -0.4590368 -0.40775153 -0.09102511
0000d0 f6 e1 c3 be 3c f6 2d bd 1c f7 f7 3e fa 78 52 bf
       -0.38258332 -0.042471156 0.48430717 -0.82215846
0000e0 91 bb 52 bf 95 c9 c9 3e d2 4e 23 3d 71 03 89 3e
       -0.82317454 0.39411607 0.03987009 0.26760438
0000f0 6f c3 72 be cb e4 d9 3e 71 a1 3d 3e 8d 56 88 bd
       -0.23707364 0.42557368 0.18518616 -0.06657133

linear_relu_stack.2.weight f4 [16, 64]
000000 a9 37 4f 3e 65 d8 17 3e 82 b1 e5 3e d6 55 30 be
       0.20236076 0.14828642 0.4486199 -0.17220244
000010 9e de 4b 3e f0 d2 96 3d 7a 94 e2 bd 14 d9 80 bd
       0.1990914 0.07364452 -0.11063476 -0.06291404
000020 67 58 f0 3d 7b 4e cb 3d 3e d7 72 3e ce 8b 62 3e
       0.117356114 0.09927078 0.23714921 0.22123644
000030 c8 52 f5 bd d0 6e 92 b9 f0 8c a7 bd 6a 00 ca bd
       -0.1197868 -0.00027929852 -0.081811786 -0.0986336
000040 29 79 48 bc a7 de 08 3c 53 89 5e 3b a5 5d f5 3d
       -0.012235918 0.008353866 0.0033956363 0.11980752
000050 6e e6 33 3e 80 72 91 3b 24 b3 f7 bb 6a 83 6a 3e
       0.1756837 0.0044386983 -0.007559197 0.22901693
000060 da 9a a6 3e 5c 9c 89 3e 57 1b 0a bd 6e 3d c0 bb
       0.32540017 0.26877105 -0.03371748 -0.005866698
000070 35 1f 3e 3e 3a 61 10 bd 38 cc 64 bd ee 5b 60 bd
       0.18566592 -0.035248972 -0.05585882 -0.05477517
000080 09 be 8b 3e 32 fc 64 3e d4 23 e7 3a 71 d8 80 be
       0.27293423 0.2236183 0.0017634579 -0.25165132
000090 e1 cb 0e 3d 5f 4e aa 3e b4 c9 d2 3d e3 e0 38 3e
       0.034862403 0.33262917 0.10292378 0.18054537
0000a0 f4 c1 8b 3d 5a 5b 9b 3d 7e 14 53 3e 54 6c c0 3d
       0.06824103 0.07585783 0.20613286 0.09395662
0000b0 90 60 02 3f 77 f5 a1 bd a4 26 a3 3d c3 6e a6 bd
       0.5092859 -0.07908147 0.079663545 -0.08126595
0000c0 f0 bb 75 3e 7e 5a fb 3d 16 e2 ba 3e c1 60 91 bd
       0.23997474 0.122731194 0.36500615 -0.070985325
0000d0 7e 2e f1 bc f6 b3 e4 bd 9a b0 16 3e ec f4 d4 bd
       -0.029441115 -0.11167137 0.14715806 -0.10398278
0000e0 8b 74 16 be b9 25 02 3f c8 96 63 3e fd 7b 37 3e
       -0.14692895 0.5083881 0.22225487 0.17918392
0000f0 53 4b c7 3d e2 38 34 3d 79 49 8e 3d 7d f2 e5 bd
       0.09731164 0.04399956 0.069476075 -0.112278916
000100 6c dc 75 bc db 38 a9 3d b4 b0 3d 3e ef e1 dd bc
       -0.015006166 0.082627974 0.18524438 -0.027085273
000110 aa 45 90 3d b4 bd 1a bd 58 fb e6 bc 30 1a 34 bc
       0.07044537 -0.03777857 -0.028196022 -0.010992572
000120 8c 62 82 3c 89 8d 05 bd 03 f0 4c 3e 6b e4 d4 3d
       0.015916131 -0.03260568 0.20013432 0.1039513
000130 e7 14 eb 3d 3f 02 be bd 80 80 2d bb 74 b6 3e be
       0.11478596 -0.09277772 -0.0026474297 -0.18624288
000140 f1 43 3c 3e 35 7d 2c 3e 77 19 dd bc 4d 06 b8 3c
       0.18385293 0.16844638 -0.026989682 0.022463942
000150 46 ef 57 bd e6 d2 8e 3d 94 4c 39 3d 11 f1 4e 3e
       -0.052718423 0.069738194 0.045239046 0.20209147
000160 3a 20 0b 3f 1c 2e be be 20 73 5d be 08 3a f5 3e
       0.5434605 -0.37144554 -0.21625948 0.47895837
000170 11 7e 90 bd fc b9 22 be 26 83 d0 3d 60 9b 35 3e
       -0.07055295 -0.1589126 0.101812646 0.17735052
000180 9e 19 11 be bd 0b c0 3e d5 87 44 be 62 6d b5 3d
       -0.14169928 0.37508956 -0.19192441 0.08858754
000190 f0 8f 19 be 6f f6 a0 3c 78 87 8f bc 20 74 72 3d
       -0.14996314 0.019648759 -0.017520651 0.059192777
0001a0 a8 7d c2 bd 29 cd b9 be ca 92 8e bd 12 95 ea be
       -0.09496623 -0.36289337 -0.069615915 -0.45816857
0001b0 85 34 a2 3d 98 8e e9 bd 70 f0 f9 bd 4e c7 a9 3d
       0.079201736 -0.11404151 -0.12204063 0.082899675
0001c0 bb 73 3b bc 28 0b 9c bc 0c 7d 8e 3e 2a 67 e0 3d
       -0.0114411665 -0.019048288 0.27829778 0.10957177
0001d0 04 29 6a bd 66 33 07 bf c7 8b da 3c 16 da 85 bc
       -0.05716802 -0.528128 0.02667798 -0.016339343
0001e0 a7 9a 94 3d e3 0b dc 3e df b2 f5 bd 23 ea df bc
       0.0725606 0.4297782 -0.119970076 -0.027333325
0001f0 15 bd 3a be 3c 17 b7 3d 1f 53 58 3e b8 45 01 be
       -0.18236192 0.089399785 0.21125458 -0.12624252
000200 c7 1f 7d bc 4a a7 9c 3e b2 38 65 3d 0e 6a 9a 3d
       -0.015449471 0.3059638 0.055962272 0.075397596
000210 e2 0a 27 3e be 77 b1 3d 70 f5 57 bc ee bf d1 3d
       0.16312745 0.08665417 -0.013181075 0.10241686
000220 b1 65 46 be f3 32 b8 3d c3 5e 50 be 53 38 41 bd
       -0.1937473 0.08994093 -0.20348649 -0.047172856
000230 8f 9c f8 3d 1e 9c ba bc 20 65 57 3c 83 3c c1 3d
       0.12139236 -0.02277952 0.013146669 0.0943537
000240 05 c9 d9 3d 9d 05 35 be c8 36 1e 3d 7d ee ab be
       0.106340446 -0.17677923 0.038626462 -0.3358039
000250 db ac 00 3e d4 9f 71 bd de bb 71 3c e6 0c 90 3d
       0.12565939 -0.058990315 0.014754264 0.0703371
000260 bb 31 0c bf d1 ac 2b 3e 34 dd 28 3c 92 65 f7 be
       -0.5476338 0.16765143 0.010306645 -0.4831968
000270 dd d2 a6 3e 68 7b 02 3e 53 f9 90 3d df 55 08 bd
       0.3258275 0.12742388 0.07078805 -0.033285018
000280 20 b9 c9 3e fb c1 5a 3d ce 19 b8 bb ff 3a f7 3c
       0.39399052 0.05340765 -0.0056183105 0.030179499
000290 fc 39 81 3d 09 b6 d2 bc f0 a0 ca bd 41 52 05 bd
       0.06309888 -0.025721567 -0.09893978 -0.032549147
0002a0 86 4e 2b bc 8f eb 53 bc fa 4e 75 3c 22 ef 4e 3e
       -0.010455733 -0.0129345795 0.014972443 0.2020841
0002b0 f6 31 4a 3e 2a 8a 67 bd 12 c1 e4 3d bb 53 e7 bd
       0.19745621 -0.056528248 0.11169638 -0.11295267
0002c0 1b dd 59 be c4 83 31 3d 93 29 90 3e 67 c4 b4 3d
       -0.21275751 0.043338552 0.2815672 0.08826523
0002d0 ee 10 f0 3d da 3d ce bc 44 8c 6f 3d 7d 18 21 3d
       0.11721979 -0.025175977 0.058483377 0.039329994
0002e0 74 df 93 3d fb 27 8a be b6 34 3d be 16 ad 37 be
       0.07220355 -0.26983628 -0.18477139 -0.17937121
0002f0 25 ea 2b bb 46 cf 0e bc 35 4c 84 3d a3 78 da bd
       -0.002623209 -0.00871641 0.06459848 -0.10667541
000300 36 b4 ea bd 02 0d 9b 3d 65 7f 3c be 96 73 90 3c
       -0.11460154 0.075708404 -0.18407972 0.01763324
000310 bc 08 02 3e 9e 96 fb bd 80 dd a0 3a d0 d1 6b 3c
       0.12698644 -0.12284587 0.0012273043 0.014393285
000320 3f 39 63 bd f8 64 0f 3d 4c 68 88 bd c3 9e 05 bd
       -0.055474516 0.0350084 -0.06660518 -0.03262211
000330 88 ae 65 bc ba 25 fb 3c 60 f5 a3 bd 10 26 41 be
       -0.014018662 0.030657638 -0.08005786 -0.18862176
000340 96 16 8b bd 0c 7f 61 3e 04 85 71 bc 30 5f 8b 3e
       -0.06791417 0.22021121 -0.014741186 0.2722106
000350 61 57 12 be 0e 06 87 3d 53 ba bf 3d ae 8a 84 be
       -0.14291145 0.06592952 0.093617104 -0.25887054
000360 d7 70 90 be b9 b1 a9 3e 72 49 11 be ef 14 0e bd
       -0.2821109 0.33143404 -0.14188173 -0.034687933
000370 f7 5f ba 3e 77 d6 7a be 5f a1 18 3c 1b 86 2c bd
       0.3640134 -0.24495874 0.009315818 -0.04212008
000380 36 9e b3 3e 1c 26 37 be fd 2c 06 bf 21 0b 6c be
       0.35081643 -0.17885631 -0.52412397 -0.2305112
000390 cf f5 63 bd 9f da 12 be 00 b3 25 bb 79 86 c2 bd
       -0.055654343 -0.1434121 -0.0025283694 -0.09498305
0003a0 d0 fa 06 3d 4d a3 36 be 10 80 8c be 78 a2 45 3e
       0.032954037 -0.17835732 -0.27441454 0.19300258
0003b0 c0 45 1c 3d 40 29 f5 3c 42 15 ec 3d 5b ad a1 3d
       0.038152456 0.029926896 0.11527492 0.07894393
0003c0 7d 02 44 3d 40 3d eb 3b 05 6e f5 bd 69 ed bd 3d
       0.047853936 0.0071789324 -0.11983875 0.09273798
0003d0 43 33 70 3d 79 45 34 be ba 79 c5 bd 87 11 e1 3d
       0.058642637 -0.17604627 -0.09642358 0.10989671
0003e0 6f 66 8b 3e 29 84 e5 be 01 c1 bd 3e 8a 42 ce bd
       0.27226588 -0.44827393 0.37061313 -0.10071285
0003f0 dd 79 be bd ac 19 a7 3d 45 78 96 3c f9 2d 03 be
       -0.09300587 0.081591934 0.018367896 -0.12810506

linear_relu_stack.2.bias f4 [16]
000000 a2 b2 48 3e 53 54 00 be 6b 4a 8c 3d 4f 49 0b be
       0.19599393 -0.12532167 0.068501316 -0.13602184
000010 0b 4f a0 bd e9 44 8c be 6f 3f 59 3c f5 5b 53 3e
       -0.07827576 -0.27396324 0.013259753 0.20640548
000020 6c 72 b3 be 27 3b 30 bf cd 48 64 3e 93 0e 21 be
       -0.35048234 -0.6884026 0.22293396 -0.15728216
000030 90 36 c9 bd 26 58 4e be 2d b0 fa bc 14 93 78 3f
       -0.0982486 -0.20150813 -0.030601585 0.97099423

momentum_buffer f4 [64, 3]
000000 ef e8 8c 3d 04 1d 92 3e 70 1c ca 3d d4 b7 62 be
       0.06880366 0.28537762 0.09868705 -0.22140437
000010 7e 92 9f be 11 b1 06 be 16 0e 96 be b2 86 e3 be
       -0.31166452 -0.13153483 -0.29307622 -0.44438702
000020 38 c7 81 be 9e c3 9d bd f5 d8 a9 bd d4 99 ce 3c
       -0.25347304 -0.07703327 -0.082933344 0.025219835
000030 ca 40 6a 3d d0 8f 96 3e 7b 0e 8f 3e 00 00 00 00
       0.057190694 0.29406595 0.27940735 0.0
000040 00 00 00 00 00 00 00 00 00 00 00 00 00 00 00 00
       0.0 0.0 0.0 0.0
000050 00 00 00 00 00 00 00 00 00 00 00 00 00 00 00 00
       0.0 0.0 0.0 0.0
000060 28 14 df bd 0f bf 7b be da 20 8f bd 07 76 66 3d
       -0.108925164 -0.24584602 -0.06988688 0.056264903
000070 00 11 4b 3e b9 52 2c 3e a9 dc 33 3d f4 b8 1e 3d
       0.19830704 0.16828431 0.04391161 0.038750604
000080 a0 ca 76 bc 14 6a 58 3c 70 e0 ab 3c 98 93 44 3c
       -0.015062958 0.013208885 0.020981044 0.01199808
000090 e0 c9 63 bd cb fe 9f bd 12 88 d7 3a db c9 d0 ba
       -0.055612445 -0.0781227 0.001644375 -0.0015929298
0000a0 bb 95 bc 3a e5 a9 7d 3b 00 00 00 00 00 00 00 00
       0.0014387885 0.0038706001 0.0 0.0
0000b0 00 00 00 00 00 e0 1c bd 0e 1c bd bd 50 4a 34 3b
       0.0 -0.03829956 -0.09233867 0.0027510114
0000c0 96 fe 76 3c c4 e0 df bc 34 1d 7d bd 15 eb e7 3c
       0.015075346 -0.027328856 -0.06179543 0.028310338
0000d0 b6 00 c4 bd bf 8e 5b be ea 17 70 bd c0 88 31 bc
       -0.09570448 -0.21441172 -0.058616556 -0.010835826
0000e0 45 7f de 3d 37 f9 71 3d 9b 95 af bd 71 3b ad bd
       0.108641185 0.05907556 -0.08573457 -0.08458603
0000f0 f9 5a 20 3d db d3 38 3e e2 04 3e 3e 00 00 00 00
       0.03914926 0.18049566 0.1855655 0.0
000100 00 00 00 00 00 00 00 00 be 89 52 3a a2 73 80 ba
       0.0 0.0 0.00080313894 -0.0009800086
000110 01 66 e3 b9 70 51 e5 3b ee 8e 86 bd ac 27 d2 bd
       -0.00043372813 0.0069982335 -0.065702304 -0.10261473
000120 a4 2e 89 be 48 02 17 bf ce ae d0 be 22 15 be 3e
       -0.26793396 -0.58987856 -0.40758365 0.37125498
000130 9c c7 37 3f 6a 44 c1 3e a4 e4 37 3d ce dc 2a 3e
       0.71788955 0.37747508 0.044895783 0.16685793
000140 88 47 be 3d 2b 00 89 bd e7 40 c1 be 86 13 c1 be
       0.09290987 -0.06689485 -0.3774483 -0.37710208
000150 ae 36 df 3d 14 a1 23 3e 4c 4b 9f 3d c2 3c b7 3d
       0.10899101 0.15979415 0.077780336 0.089471355
000160 c0 e5 22 3e 80 59 c0 3d 80 03 5c b9 a2 a0 93 bd
       0.15907955 0.09392071 -0.00020982139 -0.07208373
000170 de b9 ad 3a 13 9e 90 bc bd e5 02 bc ee e3 ec bc
       0.0013254245 -0.0176535 -0.007989344 -0.02891728
000180 7b 0f 1f 3d 4f 68 33 be 76 26 ef bd aa 54 de bb
       0.038833123 -0.1752026 -0.11677258 -0.006784995
000190 83 73 09 bd 81 f1 9b bd 42 ff 94 bd 9a 72 83 be
       -0.033557426 -0.076144226 -0.07275249 -0.25673372
0001a0 45 ce 07 be 3e c3 fd bd 93 57 ab be bd b0 3e be
       -0.1326228 -0.12390755 -0.3346525 -0.18622108
0001b0 72 ef 12 bd 16 8d 04 be 76 3d cf bd ec cc cf bc
       -0.035872884 -0.12944445 -0.101191446 -0.025366269
0001c0 6a 85 ac 3c a3 89 fe 3c 00 00 00 00 00 00 00 00
       0.02105971 0.03107149 0.0 0.0
0001d0 00 00 00 00 7b 9f 7f 3d 63 d7 a6 3e 2a 3e 30 3e
       0.0 0.06240795 0.32586202 0.17211214
0001e0 bf f9 40 39 07 92 6e b2 03 c9 1e 39 1e ff e3 bd
       0.00018403585 -1.3886626e-08 0.00015142937 -0.11132644
0001f0 be 76 9f be 2f 22 26 be f2 72 80 3e 5f 12 03 3f
       -0.3114528 -0.16223978 0.25087696 0.5119991
000200 7a 55 84 3e f4 5f 36 3e 8f ef 07 3f 5c 4e af 3e
       0.25846463 0.1781004 0.5309991 0.3423947
000210 ba e7 64 be 38 23 17 bf d8 39 af be 16 8d fc bd
       -0.22354022 -0.59038115 -0.3422382 -0.123315975
000220 9c f0 89 be 27 b4 1b be 00 00 00 00 00 00 00 00
       -0.26941383 -0.15205441 0.0 0.0
000230 00 00 00 00 5c 39 b2 bb 78 f6 5a 39 08 97 d1 bb
       0.0 -0.0054389667 0.00020881917 -0.006396178
000240 64 5a 8a 3c 28 df 43 bd ac 03 17 bd 00 00 00 00
       0.016888805 -0.04782024 -0.036868736 0.0
000250 00 00 00 00 00 00 00 00 1a 67 be be a8 27 16 bf
       0.0 0.0 -0.37188035 -0.5865426
000260 4b 18 5e be 53 2c 7a 3b 5a 3f 0e 3c 2c d5 b2 bb
       -0.21688955 0.0038173392 0.008682096 -0.005457541
000270 e1 02 0e bb da de 16 bb e1 e9 96 39 e9 ff af 3c
       -0.0021669196 -0.0023021013 0.00028784483 0.021484332
000280 ca 7a e2 3d 2a 63 0b 3e 0a e8 c2 3d 5a b7 58 3e
       0.110585764 0.13612047 0.09516914 0.21163693
000290 4e 1e da 3d b9 a7 3c be e4 46 f9 be ca 18 a0 be
       0.106503114 -0.18423356 -0.48686898 -0.31268913
0002a0 a8 fc 6d be a6 d8 95 be fe d1 ab bd 3e 94 36 3c
       -0.23240912 -0.29266852 -0.08389662 0.011143742
0002b0 a6 83 41 bd 1b 87 0c be 8e 45 71 3d 57 22 3c bd
       -0.04724469 -0.13723414 0.058904223 -0.045931187
0002c0 7a 83 e8 bd ec c0 fb 3d 51 66 81 3e 04 a0 29 3e
       -0.11353202 0.12292656 0.25273374 0.16564947
0002d0 50 51 a4 3b 86 fd bc 3d e4 a8 25 3d 65 12 08 3c
       0.005014576 0.09228043 0.04044427 0.008305167
0002e0 50 98 37 bd c8 86 56 39 56 ac 07 3b 8e 65 97 3b
       -0.04482299 0.0002045884 0.0020702085 0.0046202606
0002f0 30 dd 06 bc 79 1f b3 b8 a1 08 92 37 f8 0f 4f b8
       -0.008231446 -8.5412474e-05 1.7408574e-05 -4.9367518e-05

momentum_buffer f4 [64]
000000 38 27 ed 3b a1 a3 d4 bc 14 e7 cb bd 84 bb 04 bc
       0.0072373413 -0.02595693 -0.09956184 -0.008101348
000010 4a a4 7d 3d 00 00 00 00 00 00 00 00 00 00 00 00
       0.061924256 0.0 0.0 0.0
000020 85 37 b7 bc 06 ca c0 3c 54 b1 b0 bb dc 9e bd 3b
       -0.022365341 0.023533832 -0.005392233 0.00578676
000030 b1 c7 08 bc 4d 56 1c 3a 00 00 00 00 c5 d6 14 bc
       -0.008348391 0.00059637876 0.0 -0.009084408
000040 98 24 d5 bb 4c 3c 12 bd 24 4c e6 3c 8e 6a 97 bc
       -0.0065046065 -0.035702035 0.028112479 -0.018483426
000050 39 c5 31 3d 00 00 00 00 d8 3b 39 b9 f0 36 ca bc
       0.043400977 0.0 -0.00017665268 -0.0246844
000060 4e 9b cf bd 64 51 88 3d 3c 94 af bb 06 36 7b bd
       -0.10137044 0.06656149 -0.005358247 -0.061330818
000070 14 0a ef 3c c8 7e 39 3b a4 cf 23 bc d4 74 ff bb
       0.02917961 0.0028304327 -0.009998236 -0.0077959094
000080 ba a1 18 bd 40 37 7d bc 31 e5 2c bc 67 2b c7 bc
       -0.03726361 -0.015455067 -0.01055269 -0.024312688
000090 76 e1 65 bb f1 a2 35 3c 00 00 00 00 7c ce 31 3d
       -0.0035077012 0.011086212 0.0 0.04340981
0000a0 56 8d bf 37 2c 8d 7e bc 7a a9 38 3d f6 8d 45 3d
       2.2834789e-05 -0.015536588 0.0450835 0.048231088
0000b0 cd a3 a2 bd ee cf 8c bc 00 00 00 00 a5 13 b7 b9
       -0.07941399 -0.017188992 0.0 -0.00034919116
0000c0 8a 97 06 bc 00 00 00 00 f8 83 77 bd 42 04 b2 3a
       -0.008214841 0.0 -0.06042859 0.0013581591
0000d0 92 d3 b4 b9 63 c4 c2 3c 57 55 38 3c 30 cd 2e bd
       -0.00034489908 0.023775285 0.011250815 -0.04267615
0000e0 5c f6 5a bc 88 cf 1a bd 62 65 98 bc 42 82 ea 3c
       -0.013364401 -0.037795573 -0.01860303 0.028626565
0000f0 3a c5 b3 3c d4 5d e0 bb e8 2e 25 ba c3 dd 58 b6
       0.02194463 -0.0068471227 -0.000630124 -3.231559e-06

momentum_buffer f4 [16, 64]
000000 02 7d d0 3d 48 d5 b7 3b ce 77 17 3c fb c0 12 3d
       0.10180093 0.005610142 0.009244872 0.03582857
000010 00 04 a8 3b 00 00 00 00 00 00 00 00 00 00 00 00
       0.00512743 0.0 0.0 0.0
000020 a8 6b 35 3c f0 87 47 bb 84 a7 9c 3c 08 d1 00 bd
       0.0110730305 -0.0030446015 0.019122846 -0.031449348
000030 94 7b fd 3c 70 e6 f5 b7 00 00 00 00 19 a4 0a 3e
       0.030942716 -2.9313582e-05 0.0 0.13539161
000040 5f 55 0c 3c 97 75 14 3d 35 a2 1c 3d e0 e6 3d bc
       0.008565276 0.036244955 0.03824063 -0.011590689
000050 70 bc 7c 3d 00 00 00 00 1a 64 f6 ba df f5 c7 3d
       0.061703146 0.0 -0.0018798143 0.09763693
000060 ba fd a2 3d f5 4a c7 bd 90 e6 80 3d b5 72 8b 3d
       0.07958551 -0.09731094 0.06293976 0.06808988
000070 74 d7 04 be 68 64 df 3d 74 3f 23 3c fe a0 47 3c
       -0.12972814 0.10907823 0.009963859 0.01218438
000080 75 71 cf bd 44 02 83 3c cc 1f 22 3e 58 a1 e2 3d
       -0.10129062 0.015992291 0.15832442 0.1106593
000090 e0 15 81 3d 44 e0 19 bd 00 00 00 00 f3 a9 0b 3d
       0.063030005 -0.037567392 0.0 0.034097623
0000a0 c1 99 a1 34 66 b3 38 3e fc 97 92 3c c8 7a ca bc
       3.0100458e-07 0.18037185 0.017894737 -0.02471675
0000b0 4e 80 98 bd 20 3d 0f bb 00 00 00 00 77 ac d6 3b
       -0.07446347 -0.0021856502 0.0 0.006551321
0000c0 54 c3 56 bd 00 00 00 00 5b e3 bc bc e9 a8 9e 3a
       -0.052432373 0.0 -0.02305763 0.0012104783
0000d0 ee 73 23 bc 23 c2 ea 3d 60 9c 37 3d 48 65 34 3c
       -0.00997637 0.1146281 0.044826865 0.011010475
0000e0 40 d6 3c bd 4e fc 4d 3d 74 2f 22 3d 16 2d bd 3d
       -0.046102762 0.050289445 0.039596036 0.09237115
0000f0 8c aa 5b 3d 20 5a 59 3b 62 e8 68 3c d3 50 dc 38
       0.053629443 0.003316529 0.014215561 0.00010505472
000100 bc 75 a3 b9 af a7 77 36 95 79 27 bc 44 fb f2 33
       -0.00031177502 3.6903473e-06 -0.0102218585 1.1314708e-07
000110 96 fb 4d 38 00 00 00 00 00 00 00 00 00 00 00 00
       4.9110116e-05 0.0 0.0 0.0
000120 a6 a7 3c 33 fc 16 09 38 68 1d 17 bc 2a 19 d4 34
       4.3924636e-08 3.268475e-05 -0.00922332 3.9506386e-07
000130 c8 28 89 34 39 7e 9f 33 00 00 00 00 90 2e 35 ba
       2.554791e-07 7.426974e-08 0.0 -0.00069115404
000140 57 ca dd bb 7f fc 28 bc 6a d9 67 38 2f 55 cf ba
       -0.0067685056 -0.010314106 5.5277174e-05 -0.0015818233
000150 69 7a c7 38 00 00 00 00 76 bd be 2c 87 9c 84 bc
       9.51186e-05 0.0 5.421159e-12 -0.01618792
000160 2a e0 c0 bc 5b dd 1a 3c 2d 39 ab 3b c6 f2 c8 bc
       -0.02354439 0.009452189 0.0052253217 -0.024529826
000170 24 86 6a 3b 2e 54 77 3a 46 70 f0 30 ea 63 ac bb
       0.003578552 0.0009434846 1.7494208e-09 -0.005260934
000180 85 d2 65 3b 77 8e 1f bc 42 d8 53 3b da 6c d5 bb
       0.0035068106 -0.009738556 0.0032324945 -0.0065132203
000190 3f 6d c2 3a 26 09 54 33 00 00 00 00 e5 31 9e bb
       0.0014833583 4.9368417e-08 0.0 -0.0048277252
0001a0 8a 24 d0 b4 fb 21 9f 3b ce 5a 5e 38 e8 ff 28 3c
       -3.8769605e-07 0.0048563457 5.3013493e-05 0.010314919
0001b0 94 3e a3 35 9a 9e 45 3b 00 00 00 00 5e 27 9d bb
       1.2162659e-06 0.0030154348 0.0 -0.0047959527
0001c0 f6 23 81 36 00 00 00 00 78 e8 28 bc 3a e3 c0 bb
       3.848686e-06 0.0 -0.010309331 -0.0058864625
0001d0 b3 3d bf b8 4a 93 1a 3c c2 65 09 3a ca 11 9d bb
       -9.119082e-05 0.0094345305 0.00052412983 -0.0047933804
0001e0 4f 55 ca 39 c1 1e 9a bc 39 5e b7 3a ce 68 0e 39
       0.00038592002 -0.018813493 0.0013989873 0.00013581218
0001f0 66 1a 67 ba dc 71 dd 30 ae 86 e1 bb b6 3b b1 37
       -0.00088158844 1.6112227e-09 -0.00688251 2.112785e-05
000200 5e 07 49 3d 68 23 25 3b b0 b2 88 3a 4a 43 3b 3b
       0.04907929 0.0025198106 0.001042923 0.0028574043
000210 80 de 72 3d 00 00 00 00 00 00 00 00 00 00 00 00
       0.059294224 0.0 0.0 0.0
000220 f6 e6 a4 3c 2b 55 f1 3b 1e 87 63 3b cf 90 1b 3c
       0.020129662 0.007364889 0.0034717987 0.009494974
000230 28 b3 c7 3a d6 70 99 33 00 00 00 00 64 8d a8 3d
       0.0015235888 7.1451424e-08 0.0 0.08230093
000240 b9 27 1a 38 b7 98 78 3b 1c 97 28 3d f2 5a a0 3c
       3.6753456e-05 0.0037932822 0.041159734 0.019574616
000250 f1 ea 60 3d 00 00 00 00 01 72 01 37 86 44 3d 3d
       0.054911558 0.0 7.715543e-06 0.046207927
000260 26 44 04 3d 59 5d 34 3d a2 a4 1a 3d 70 82 be 3c
       0.032291554 0.044034336 0.037754662 0.023255557
000270 dc d9 09 3d f0 2b 8b 3d 8a 3e 76 3a ec 94 9f 36
       0.033655033 0.0679549 0.00093934743 4.755906e-06
000280 49 c7 7f 3c d1 7b 65 37 e4 6a c3 3d 1d 2c 61 3d
       0.015611478 1.3678292e-05 0.09541872 0.05497371
000290 a2 e1 10 3d 38 69 65 3c 00 00 00 00 4f 44 b5 3c
       0.03537143 0.014002137 0.0 0.022127299
0002a0 28 bd eb 1d d0 e5 9f 3d 50 00 19 3d 76 4b 68 3d
       6.2399565e-21 0.07807505 0.037353814 0.05671259
0002b0 ec fc de 3c 7c c0 45 3d 00 00 00 00 29 0d d5 33
       0.027220212 0.04827927 0.0 9.920979e-08
0002c0 e3 14 74 3c 00 00 00 00 fb 63 89 3a 98 24 1a 35
       0.014897558 0.0 0.0010482067 5.742272e-07
0002d0 bb 23 96 35 86 d8 ad 3d e6 1b c0 3c 74 db 0c 3d
       1.118627e-06 0.08488564 0.023450803 0.034388974
0002e0 0c 95 56 3d f0 6d 0f 3d 08 8c 2b 3b 68 13 50 3d
       0.052388236 0.035016954 0.0026175994 0.050799757
0002f0 d3 e7 03 3d 60 58 8a 3a ec 82 26 36 d1 33 ba 30
       0.032203507 0.0010554902 2.4812134e-06 1.3548008e-09
000300 dc e1 94 38 71 7c 4d 33 45 e4 6f 3a 5c 2a 3e 36
       7.0992595e-05 4.784346e-08 0.0009151141 2.8336863e-06
000310 20 39 72 3c 00 00 00 00 00 00 00 00 00 00 00 00
       0.0147841275 0.0 0.0 0.0
000320 f0 b4 9f 39 00 d5 db b8 11 31 0e 3d f0 48 1b ba
       0.00030461652 -0.00010482408 0.034714762 -0.00059236493
000330 32 e8 dc 34 3f 35 82 3a 00 00 00 00 f0 aa cd 3c
       4.1147138e-07 0.0009934081 0.0 0.025105923
000340 10 97 f3 3b 69 ff 69 3d 05 f1 d4 bb 56 34 5f 3d
       0.0074337795 0.057128344 -0.0064984583 0.05449327
000350 64 de 3e ba 00 00 00 00 e4 b1 33 35 7d f5 10 3d
       -0.00072810636 0.0 6.694156e-07 0.035390366
000360 7a 6e 88 3d 1b f7 c4 3d 20 56 bf 39 04 d6 98 3d
       0.06661697 0.09617444 0.00036494527 0.07462695
000370 74 3c d3 3d 7e bb cb 3c 64 a7 e6 38 a5 09 e0 35
       0.10314265 0.024869677 0.000109984336 1.6692107e-06
000380 f0 e4 df 3d 53 f7 82 3c e8 1d e6 3a 86 46 b5 3b
       0.10932338 0.015987074 0.001755652 0.0055320887
000390 e5 bf a9 3a d9 ab b3 bb 00 00 00 00 7b 42 b0 36
       0.0012950866 -0.0054831323 0.0 5.252948e-06
0003a0 d7 d2 06 19 c9 e9 49 39 92 1f 0e bb 80 dd 89 3d
       6.9702164e-24 0.00019255946 -0.0021686298 0.06731701
0003b0 ba 30 0d bc de d5 2c 3d 00 00 00 00 c2 bb e5 30
       -0.008617574 0.042196147 0.0 1.6715307e-09
0003c0 0c 05 99 3c 00 00 00 00 f3 d8 08 34 fe d1 a9 30
       0.018679164 0.0 1.2744913e-07 1.2356052e-09
0003d0 57 57 a8 29 5a 4d f0 bb 96 6b 98 39 c3 17 25 3d
       7.47585e-14 -0.00733344 0.00029071857 0.040305864
0003e0 61 b7 5b 3d 16 c3 ba 3c 37 2e 65 3d e2 11 2e 39
       0.05364168 0.022798102 0.055952277 0.00016600595
0003f0 46 5a 97 36 1e 64 c2 39 8d ae 91 35 92 87 7c 35
       4.51066e-06 0.00037077157 1.0854143e-06 9.4074596e-07

momentum_buffer f4 [16]
000000 20 69 8d 3c 00 e2 a5 3b 1e e4 87 3c 48 92 58 3c
       0.017262042 0.0050623417 0.016588267 0.01321847
000010 53 e0 0d bd 91 40 a8 bd 3b 8c b0 3d 93 04 e0 3c
       -0.03463776 -0.0821544 0.08620497 0.027345931
000020 0a 42 0d bd f8 9a 33 bd de a7 0f 3d ee 80 c5 3c
       -0.034486808 -0.04384896 0.0350722 0.02410933
000030 a7 99 7b bd 01 40 15 3d 98 cc f7 3c b1 58 0f bd
       -0.06142583 0.036437992 0.030248925 -0.034996692
