notebooks/checkpoints/checkpoint-0.ckpt (torch, 13455 bytes, 8 tensors)

linear_relu_stack.0.weight f4 [64, 3]
000000 d3 cf 2a 3f b5 f7 5a 3e c6 b1 9b be 84 e7 b8 3e
       0.66723365 0.21383555 -0.30409068 0.36114132
000010 2e 46 48 3e 2d 11 1b bf ab 50 e4 3e 78 c9 eb be
       0.19558021 -0.60573083 0.44592795 -0.46052146
000020 0d 3a 85 3e f7 47 15 be 90 e2 ad 3e 62 a7 27 bf
       0.26020852 -0.14578234 0.33961916 -0.6548978
000030 87 15 43 bf da b5 48 3f c5 c7 29 be f8 ce 71 3e
       -0.76204723 0.78402483 -0.16580112 0.23614109
000040 2c 58 0d bf 62 ea e0 be 78 fc 36 be 8b 97 00 bf
       -0.55212665 -0.4392882 -0.17869747 -0.50231236
000050 e4 c3 e2 be 62 4d 0c bf e3 d6 c4 be 28 b5 b3 be
       -0.44290078 -0.54805577 -0.38445196 -0.3509915
000060 8e c8 44 be 46 0c d0 3e 83 92 04 bf d2 ee 18 be
       -0.1921713 0.40634364 -0.5178606 -0.14934853
000070 47 86 dd 3d e2 5a 49 be e7 1f 2f 3e 71 70 e7 be
       0.10816627 -0.19663575 0.17102014 -0.45202973
000080 97 00 d5 3e d4 34 ad be 5b a3 04 3e 23 b1 6d be
       0.41602013 -0.33829367 0.1295294 -0.23212104
000090 fc a7 c0 bc 17 03 4a 3e 79 74 0f bf bb 97 f2 be
       -0.023517601 0.19727741 -0.560371 -0.47381386
0000a0 58 d2 ca be 72 c0 9f bc a4 18 0e bf 24 59 05 bf
       -0.39613605 -0.019500945 -0.5550635 -0.5208914
0000b0 ef 09 f2 be d4 08 c4 3e 19 81 c2 3e f9 a1 9e 3e
       -0.47273204 0.38287985 0.3798912 0.3098295
0000c0 cb bf d2 3d f4 0d 3b be 35 da 37 3e a6 af 98 be
       0.10290488 -0.18267041 0.17954333 -0.2982151
0000d0 05 83 1f bf 4b 5f 20 3f 60 dd 2d be 00 cd ed 3e
       -0.62309295 0.62645406 -0.16978979 0.46445465
0000e0 4e f0 30 be 1a 16 9b be 79 5a 95 be 16 7b 05 3f
       -0.17279169 -0.302903 -0.29170588 0.5214094
0000f0 fb 6d 61 be e9 b8 1f 3f 01 3e a4 be 00 2d c7 3c
       -0.2201461 0.62391526 -0.32078555 0.02431345
000100 05 f3 00 bf 92 a4 07 bf 91 ba d0 be 95 df d6 bd
       -0.5037082 -0.5298549 -0.4076734 -0.10491864
000110 20 b4 a9 be 6f cd 34 3f 37 3a 83 be 86 da 14 3f
       -0.33145237 0.70625967 -0.25630352 0.5814594
000120 52 ad 2e 3f 24 b2 1f bf a6 05 3d 3f 7f 46 2c bf
       0.68233216 -0.62381196 0.73836744 -0.6729507
000130 71 21 03 3e 3e 1b 13 3f 29 aa 2e 3e ae f6 6a 3e
       0.12805726 0.57463443 0.17057098 0.22945663
000140 73 a2 7b bd 7e 1b ac 3e 95 7d 0f bf 4f 16 55 3f
       -0.06143422 0.33614725 -0.56051 0.83237165
000150 2d eb 3c bf e2 58 d7 3d 82 f6 31 3f a9 96 90 3e
       -0.7379635 0.10515 0.69516766 0.28239945
000160 7b 94 9d 3e 25 74 98 3e f7 e5 bd be 62 74 2f 3e
       0.30777344 0.2977611 -0.37089512 0.1713424
000170 e2 64 15 bf 01 f4 87 3e 71 1c 92 be c5 ef 17 bd
       -0.5835706 0.26553348 -0.28537324 -0.037093896
000180 f0 5a 19 bf ea 17 2a be d8 b9 42 3f 3f 5e 50 3e
       -0.59904385 -0.16610685 0.76064825 0.20348452
000190 c8 1b f5 be 4a 97 5b 3e 00 ca db 3e 88 9f 2e 3f
       -0.47872758 0.21444431 0.4292755 0.68212175
0001a0 ac 75 fa bd 09 2a f3 3e 7f 8c 82 3e 12 7b 1d 3e
       -0.122294754 0.47493008 0.25497815 0.15378979
0001b0 1e 65 92 3d 48 b8 a9 3e bf 2c 15 be a1 10 18 bf
       0.07148193 0.33148408 -0.1456785 -0.59400374
0001c0 e5 f8 eb 3e 42 38 e1 be 2c 8c 5f 3e da 84 02 bf
       0.4608833 -0.43988234 0.21830815 -0.50983965
0001d0 9b 07 06 bf b8 35 15 3f 71 64 f0 3d 46 94 c5 be
       -0.52355355 0.58285093 0.11737908 -0.38589686
0001e0 32 eb 94 3e b0 b2 0d bf b6 fd 8c be c1 dc 1a 3f
       0.2908569 -0.5535078 -0.27537316 0.60493094
0001f0 44 4d 31 3f 5d d1 ef be 89 02 bc be 09 fb 13 3f
       0.69258523 -0.4683942 -0.36720684 0.57804924
000200 cb b9 0e bf d7 ac 01 bf ad 94 e9 3e 83 95 cc 3e
       -0.5575225 -0.5065436 0.45621243 0.39957818
000210 98 57 57 bf 43 ce 2b 3f bb 9c da be fc 44 bc be
       -0.8411803 0.67111605 -0.426977 -0.3677138
000220 01 e8 c8 3e ff 41 a1 3e 40 aa 37 3d 44 e5 ae bd
       0.39239505 0.31495664 0.044840097 -0.08539823
000230 b2 b9 3a be 07 e2 70 3e 09 e7 8e be ec e3 e0 bd
       -0.182349 0.23523723 -0.2791064 -0.10980973
000240 4a a1 c4 be d6 49 ed ba 8f 19 06 3e a5 8d 92 be
       -0.38404304 -0.001810367 0.13095687 -0.2862369
000250 53 ea b3 be 6e 6e dd be 37 b2 4a 3f 81 a0 0e be
       -0.35139713 -0.43248314 0.79178184 -0.13928415
000260 75 76 d8 be 98 ee c4 3e f9 56 aa be bf d6 78 be
       -0.42277876 0.38463283 -0.3326948 -0.24300669
000270 fd 46 c8 3e 9f 5c a4 be d0 7e cc be c7 7e 0e 3e
       0.3911666 -0.32101914 -0.399405 0.13915549
000280 c3 d7 2f 3f 9c 6e 3d be 78 61 ae 3d 75 42 64 3e
       0.686886 -0.18499225 0.085146844 0.22290976
000290 14 54 99 be 74 7d 1a be b6 67 e2 3d c4 45 c8 3e
       -0.2994696 -0.15086919 0.110549375 0.39115727
0002a0 5d 87 2a bf d8 a9 15 3f 31 32 88 3e 7f 99 39 3f
       -0.666128 0.58462286 0.26600793 0.7249984
0002b0 1f 76 e3 be 9e 71 fb 3e e3 df 18 bf 78 f4 4e bf
       -0.44426057 0.4911012 -0.59716624 -0.8084178
0002c0 0f 09 1b 3f 12 f0 49 3e 55 6a 03 3f bc 19 22 bf
       0.605607 0.19720486 0.51334125 -0.6332052
0002d0 73 d5 17 3f 0c d7 5b 3e 3e c1 0f bf fc e8 c6 be
       0.5931007 0.21468753 -0.5615424 -0.38849628
0002e0 ee 4e 17 3e 73 da 0b bf d1 cb 8e 3e 68 88 a3 be
       0.14776203 -0.546302 0.27889875 -0.31940007
0002f0 16 74 54 bc 01 24 d3 bd a6 55 dd be 92 89 40 3d
       -0.01296713 -0.103096016 -0.43229407 0.047006197

linear_relu_stack.0.bias f4 [64]
000000 68 40 e5 3e 7c 3b ef be b2 2c 3c 3f 6c 90 3f 3d
       0.447757 -0.4672507 0.735057 0.04676859
000010 c9 86 3d be 54 54 d6 be fe 56 b4 3e 40 c4 81 3d
       -0.18508448 -0.41861212 0.3522262 0.0633626
000020 53 6a 9c be b4 10 f7 3e 20 e7 ea 3e cb d9 04 3f
       -0.3054987 0.4825493 0.4587946 0.51894826
000030 e0 ab 80 3e b6 0b f3 bd a0 97 55 bd 11 b4 5e 3e
       0.2513113 -0.11867468 -0.052146554 0.21748377
000040 e9 8b 39 be f6 3a 27 be d9 9c b9 be 28 a3 b4 bb
       -0.18119778 -0.16331086 -0.36252478 -0.005512614
000050 8d 06 39 be 9c eb 63 be 6c fd 29 be 81 7e 65 3e
       -0.18068905 -0.22257847 -0.16600579 0.22411539
000060 27 52 cb 3e f2 35 2d 3f 20 e8 f6 3e 01 60 df bd
       0.39711115 0.6766044 0.48223972 -0.10906983
000070 24 76 fb bd 89 cd be 3e 62 19 ac 3e ea 7d a0 3e
       -0.12278393 0.37266186 0.33613116 0.31346065
000080 62 52 11 3f 9f 54 6e 3e e8 5f cd be 33 16 eb be
       0.5676633 0.23274468 -0.40112233 -0.45915374
000090 dd 53 9c be 25 67 a1 3d ee 2f 12 3f d5 f1 fc bd
       -0.30532733 0.078810014 0.57104385 -0.12350813
0000a0 e5 1f 00 bf 00 32 05 bf 6b 0f 13 3f 7e da 28 3f
       -0.5004867 -0.5202942 0.574454 0.6595839
0000b0 96 07 53 be e6 0d ae be 9e fc 08 be cc 01 be 3c
       -0.20608363 -0.3399498 -0.13377616 0.023194216
0000c0 a4 a4 0c bf df 06 eb be 73 c7 a0 be 4f b9 b4 bd
       -0.5493872 -0.4590368 -0.31402168 -0.08824407
0000d0 39 a1 c5 be f4 2c 18 bd 50 11 c2 3e 5e 82 1a bf
       -0.38599566 -0.037152246 0.37903833 -0.60355175
0000e0 86 5b 26 bf d3 1f 94 3e b5 e0 2e 3d 0d 3e 66 3e
       -0.64983404 0.2893053 0.042694766 0.22484608
0000f0 ed 52 44 be db 00 d6 3e 49 91 38 3e e7 ee 85 bd
       -0.19172259 0.41797528 0.18024172 -0.06539708

linear_relu_stack.2.weight f4 [16, 64]
000000 be 50 c5 3d c4 24 d9 3d d4 3d a2 3e ed b0 28 bd
       0.09634541 0.106027156 0.31687796 -0.041184355
000010 c1 f0 6d 3e f0 d2 96 3d 7a 94 e2 bd 14 d9 80 bd
       0.23236372 0.07364452 -0.11063476 -0.06291404
000020 2b f9 cb 3d 7c b7 bc 3d 44 b1 49 3e 18 dc 09 3e
       0.099596344 0.09214684 0.19696528 0.13462865
000030 ec 35 b1 bb a0 4a 6a bb f0 8c a7 bd 1b 9c 55 bd
       -0.0054080393 -0.0035750046 -0.081811786 -0.052150827
000040 ad 8d 5f bc 4d ae d0 3c 55 b9 66 bb 0c 2f fe 3d
       -0.013644618 0.025473738 -0.0035205681 0.12411317
000050 3a 7c 12 3e 80 72 91 3b 1e 16 18 bc 2c f1 45 3e
       0.14305201 0.0044386983 -0.009282617 0.19330281
000060 be fa 7e 3e 25 03 3b 3e d4 f7 59 bd 4a 77 61 3d
       0.24900338 0.18262918 -0.053214863 0.055045404
000070 79 ea b2 3d f3 c0 f9 bb c6 3b d6 bb db ad 5a bd
       0.08736128 -0.0076218783 -0.0065378873 -0.053388458
000080 e2 21 1f 3e 55 a8 42 3e 17 d4 e0 3c c5 e3 43 be
       0.15540269 0.19009526 0.027444882 -0.19129856
000090 51 1c 4e 3d fb 01 75 3e b4 c9 d2 3d 22 46 8a 3d
       0.050319973 0.23926537 0.10292378 0.06751658
0000a0 9a c2 8b 3d da ca ad 3d 35 de 0f 3e 77 8f c3 3d
       0.06824227 0.084859565 0.14049609 0.09548848
0000b0 08 92 c1 3e 77 cf 85 bc a4 26 a3 3d 5f 54 7a bd
       0.37806726 -0.016334279 0.079663545 -0.06111562
0000c0 0e aa f5 3d 7e 5a fb 3d b4 39 42 3e 17 ff 69 bd
       0.11995326 0.122731194 0.18967324 -0.05712804
0000d0 ac 2d 21 bd 74 de d1 bd e0 f3 03 3e a0 e5 2e bd
       -0.039350197 -0.10247508 0.12886 -0.042699456
0000e0 79 62 c5 bd 2a de a4 3e a1 29 54 3e 0d 75 19 3e
       -0.09637923 0.32200748 0.20719005 0.14986058
0000f0 b1 ca 2a 3d ef e9 8f 3d a8 5e a3 3d e5 e4 ed bd
       0.041697208 0.07027041 0.079770386 -0.11615924
000100 d0 aa 01 3d 2b 50 a9 3d bd a2 32 3e bf e1 dd bc
       0.03165704 0.08267244 0.17444892 -0.027085183
000110 1c fd ea 3c b4 bd 1a bd 58 fb e6 bc 30 1a 34 bc
       0.028685145 -0.03777857 -0.028196022 -0.010992572
000120 8c 62 82 3c 72 7c 18 bd 2f 4c 32 3e c5 1d c4 3d
       0.015916131 -0.037228055 0.17411874 0.095759906
000130 ef 14 eb 3d 3f 02 be bd 80 80 2d bb df 7f 10 be
       0.11478602 -0.09277772 -0.0026474297 -0.14111279
000140 15 d9 17 3e 70 5e bd 3d 1e 57 1e bd 65 58 6a bc
       0.14828904 0.09246528 -0.0386573 -0.014303301
000150 f9 a9 84 bd e6 d2 8e 3d 94 4c 39 3d 18 9b 3e 3e
       -0.06477732 0.069738194 0.045239046 0.18613851
000160 f4 16 f9 3e 95 f1 b3 be cd bd 21 be 1d 42 c8 3e
       0.48650324 -0.3514525 -0.1579506 0.3911294
000170 55 54 d7 bd 39 3f e0 bd 26 83 d0 3d c7 59 1f 3e
       -0.10514132 -0.10949559 0.101812646 0.15561591
000180 6d fc 1e be 2c 41 a7 3e bb 8c 12 be 13 46 ae 3d
       -0.1552598 0.3266691 -0.14311497 0.08509459
000190 5f a2 12 be 71 e8 ba 3b 78 87 8f bc 2f 6f 5e 3d
       -0.14319752 0.0057039787 -0.017520651 0.05430525
0001a0 21 80 c2 bd 12 df a0 be ae 8b a5 bd 16 f8 d0 be
       -0.09497095 -0.3142019 -0.080832824 -0.40814275
0001b0 2f 13 40 3d 06 88 01 be 70 f0 f9 bd 0c 74 4f 3d
       0.046893295 -0.12649545 -0.12204063 0.05064778
0001c0 59 7d df bc 28 0b 9c bc ac 5b 66 3e ce 0a 92 3d
       -0.02728145 -0.019048288 0.22495908 0.07130967
0001d0 74 b1 6e bd 75 c6 e8 be 3e c8 09 3d 25 93 6a bd
       -0.0582747 -0.4546391 0.03363823 -0.057269234
0001e0 f3 52 be 3c 99 e3 c7 3e ed 55 f6 bd 47 32 cd bc
       0.023232913 0.3904083 -0.12028108 -0.025048388
0001f0 64 83 2f be 3c 17 b7 3d 27 5f 35 3e 3c 3e 01 be
       -0.17139965 0.089399785 0.17712079 -0.12621397
000200 e0 8d 33 bd 6f 9d 14 3e 3b 0d 37 3c 5f 83 80 3c
       -0.043836474 0.14513181 0.011172588 0.015687643
000210 2e 3f 54 3e be 77 b1 3d 70 f5 57 bc ee bf d1 3d
       0.20727226 0.08665417 -0.013181075 0.10241686
000220 a8 09 42 bd 6c 9f 72 3d fd a0 2d be f5 8e 03 3c
       -0.04737249 0.059234068 -0.16955943 0.008029689
000230 02 e6 42 3d 1d 9c ba bc 20 65 57 3c ef b8 49 3d
       0.047582634 -0.022779519 0.013146669 0.049248632
000240 10 ee ce 3d 83 c9 1a be 69 aa 84 3d ca 1f 24 be
       0.101040006 -0.15115933 0.06477816 -0.16027752
000250 ce 1b 02 3e d4 9f 71 bd 94 57 74 3c e7 96 24 3c
       0.12705919 -0.058990315 0.014913458 0.010045744
000260 8e 30 ba be 10 34 86 3d 10 06 52 bd 2b 3c 97 be
       -0.3636517 0.06552899 -0.051275313 -0.29538092
000270 40 a9 6b 3e 32 1e 9b 3d 91 af 5b 3d 8d 31 1d bd
       0.23013783 0.07574119 0.05363423 -0.038377333
000280 ca 17 54 3e 29 c6 29 3d e0 90 b4 bc 00 b6 10 3d
       0.207122 0.041448746 -0.022041738 0.03532982
000290 74 be 94 3d 23 29 53 bc f0 a0 ca bd 1e 5b 8a bd
       0.072628886 -0.012888226 -0.09893978 -0.067556605
0002a0 86 4e 2b bc 43 e9 33 3b ae 58 1f bd 24 31 39 3e
       -0.010455733 0.0027452267 -0.03890293 0.18085152
0002b0 82 f4 31 3e d1 d9 f9 bb 12 c1 e4 3d 9f 53 e7 bd
       0.17378429 -0.0076248427 0.11169638 -0.11295246
0002c0 38 88 ae bd c4 83 31 3d c2 b5 cd 3d 5b 2c a8 3d
       -0.085220754 0.043338552 0.10044433 0.08211585
0002d0 c4 be e6 3d ca f2 61 bd bd 01 b6 3c 18 bf b9 3d
       0.112668544 -0.055163182 0.022217626 0.09069651
0002e0 25 df 06 3e 7f bb 0e be 66 eb 2b be 07 ed 3c be
       0.1317106 -0.13938712 -0.16789016 -0.18449794
0002f0 86 c4 db bb cc 17 a5 bc c1 6f 74 3d 82 e7 dc bd
       -0.006706777 -0.020152949 0.05967689 -0.10786344
000300 24 f7 e4 bd 02 0d 9b 3d b1 92 1d be 99 e3 91 3c
       -0.11179951 0.075708404 -0.1538799 0.017808722
000310 c7 40 01 3e 9e 96 fb bd 80 dd a0 3a d0 d1 6b 3c
       0.12622367 -0.12284587 0.0012273043 0.014393285
000320 f6 8e 5b bd dd 75 27 3d fd 79 96 bd b9 ff 25 bd
       -0.053603135 0.040883888 -0.07347486 -0.04052708
000330 52 4f 65 bc 50 35 fc 3c 60 f5 a3 bd 37 43 1f be
       -0.013995962 0.03078714 -0.08005786 -0.15552984
000340 89 f6 43 bd e8 3f 34 3e 66 b8 54 3c 9b 1f 75 3e
       -0.047842536 0.17602503 0.012983417 0.23937838
000350 a4 60 9c bd 0e 06 87 3d 23 c5 bf 3d 86 4d 38 be
       -0.0763562 0.06592952 0.09363773 -0.17998323
000360 9a a2 5c be a3 7b 98 3e 36 30 fc bd 36 e4 30 bd
       -0.21546403 0.29781827 -0.12313883 -0.04318639
000370 6e 9c a6 3e 79 ce 61 be 3e 74 29 3c 60 70 2c bd
       0.3254122 -0.2205142 0.010342656 -0.042099357
000380 33 c3 9b 3e 68 d7 1c be a1 4c e6 be e7 7c 38 be
       0.30422363 -0.15316546 -0.44980338 -0.18016396
000390 76 c9 ff bc d0 c3 c1 bd 00 b3 25 bb d9 44 c2 bd
       -0.031223994 -0.094611764 -0.0025283694 -0.09485788
0003a0 d0 fa 06 3d 8f fc 2f be 6a 78 4c be 99 92 3a 3e
       0.032954037 -0.17186187 -0.1996781 0.18219985
0003b0 9a 89 07 3d 49 36 e3 3c 42 15 ec 3d 5b ad a1 3d
       0.03309021 0.027735846 0.11527492 0.07894393
0003c0 4d a1 ee 3c 40 3d eb 3b 01 6e f5 bd 69 ed bd 3d
       0.029129649 0.0071789324 -0.11983872 0.09273798
0003d0 43 33 70 3d ba e0 09 be b6 be c1 bd aa 63 dd 3d
       0.058642637 -0.13464633 -0.09460203 0.10810025
0003e0 2f ef 86 3e 6e 46 b2 be d4 95 a3 3e 9b 3d cb bd
       0.26354358 -0.3481936 0.31950247 -0.0992386
0003f0 03 47 be bd a1 e6 ac 3d 10 8b 96 3c 67 2d 03 be
       -0.09290888 0.084424265 0.018376857 -0.12810288

linear_relu_stack.2.bias f4 [16]
000000 9a ea 16 3e 89 46 8a bd 29 9f f2 bb d4 0c 0d be
       0.14737931 -0.06751735 -0.0074042273 -0.13774425
000010 7c 5a 6a bd db 3d 3f be 9a 85 91 bc 41 a5 a9 3d
       -0.0572152 -0.1867594 -0.017763902 0.08283473
000020 85 e3 78 be 9b 63 e9 be 1e a9 1a 3e 9f f6 08 be
       -0.24305542 -0.45583805 0.15103576 -0.13375328
000030 eb ed 23 bd c1 74 ba bd fc 53 b9 bd 7c 72 2f 3f
       -0.040021818 -0.091043 -0.09049222 0.68534064

momentum_buffer f4 [64, 3]
000000 45 e4 d1 bc 46 50 a3 3d f4 89 19 3d 63 5e 28 be
       -0.025621543 0.07974295 0.037485078 -0.16442256
000010 d0 ab 58 be aa e4 88 bd 38 22 28 be 6c 7f 8b be
       -0.21159291 -0.06684239 -0.16419303 -0.27245653
000020 92 92 6c be ba bc ba bd bc ed 3c be 66 14 8a bc
       -0.23102787 -0.09118028 -0.18450063 -0.01685543
000030 ce 8e fa 3d da f9 ba 3e 65 7c a5 3e 00 00 00 00
       0.12234269 0.36518747 0.32321468 0.0
000040 00 00 00 00 00 00 00 00 00 00 00 00 00 00 00 00
       0.0 0.0 0.0 0.0
000050 00 00 00 00 00 00 00 00 00 00 00 00 00 00 00 00
       0.0 0.0 0.0 0.0
000060 00 7f 19 bc 98 f6 40 bd 66 12 e7 3c b5 6b 94 bc
       -0.009368658 -0.04711017 0.028207015 -0.018117765
000070 78 8a 77 3c e0 45 24 3d ce 17 c7 3c e8 00 78 3c
       0.015108697 0.0401057 0.024303343 0.015136935
000080 4b 11 0e bd 48 60 89 3c 3b fc b0 3c 00 48 0c b8
       -0.03468446 0.016769543 0.021604648 -3.3445656e-05
000090 48 1c 34 bd 34 1b 99 bd 83 0e d6 ba fd 6a c4 ba
       -0.043972284 -0.07475892 -0.0016331229 -0.0014985498
0000a0 23 9a b0 3a 43 b8 70 3b 00 00 00 00 00 00 00 00
       0.0013473671 0.0036730922 0.0 0.0
0000b0 00 00 00 00 0b ab 83 bd 24 64 11 be f2 09 00 bd
       0.0 -0.06429108 -0.14198357 -0.031259485
0000c0 01 73 62 3c 48 c4 de bb 7c 04 12 bd 1f 6f 00 3d
       0.013821364 -0.006798301 -0.035648808 0.031355973
0000d0 fa a9 5f bd da c1 27 be 59 d6 8f bc 80 2f 8a 3d
       -0.05460546 -0.16382542 -0.017558264 0.06747341
0000e0 c7 7b 28 3e df e1 af 3d 10 ba 21 ba ca f3 7e bc
       0.16453467 0.08588003 -0.0006169388 -0.0155610535
0000f0 37 89 9d 3c 46 2c d9 3d e7 2a e5 3d 00 00 00 00
       0.019230468 0.106041476 0.111898236 0.0
000100 00 00 00 00 00 00 00 00 e7 db 5f 3a 93 a6 8b ba
       0.0 0.0 0.0008539543 -0.0010654501
000110 1a 5f ed b9 be 52 1d bd 40 60 eb bd e8 aa 20 be
       -0.0004527502 -0.038408987 -0.114929676 -0.15690196
000120 2a 97 46 be 44 0d b2 be 10 bb 97 be bf 1f 73 3e
       -0.19393602 -0.34775746 -0.29634905 0.23742579
000130 c1 3f df 3e 4f 3a 55 3e 2f 5b 86 bd 00 55 52 bd
       0.43603328 0.20823024 -0.06560361 -0.051350594
000140 d4 29 df bc f1 d2 85 bd 2c 54 be be a2 82 c9 be
       -0.027241625 -0.065343745 -0.37173593 -0.39357477
000150 6b 82 0e 3d b4 69 5f 3d 06 69 3e 3d 6e c7 1a 3d
       0.034792345 0.054544166 0.046486877 0.037787847
000160 55 ac 10 3d ac f0 82 3b e8 04 d0 3a d1 af 53 bd
       0.0353206 0.0039959755 0.0015870603 -0.051681343
000170 74 30 4b 3b 88 35 14 bc 00 04 05 39 da 7a a7 bc
       0.0031004222 -0.009045966 0.00012685359 -0.020444322
000180 ec a9 9e bd 93 c9 bb be f2 02 7c be c8 32 e7 3a
       -0.07747254 -0.36677226 -0.24610499 0.0017639035
000190 ab 66 95 3b b0 28 8c bc 58 a1 c9 bc cc 3c 21 be
       0.004559358 -0.017109245 -0.024613068 -0.15745848
0001a0 21 7e b4 bd 52 29 7a bd ec 80 2f be 4f c3 bb bd
       -0.0881312 -0.061074562 -0.17139024 -0.091681115
0001b0 50 dd 0c bb b9 1f 72 bd 55 36 7c bd e1 f1 ca 3b
       -0.0021494217 -0.059112284 -0.061575253 0.006193385
0001c0 09 34 4b 3d 49 15 20 3d 00 00 00 00 00 00 00 00
       0.04961017 0.0390828 0.0 0.0
0001d0 00 00 00 00 f8 8d 5f bc 64 be 3c 3e 8a 9c e6 3d
       0.0 -0.013644688 0.18432003 0.11260326
0001e0 b2 1d 99 39 5f a8 0b 35 1f a2 7b 39 78 62 9e bd
       0.0002920456 5.202655e-07 0.0002399762 -0.07733625
0001f0 33 39 2c be b2 8a 54 bd b1 84 17 3e e8 ca 97 3e
       -0.16818695 -0.051890083 0.14796712 0.29646993
000200 26 04 15 3e 7e 64 e3 3d 6e ed a4 3e de 9d 60 3e
       0.14552364 0.11103152 0.32212394 0.21935222
000210 de 42 62 bd cf 9a 65 be 6b 77 00 be 9c 08 05 bd
       -0.05523955 -0.22422336 -0.12545554 -0.032478914
000220 ce 34 ec bd 0f d5 a6 bd 00 00 00 00 00 00 00 00
       -0.11533509 -0.081461065 0.0 0.0
000230 00 00 00 00 3f 99 a9 3b 5c 44 fb 3b ce 18 63 bb
       0.0 0.005175739 0.007668061 -0.0034652236
000240 42 89 1d 3c 1a 6e 37 bd 07 ee 5c bc 00 00 00 00
       0.009615244 -0.044782735 -0.0134844845 0.0
000250 00 00 00 00 00 00 00 00 59 6a a2 be 2f bd ea be
       0.0 0.0 -0.31721762 -0.4584746
000260 46 b2 39 be be dd 22 3c 80 ac 75 3c eb b5 fd bb
       -0.18134412 0.009940563 0.0149947405 -0.0077426336
000270 0a 06 00 ba e2 82 25 ba c0 71 5f 39 dc fb 28 bc
       -0.00048837124 -0.00063137535 0.00021309312 -0.010313954
000280 ef 69 ce 3d bd e2 22 3e 44 c7 e6 3c 84 48 3a 3d
       0.10078799 0.15906806 0.02817119 0.045479313
000290 9b 8f 88 3c 18 bd a8 bd 30 20 77 be 86 ae 48 be
       0.016670039 -0.08239192 -0.24133372 -0.19597825
0002a0 eb 65 ee bd 7c 46 7d bd fc 8c 1f 3d 64 79 96 bb
       -0.11640533 -0.061834797 0.038952813 -0.0045921076
0002b0 92 52 8e bd 76 ea 30 be 2c 79 63 3d a6 05 33 bd
       -0.06949343 -0.1727694 0.05553548 -0.04370656
0002c0 c4 57 03 be 96 a6 3e 3d 4e ea a2 3d 6a 47 7d 3d
       -0.12826449 0.046545587 0.07954846 0.061835684
0002d0 8c e8 14 bd d0 9e 38 3b 88 5f 4d 3b 90 cc 68 3c
       -0.036354586 0.0028170832 0.0031337459 0.014208928
0002e0 e6 6b c1 bc f1 0a 7e bb 58 19 26 39 2c d4 aa 3b
       -0.02361102 -0.0038763846 0.00015840435 0.005213281
0002f0 39 d5 ab bb a0 44 f4 b8 84 a7 bd 37 6a 2f 4f 38
       -0.005243924 -0.00011647609 2.2608561e-05 4.9396804e-05

momentum_buffer f4 [64]
000000 58 e6 79 bc 1c a9 a2 bc d3 6f bc bd a0 1e a4 bc
       -0.015252672 -0.019856028 -0.09201016 -0.020034134
000010 5d 1a 9c 3d 00 00 00 00 00 00 00 00 00 00 00 00
       0.07622216 0.0 0.0 0.0
000020 28 6e 96 ba dc 76 34 3b ae 99 4e bc 96 aa 5e 3b
       -0.0011476921 0.0027536666 -0.012609882 0.003397619
000030 9e c9 19 bc f8 1f 15 3a 00 00 00 00 1a 51 87 bc
       -0.009386448 0.00056886626 0.0 -0.016518164
000040 47 ad b2 b9 70 37 da bc 18 40 2b 3d 82 99 b2 bb
       -0.00034079907 -0.026637763 0.04180917 -0.0054504285
000050 50 a7 fd 3c 00 00 00 00 70 0b 4c b9 16 19 1c bd
       0.03096357 0.0 -0.00019459217 -0.03810986
000060 63 de a4 bd 98 e7 05 3d 85 da 14 bd d0 76 71 bd
       -0.080502294 0.032691568 -0.03634121 -0.0589512
000070 12 df ae 3c c7 4b aa bc 08 d1 f1 bb 91 46 f6 bb
       0.021346603 -0.020788087 -0.007379655 -0.0075157364
000080 c6 26 91 bd 44 1f 05 bb f0 f6 f7 38 e1 ed 62 bb
       -0.070874736 -0.0020312825 0.000118238735 -0.003462665
000090 38 c9 01 3c 01 f4 3a 3c 00 00 00 00 20 0b ba 3c
       0.007921509 0.011410714 0.0 0.022710383
0000a0 de 9a 17 38 1c a3 cb 3b 34 6f bd 3c f1 97 ae 3c
       3.6145437e-05 0.0062145125 0.023124315 0.021312686
0000b0 7c dc b9 bc d6 df f1 3b 00 00 00 00 7d b7 07 3b
       -0.022688143 0.0073814197 0.0 0.0020708733
0000c0 56 7c 92 bb 00 00 00 00 d4 0a 48 bd 54 14 22 3b
       -0.0044703884 0.0 -0.04883845 0.0024731355
0000d0 d1 ca b1 b8 16 e9 d7 3c 84 35 16 bc 56 3a 43 bc
       -8.477795e-05 0.026356261 -0.009168033 -0.011915764
0000e0 18 61 e0 3c 96 93 3c bd e6 5a aa bc e1 2a f1 3b
       0.027390048 -0.046039186 -0.020795297 0.007359848
0000f0 da 1f 34 3c 2b fb 85 bb b1 72 9b 3a 9a 25 9b 37
       0.010993922 -0.0040887794 0.0011859742 1.849495e-05

momentum_buffer f4 [16, 64]
000000 44 54 a5 3d 60 9a 48 3b c7 97 b7 bc 4e 87 b6 3c
       0.08072713 0.0030609593 -0.02241124 0.022281315
000010 b4 ae 21 bd 00 00 00 00 00 00 00 00 00 00 00 00
       -0.03947325 0.0 0.0 0.0
000020 c0 5f 19 3c f8 18 15 bc 08 5e 0e 3b 0a bf 20 bd
       0.0093612075 -0.009100191 0.0021723527 -0.03924469
000030 ea 6d d7 3c 36 57 72 b8 00 00 00 00 7b a7 c9 3d
       0.026297528 -5.7778518e-05 0.0 0.098463975
000040 e0 2f e4 3a 9f 63 63 3c 86 4b b9 3c f4 8c 03 bd
       0.0017409287 0.013878732 0.02261902 -0.032116845
000050 a6 4b 04 3d 00 00 00 00 9a 81 15 bb e7 27 38 3d
       0.032298706 0.0 -0.0022812844 0.04495993
000060 b4 e7 e9 3b 98 2d 10 be 77 e5 41 3d 5e a8 8a 3c
       0.007138217 -0.14079893 0.047337975 0.016925987
000070 ca f5 1e be 84 c5 99 3d 88 2e 24 3b e2 34 59 3b
       -0.15523449 0.07508376 0.002505215 0.0033143093
000080 e2 91 05 be 17 02 da 3b 5c 4d 10 3e 1c 07 c5 3d
       -0.13043931 0.006653081 0.1409201 0.09620497
000090 05 33 5e 3d 8f 07 87 bd 00 00 00 00 15 af 4e 3c
       0.054247875 -0.065932386 0.0 0.012614985
0000a0 11 89 b1 35 8d d3 2e 3e 50 ab 9c bb 3c e0 3f bd
       1.3227419e-06 0.17072888 -0.004781164 -0.046844706
0000b0 c4 a6 d2 bd e8 46 d4 bc 00 00 00 00 e0 23 8b 3b
       -0.10285714 -0.025912717 0.0 0.00424622
0000c0 58 bf 32 bd 00 00 00 00 a8 09 32 bd db de 40 bb
       -0.04363951 0.0 -0.04346624 -0.0029429707
0000d0 09 ab df bb 1c 15 b7 3d 9d fc 19 3d cb ec bc bc
       -0.006825809 0.08939573 0.037594426 -0.02306213
0000e0 84 19 6c bd 98 72 b8 bb bc 0c 78 3c 76 6d 9c 3d
       -0.05764152 -0.005628895 0.015139755 0.076380655
0000f0 4d a7 bf 3c 78 a2 64 bb bf e0 d4 3b c3 00 9e 38
       0.023395205 -0.0034886878 0.0064965184 7.534169e-05
000100 be d0 26 3c 9c 5a ee 36 2f f8 d6 bb 28 65 cc 34
       0.010181604 7.103501e-06 -0.0065603475 3.8071562e-07
000110 c3 4d 1f 39 00 00 00 00 00 00 00 00 00 00 00 00
       0.0001519239 0.0 0.0 0.0
000120 5e da a4 34 b0 d3 b1 38 d6 07 19 bc c2 5a 23 37
       3.0706263e-07 8.4794476e-05 -0.009340247 9.736688e-06
000130 bd d1 6a 35 e3 98 84 34 00 00 00 00 5e ad 24 3c
       8.7477e-07 2.4698156e-07 0.0 0.0100511
000140 25 3e 0d bc a2 0f 7a bc 3e 84 18 39 ea a2 f6 bb
       -0.008620773 -0.015262516 0.00014545114 -0.007526745
000150 0f 2b 76 39 00 00 00 00 cc 39 e0 2e 12 0f 27 bc
       0.00023476429 0.0 1.01966074e-10 -0.010196464
000160 8b 9d 99 bc 13 f7 56 3c 7e be 44 3c 8b 3d b7 bc
       -0.01875188 0.0131204305 0.0120083075 -0.022368213
000170 24 81 b1 3b ee 2b 2d 3c b4 f6 b0 32 7e 6c 9c bb
       0.005417006 0.010569556 2.0601284e-08 -0.0047736755
000180 d6 13 f9 3a 5e fa 44 bc ac be 4c 3c 39 27 e5 ba
       0.0019003104 -0.012022583 0.012496632 -0.0017483003
000190 6f e3 b6 3a 12 38 e1 34 00 00 00 00 34 1a ea 3a
       0.0013953279 4.1950312e-07 0.0 0.0017860592
0001a0 51 09 41 b6 37 f9 57 3c 89 02 31 39 ae 03 ab 3c
       -2.8764664e-06 0.013181976 0.0001688098 0.020875778
0001b0 f3 e8 45 36 a4 56 b5 3b 00 00 00 00 6e e3 b6 bb
       2.9490882e-06 0.00553401 0.0 -0.005581311
0001c0 04 09 c4 36 00 00 00 00 b4 0f 00 bc 9e ef b5 bb
       5.8423047e-06 0.0 -0.007816244 -0.0055522462
0001d0 fb 0c 0c b8 53 2b 9d 3c fe 36 32 3b b4 e8 97 bb
       -3.339069e-05 0.019185698 0.0027193422 -0.0046358947
0001e0 d0 a3 2e 3a ce 73 68 bc 50 be bb 3a 32 6a 67 3a
       0.0006661983 -0.014187766 0.0014323685 0.0008827775
0001f0 0f 1a c6 3b b7 e5 a0 32 9d bf f5 bb d3 a3 17 38
       0.006045587 1.8730914e-08 -0.0074996487 3.615378e-05
000200 1e 2c 6d 3d 4e ef 5e 3b 9e 73 9b 3b b1 56 34 3c
       0.0579034 0.0034017148 0.0047440073 0.011006997
000210 00 d1 55 3d 00 00 00 00 00 00 00 00 00 00 00 00
       0.05220127 0.0 0.0 0.0
000220 ce 1e ee 3c a8 2e 92 3b fb a6 13 3c ce 7b 4b 3c
       0.029067423 0.0044611283 0.009011979 0.012419654
000230 fb 77 8c 3b 17 1e a7 35 00 00 00 00 84 99 b5 3d
       0.0042867637 1.2451227e-06 0.0 0.088671714
000240 09 4c 93 39 ac 56 26 3c 74 b1 0c 3d b7 cb f3 3c
       0.00028094676 0.0101525 0.03434892 0.029760225
000250 15 0f 3a 3d 00 00 00 00 13 af 2a 38 3d 61 39 3d
       0.04542454 0.0 4.069421e-05 0.04525875
000260 e7 44 53 3d 53 97 0d 3d a5 cb 23 3d 07 32 1d 3d
       0.051579382 0.034568142 0.039989132 0.038377788
000270 70 f8 d7 3c ea 20 9c 3d 0d 8d 3a 3b 14 b2 ad 38
       0.026363581 0.07623465 0.002846542 8.2824525e-05
000280 25 70 77 3c f7 9e fe 38 6a 63 b9 3d c8 94 69 3d
       0.015102421 0.00012141273 0.09052165 0.057026654
000290 35 58 ff 3c ac 07 8d 3c 00 00 00 00 29 92 0e 3d
       0.03116999 0.017215572 0.0 0.034807358
0002a0 da 77 db 27 5b aa af 3d 0e d3 ee 3c 9a d6 93 3d
       6.0914654e-15 0.085774146 0.029153373 0.072186664
0002b0 7f d5 a8 3c 17 53 48 3d 00 00 00 00 b0 1f 4b 36
       0.020609615 0.048907366 0.0 3.0267802e-06
0002c0 4b ee 37 3c 00 00 00 00 da b2 80 3a 95 be 52 36
       0.011226247 0.0 0.0009818927 3.1403372e-06
0002d0 d8 65 13 34 a2 35 a2 3d 17 fa b4 3c de 6b c4 3c
       1.3727492e-07 0.07920386 0.022091908 0.023977216
0002e0 ca c1 55 3d 3c 14 44 3d a2 77 1c 3c a6 d2 4a 3d
       0.052186765 0.04787086 0.009550007 0.049517296
0002f0 3f b5 18 3d 2c 89 3d 3b 46 ba 0a 38 17 bb e7 33
       0.037282225 0.0028920872 3.3075245e-05 1.0790807e-07
000300 64 f7 19 3a 51 c9 2a 35 52 16 34 3c cb a4 da 38
       0.0005873351 6.362289e-07 0.01099165 0.00010425745
000310 6e f9 b2 3c 00 00 00 00 00 00 00 00 00 00 00 00
       0.021847453 0.0 0.0 0.0
000320 26 e5 25 3a 8e 66 da 39 9a dd 0e 3d f7 68 36 bb
       0.0006328396 0.0004165661 0.034879304 -0.002783356
000330 9e 30 b1 37 1d f8 b7 3a 00 00 00 00 18 49 27 3d
       2.1122683e-05 0.0014035736 0.0 0.040841192
000340 76 48 1f 3c 6d 6f 4a 3d ad ca 52 bb e2 4c 52 3d
       0.009721866 0.04942267 -0.0032164261 0.051342852
000350 be 79 14 bb 00 00 00 00 a9 77 06 37 ab 7b 40 3d
       -0.0022655572 0.0 8.014883e-06 0.04699294
000360 26 b9 6f 3d e8 15 b8 3d bc 27 b6 3b e4 69 7b 3d
       0.05852618 0.08988553 0.005558936 0.061380282
000370 16 4e b8 3d c1 1b 2b 3d 01 f6 0c 3a d9 1d 13 37
       0.08999269 0.041774515 0.00053772336 8.768832e-06
000380 23 fb c4 3d 70 09 12 3b 18 eb 3c 3c ec de 36 3c
       0.09618213 0.0022283457 0.01153066 0.011161547
000390 13 45 7e 3b 37 f0 bf bb 00 00 00 00 e3 92 3b 38
       0.0038798496 -0.0058574933 0.0 4.4721073e-05
0003a0 b7 91 38 23 55 e5 cc 3a 84 f8 9e 3b 80 2a a1 3d
       1.0005516e-17 0.0015632311 0.0048514027 0.07869434
0003b0 f2 8c c3 bb 8f a2 45 3d 00 00 00 00 c7 aa d7 33
       -0.0059677297 0.04825073 0.0 1.0042782e-07
0003c0 68 41 54 3c 00 00 00 00 94 df e9 35 0c 67 a7 33
       0.012955047 0.0 1.7424923e-06 7.7952876e-08
0003d0 6e da 2c 2c 4a 64 30 3a 0d bb c3 39 e4 b9 1b 3d
       2.4563923e-12 0.00067288114 0.00037332662 0.038019076
0003e0 bc f5 4f 3d 1c 17 f1 3c 7e 18 57 3d 26 83 df 39
       0.05077146 0.029429965 0.052513592 0.00042631588
0003f0 d2 b8 e8 37 1c 48 7d 3a 50 07 74 36 ef 36 39 37
       2.7742619e-05 0.0009661929 3.636309e-06 1.10396495e-05

momentum_buffer f4 [16]
000000 24 c6 84 bb 0d 02 52 3c 01 e5 74 3c 47 b1 86 3c
       -0.0040519405 0.012817872 0.014947177 0.016441954
000010 19 15 0d bd ca da a2 bd 4d ef e0 3d d5 f9 da 3c
       -0.03444395 -0.07951887 0.10983143 0.026730457
000020 55 31 19 bd 1a b3 f1 bc d7 6e 20 3d 03 bd f7 3c
       -0.037400562 -0.029504348 0.039168205 0.030241495
000030 76 c7 81 bd 0a d4 5c 3d 86 e6 8b 3c a2 42 95 bd
       -0.06336872 0.053913154 0.017077696 -0.072881
