notebooks/checkpoints/checkpoint-2.ckpt (torch, 13583 bytes, 8 tensors)

linear_relu_stack.0.weight f4 [64, 3]
0.7191544 0.16966109 -0.32156196 0.4708121 0.22397934 -0.73853 0.5152379 -0.52629244
0.24827679 -0.09963405 0.35180974 -0.77724415 -0.77740616 0.811162 -0.18028036 0.23614109
-0.55212665 -0.4392882 -0.17869747 -0.50231236 -0.44290078 -0.54805577 -0.38445196 -0.3509915
-0.24754913 0.46849927 -0.5822288 -0.18312639 0.13897274 -0.17657079 0.169488 -0.48661783
0.43735132 -0.3994315 0.115129136 -0.21895838 0.0109289205 0.20224397 -0.6310176 -0.47328597
-0.3965374 -0.02120758 -0.5550635 -0.5208914 -0.47273204 0.38906825 0.34248385 0.28138778
0.12857847 -0.19817536 0.19409537 -0.307453 -0.6986091 0.6892899 -0.16007826 0.512624
-0.20115396 -0.3829975 -0.29824558 0.5438243 -0.16858886 0.68401396 -0.39073706 0.02431345
-0.5037082 -0.5298549 -0.40839487 -0.10392124 -0.33106142 0.82085323 -0.28257126 0.590722
0.7275722 -0.7558995 0.91305304 -0.76255333 0.12928075 0.6566911 0.17610574 0.21531284
-0.11225808 0.4396815 -0.7029134 1.037716 -0.91575396 0.13718013 0.8045068 0.29135543
0.26038015 0.24415268 -0.37857395 0.17943083 -0.60872424 0.24227509 -0.32377952 -0.011807378
-0.7566936 -0.18726239 0.8738259 0.14890721 -0.5325677 0.27885383 0.41684568 0.7064563
-0.10742771 0.47854048 0.24518558 0.17879973 0.10288283 0.34467515 -0.13027129 -0.62876034
0.50038075 -0.49576166 0.21830815 -0.50983965 -0.52355355 0.7257151 0.068988115 -0.405578
0.2899496 -0.5535078 -0.27611488 0.6145088 0.71112037 -0.5076667 -0.38161182 0.63753724
-0.62600714 -0.5352547 0.36665678 0.3913697 -1.0261077 0.79585737 -0.48504496 -0.3690119
0.3753139 0.34333506 0.044840097 -0.08539823 -0.182349 0.24042012 -0.28917786 -0.09581011
-0.4749079 0.058992185 0.13710122 -0.2862369 -0.35139713 -0.43248314 0.9736464 -0.16815257
-0.5049798 0.3916878 -0.34939897 -0.21604514 0.40362576 -0.30657727 -0.4013304 0.15191945
0.69838977 -0.19592223 0.046865538 0.26187116 -0.33823952 -0.118843675 0.12938684 0.47372875
-0.73555374 0.5716164 0.35277984 0.8264713 -0.5152002 0.55132216 -0.6257839 -0.88243645
0.6069986 0.16234815 0.60754645 -0.68991697 0.6944816 0.20362803 -0.5516256 -0.4095775
0.15630141 -0.5520701 0.27814743 -0.344247 0.015607424 -0.102654405 -0.43238065 0.04274083
00000000: 811a 383f a3bb 2d3e c5a3 a4be 490e f13e
00000010: d75a 653e 4d10 3dbf a2e6 033f 1abb 06bf
00000020: 453c 7e3e f00c ccbd 6820 b43e 79f9 46bf
00000030: 1704 47bf 50a8 4f3f 6a9b 38be f8ce 713e
00000040: 2c58 0dbf 62ea e0be 78fc 36be 8b97 00bf
00000050: e4c3 e2be 624d 0cbf e3d6 c4be 28b5 b3be
00000060: 857d 7dbe 23df ef3e f20c 15bf 7c85 3bbe
00000070: df4e 0e3e f9ce 34be 438e 2d3e f925 f9be
00000080: 83ec df3e 4982 ccbe d3c8 eb3d a036 60be
00000090: 370f 333c 0b19 4f3e 5f8a 21bf 8a52 f2be
000000a0: f306 cbbe 85bb adbc a418 0ebf 2459 05bf
000000b0: ef09 f2be f433 c73e 0b5a af3e 0f12 903e
000000c0: 13aa 033e 7bee 4abe f0c0 463e 7b6a 9dbe
000000d0: 0cd8 32bf 4e75 303f 8eeb 23be 543b 033f
000000e0: 4efb 4dbe 4018 c4be a5b3 98be 1238 0b3f
000000f0: 8fa2 2cbe 8a1b 2f3f b00e c8be 002d c73c
00000100: 05f3 00bf 92a4 07bf 2219 d1be a9d4 d4bd
00000110: e280 a9be 7023 523f 2ead 90be 8f39 173f
00000120: 2c42 3a3f a182 41bf d8bd 693f b236 43bf
00000130: 2c62 043e e81c 283f 1055 343e f87a 5c3e
00000140: 90e7 e5bd ef1d e13e 22f2 33bf e1d3 843f
00000150: da6e 6abf f378 0c3e 28f4 4d3f 8a2c 953e
00000160: 8c50 853e 2903 7a3e 72d4 c1be b7bc 373e
00000170: 5ad5 1bbf f616 783e 6ec6 a5be bc73 41bc
00000180: acb6 41bf b6c1 3fbe 0eb3 5f3f 227b 183e
00000190: 5b56 08bf eec5 8e3e cc6c d53e 52da 343f
000001a0: 0f03 dcbd 4203 f53e ee11 7b3e 4717 373e
000001b0: 3cb4 d23d 4379 b03e d665 05be 70f6 20bf
000001c0: f418 003f 79d4 fdbe 2c8c 5f3e da84 02bf
000001d0: 9b07 06bf 77c8 393f a449 8d3d eba7 cfbe
000001e0: 4674 943e b0b2 0dbf ee5e 8dbe 7350 1d3f
000001f0: fc0b 363f 72f6 01bf a062 c3be a435 233f
00000200: 0142 20bf 7406 09bf 70ba bb3e 9c61 c83e
00000210: 7f57 83bf 4fbd 4b3f d057 f8be 21ef bcbe
00000220: 2529 c03e 9dc9 af3e 40aa 373d 44e5 aebd
00000230: b2b9 3abe b130 763e 1f0f 94be 1738 c4bd
00000240: 2127 f3be caa1 713d 4364 0c3e a58d 92be
00000250: 53ea b3be 6e6e ddbe e440 793f 3030 2cbe
00000260: 5b46 01bf 4e8b c83e 6ce4 b2be f03a 5dbe
00000270: 09a8 ce3e b2f7 9cbe 2e7b cdbe c690 1b3e
00000280: acc9 323f d69f 48be 14f6 3f3d fa13 863e
00000290: bb2d adbe 5064 f3bd fc7d 043e 938c f23e
000002a0: 404d 3cbf 7455 123f 8f9f b43e a093 533f
000002b0: 29e4 03bf 7323 0d3f 6033 20bf 5be7 61bf
000002c0: 4364 1b3f 983e 263e 2a88 1b3f 669e 30bf
000002d0: 8cc9 313f de83 503e 5637 0dbf 24b4 d1be
000002e0: 7a0d 203e 7754 0dbf 5769 8e3e 2541 b0be
000002f0: 48b6 7f3c 793c d2bd ff60 ddbe 0211 2f3d

linear_relu_stack.0.bias f4 [64]
0.5624965 -0.5063034 0.8855757 0.028731301 -0.20211525 -0.41861212 0.3522262 0.0633626
-0.34740525 0.4996952 0.49945128 0.5197073 0.24163733 -0.11897749 -0.052146554 0.22677329
-0.20055903 -0.16304183 -0.4381369 0.008163389 -0.21481438 -0.22257847 -0.16583169 0.26261842
0.4618901 0.82706136 0.5998926 -0.18207566 -0.13093561 0.46962202 0.3393981 0.33217713
0.63141334 0.24457991 -0.50206506 -0.5660279 -0.3771965 0.059421223 0.57104385 -0.11648001
-0.5005859 -0.654517 0.662555 0.81437254 -0.25895953 -0.4472176 -0.13377616 0.019430652
-0.5424925 -0.4590368 -0.37626535 -0.090702936 -0.3841338 -0.041496728 0.44891095 -0.7506828
-0.77359337 0.361215 0.0399926 0.25255495 -0.22185914 0.42306265 0.18260616 -0.06624083
00000000: c5ff 0f3f 1a9d 01bf 17b5 623f e85d eb3c
00000010: 4df7 4ebe 5454 d6be fe56 b43e 40c4 813d
00000020: 1adf b1be 0dd8 ff3e 14b8 ff3e 8a0b 053f
00000030: c76f 773e 78aa f3bd a097 55bd 4237 683e
00000040: 595f 4dbe 70f4 26be 7b53 e0be bcbf 053c
00000050: 4df8 5bbe 9ceb 63be c8cf 29be ec75 863e
00000060: dc7c ec3e 4bba 533f 9092 193f 0b72 3abe
00000070: fc13 06be 4c72 f03e 96c5 ad3e 1f13 aa3e
00000080: 4ea4 213f 2873 7a3e 5687 00bf 34e7 10bf
00000090: e61f c1be ab63 733d ee2f 123f 128d eebd
000000a0: 6626 00bf 6d8e 27bf 349d 293f b87a 503f
000000b0: 5896 84be b5f9 e4be 9efc 08be 082d 9f3c
000000c0: cae0 0abf df06 ebbe daa5 c0be 76c2 b9bd
000000d0: 2fad c4be 79f8 29bd a8d7 e53e bf2c 40bf
000000e0: 370a 46bf 2cf1 b83e 48cf 233d e24e 813e
000000f0: 0b2f 63be ab9b d83e 1cfd 3a3e 46a9 87bd

linear_relu_stack.2.weight f4 [16, 64]
0.18021576 0.13367812 0.412852 -0.12400208 0.21861035 0.07364452 -0.11063476 -0.06291404
0.10861172 0.10242265 0.22158818 0.20047833 -0.08328203 -0.0013368406 -0.081811786 -0.08771751
-0.01114887 0.019143881 -0.0016410407 0.12882647 0.1621814 0.0044386983 -0.0076592183 0.21954182
0.3101011 0.24587286 -0.041615237 0.011400564 0.16226031 -0.029933527 -0.036087785 -0.052378256
0.23914298 0.21115164 0.004733726 -0.23422602 0.037394155 0.3135489 0.10292378 0.15841538
0.068241246 0.08287244 0.19112842 0.09241423 0.48847258 -0.06106245 0.079663545 -0.07411057
0.20977168 0.122731194 0.32086086 -0.06519025 -0.033270616 -0.11166667 0.14250529 -0.08503514
-0.1317412 0.45807114 0.22422779 0.16983356 0.095155545 0.056568034 0.07433852 -0.113490574
-0.003458783 0.082639575 0.18367389 -0.027085273 0.05641478 -0.03777857 -0.028196022 -0.010992572
0.015916131 -0.0347754 0.19470966 0.10091359 0.11478596 -0.09277772 -0.0026474297 -0.17387636
0.17473903 0.14815232 -0.030896192 0.013792583 -0.056514595 0.069738194 0.045239046 0.20081912
0.5309409 -0.36767435 -0.20012683 0.45675892 -0.08488336 -0.14500716 0.101812646 0.17105132
-0.14579113 0.36250755 -0.1797877 0.08778778 -0.14760883 0.01519757 -0.017520651 0.05559157
-0.09496678 -0.35136485 -0.07353868 -0.44821018 0.067506894 -0.11943744 -0.12204063 0.07340755
-0.01720982 -0.019048288 0.26130533 0.0975336 -0.0576657 -0.509361 0.027919916 -0.028211745
0.05532881 0.42159846 -0.119615555 -0.026962584 -0.18194231 0.089399785 0.20186551 -0.12624025
-0.029259317 0.24520618 0.035251975 0.04425351 0.18260874 0.08665417 -0.013181075 0.10241686
-0.16015962 0.07983846 -0.19826373 -0.032573167 0.09284452 -0.02277952 0.013146669 0.085143715
0.10433328 -0.17357846 0.048742574 -0.2895938 0.12701762 -0.058990315 0.014780189 0.049601834
-0.50647867 0.14048642 -0.008445565 -0.43952346 0.29736686 0.114712626 0.06359264 -0.03467198
0.33324283 0.0490602 -0.006391921 0.034265384 0.066885956 -0.025290826 -0.09893978 -0.060210783
-0.010455733 -0.010990229 -0.001536537 0.19913813 0.18865639 -0.03561704 0.11169638 -0.11295267
-0.17451215 0.043338552 0.21504225 0.08612845 0.11490137 -0.030848738 0.044288043 0.06140394
0.094718345 -0.24307428 -0.18398273 -0.19059655 -0.01583917 -0.014041108 0.062939204 -0.107050054
-0.11421188 0.075708404 -0.17968413 0.017642632 0.12712948 -0.12284587 0.0012273043 0.014393285
-0.055043448 0.03396448 -0.06804212 -0.035656057 -0.014017728 0.03068734 -0.08005786 -0.18166512
-0.061934046 0.21069142 -0.006122384 0.26500067 -0.12194071 0.06592952 0.093617134 -0.23319665
-0.26597 0.3235546 -0.13761929 -0.0359913 0.35550267 -0.24013512 0.009491042 -0.042118743
0.339836 -0.1676816 -0.50592786 -0.2178995 -0.049358763 -0.12591657 -0.0025283694 -0.09496382
0.032954037 -0.17751622 -0.2539028 0.18957989 0.03658286 0.0299598 0.11527492 0.07894393
0.043840576 0.0071789324 -0.11983875 0.09273798 0.058642637 -0.1669977 -0.09588891 0.11072131
0.2706864 -0.4196318 0.36077583 -0.10045958 -0.092988014 0.08230004 0.018368836 -0.12810506
00000000: 7b8a 383e ebe2 083e 5661 d33e cdf4 fdbd
00000010: 64db 5f3e f0d2 963d 7a94 e2bd 14d9 80bd
00000020: d26f de3d f7c2 d13d 03e8 623e 314a 4d3e
00000030: c58f aabd ed38 afba f08c a7bd 3da5 b3bd
00000040: c0a9 36bc a1d3 9c3c 3018 d7ba 16eb 033e
00000050: e212 263e 8072 913b 2efa fabb 92cf 603e
00000060: 92c5 9e3e 18c6 7b3e bd74 2abd 6ec9 3a3c
00000070: 9127 263e 2837 f5bc c9d0 13bd 958a 56bd
00000080: e6e1 743e 2338 583e 5f1d 9b3b f2d8 6fbe
00000090: 9d2a 193d 7b89 a03e b4c9 d23d a437 223e
000000a0: 11c2 8b3d 07b9 a93d 2bb7 433e ac43 bd3d
000000b0: 1419 fa3e 9f1c 7abd a426 a33d 48c7 97bd
000000c0: 63ce 563e 7e5a fb3d e047 a43e 7782 85bd
000000d0: c546 08bd 7fb1 e4bd e8ec 113e e726 aebd
000000e0: 2ae7 06be 4d88 ea3e f89b 653e d9e8 2d3e
000000f0: e9e0 c23d e2b3 673d cb3e 983d bf6d e8bd
00000100: c0ac 62bb f03e a93d 0215 3c3e efe1 ddbc
00000110: 2f13 673d b4bd 1abd 58fb e6bc 301a 34bc
00000120: 8c62 823c a670 0ebd f861 473e c9ab ce3d
00000130: e714 eb3d 3f02 bebd 8080 2dbb a50c 32be
00000140: caee 323e 3eb5 173e 031a fdbc 49fa 613c
00000150: d97b 67bd e6d2 8e3d 944c 393d 87a3 4d3e
00000160: beeb 073f d03f bcbe 0cee 4cbe 4edc e93e
00000170: 54d7 adbd c27c 14be 2683 d03d 1428 2f3e
00000180: 454a 15be 979a b93e 441a 38be 14ca b33d
00000190: c526 17be 3bff 783c 7887 8fbc fcb3 633d
000001a0: f17d c2bd 18e6 b3be 739b 96bd ce7b e5be
000001b0: 0e41 8a3d 9e9b f4bd 70f0 f9bd b356 963d
000001c0: 9cfb 8cbc 280b 9cbc d0c9 853e b2bf c73d
000001d0: de32 6cbd 7c65 02bf 4fb8 e43c 511c e7bc
000001e0: 76a0 623d c1db d73e 00f9 f4bd a3e0 dcbc
000001f0: 164f 3abe 3c17 b73d d5b5 4e3e 2045 01be
00000200: 3cb1 efbc 5417 7b3e 6064 103d 2b43 353d
00000210: c9fd 3a3e be77 b13d 70f5 57bc eebf d13d
00000220: e200 24be 5982 a33d a605 4bbe 716b 05bd
00000230: 4525 be3d 1e9c babc 2065 573c d45f ae3d
00000240: b0ac d53d 8dbe 31be 4ba6 473d a345 94be
00000250: e810 023e d49f 71bd 9b28 723c 4b2b 4b3d
00000260: 96a8 01bf acdb 0f3e 445f 0abc 3809 e1be
00000270: 7840 983e 74ee ea3d dc3c 823d 3504 0ebd
00000280: ce9e aa3e 59f3 483d 5273 d1bb dc59 0c3d
00000290: 81fb 883d b52e cfbc f0a0 cabd 959f 76bd
000002a0: 864e 2bbc 5d10 34bc a065 c9ba deea 4b3e
000002b0: 242f 413e 2ce3 11bd 12c1 e43d bb53 e7bd
000002c0: 50b3 32be c483 313d 0934 5c3e 1d64 b03d
000002d0: 6951 eb3d 7eb6 fcbc 6167 353d b382 7b3d
000002e0: b1fb c13d 77e8 78be f865 3cbe be2b 43be
000002f0: 26c1 81bc ad0c 66bc 45e6 803d 0f3d dbbd
00000300: ebe7 e9bd 020d 9b3d 1eff 37be 4887 903c
00000310: 3b2e 023e 9e96 fbbd 80dd a03a d0d1 6b3c
00000320: 3d75 61bd 571e 0b3d ab59 8bbd 160c 12bd
00000330: 9daa 65bc 0464 fb3c 60f5 a3bd 6c06 3abe
00000340: 8eae 7dbd 7ebf 573e 489e c8bb 2bae 873e
00000350: 0dbc f9bd 0e06 873d 57ba bf3d 1acb 6ebe
00000360: 382d 88be f3a8 a53e 12ec 0cbe 9d6b 13bd
00000370: 7204 b63e fbe5 75be 5180 1b3c b484 2cbd
00000380: fcfe ad3e bab4 2bbe 7d84 01bf 0c21 5fbe
00000390: 6a2c 4abd 46f0 00be 00b3 25bb 647c c2bd
000003a0: d0fa 063d d0c6 35be 8cff 81be 3b21 423e
000003b0: e9d7 153d 416e f53c 4215 ec3d 5bad a13d
000003c0: 2d92 333d 403d eb3b 056e f5bd 69ed bd3d
000003d0: 4333 703d 7201 2bbe 6861 c4bd dbc1 e23d
000003e0: 6897 8a3e fbd9 d6be 9cb7 b83e c1bd cdbd
000003f0: 8070 bebd ec8c a83d 3e7a 963c f92d 03be

linear_relu_stack.2.bias f4 [16]
0.18376124 -0.11047413 0.04719969 -0.13715197 -0.07160497 -0.2482732 0.003811077 0.1656282
-0.31920698 -0.6253257 0.20034362 -0.15214415 -0.08115828 -0.17037353 -0.05184283 0.90479344
00000000: e82b 3c3e 4340 e2bd 7654 413d 9171 0cbe
00000010: a0a5 92bd 543b 7ebe 43c3 793b 709a 293e
00000020: 196f a3be 5815 20bf e126 4d3e adcb 1bbe
00000030: 5036 a6bd 6676 2ebe 2659 54bd 8ba0 673f

momentum_buffer f4 [64, 3]
0.0329054 0.23484528 0.07906602 -0.21427593 -0.29387182 -0.11920816 -0.1926033 -0.25224945
-0.15881476 -0.07891393 -0.09404525 0.024227496 0.079537936 0.33118725 0.30115077 0.0
0.0 0.0 0.0 0.0 0.0 0.0 0.0 0.0
-0.08311008 -0.19030982 -0.038232308 0.03993398 0.16041586 0.14064582 0.03732656 0.031404115
-0.020864472 0.014691726 0.018279184 0.00628649 -0.059078995 -0.08036914 0.0018372089 -0.0015602366
0.0014077974 0.003797651 0.0 0.0 0.0 -0.048407275 -0.11393987 -0.009700216
0.015511869 -0.02217883 -0.05480405 0.028453764 -0.08969714 -0.20682949 -0.042593967 0.02097471
0.1306912 0.06492469 -0.07883135 -0.07564392 0.03122047 0.1825029 0.19602798 0.0
0.0 0.0 0.00086547656 -0.0010679313 -0.00046335187 -0.0126944035 -0.10992332 -0.13079867
-0.26825577 -0.5481232 -0.38106567 0.33552673 0.6370648 0.327291 0.0060904026 0.09112559
0.052388567 -0.060163368 -0.3713323 -0.3780825 0.08543447 0.12759031 0.06473839 0.06909433
0.11137481 0.061661884 0.0015005674 -0.063983455 0.0021018938 -0.016395696 -0.006585668 -0.028708195
0.027516503 -0.1925247 -0.13448906 -0.0010619194 -0.029175732 -0.07202728 -0.05547081 -0.22307494
-0.113630146 -0.100099415 -0.28318202 -0.15294331 -0.024213538 -0.10601277 -0.09154859 -0.0150719015
0.04223282 0.043075293 0.0 0.0 0.0 0.03479618 0.26359808 0.14356697
0.0001823462 -1.4389201e-08 0.00015004062 -0.097865894 -0.2679276 -0.13940665 0.22068816 0.44589776
0.22025308 0.15304355 0.46340927 0.30426776 -0.2201966 -0.5782587 -0.3359682 -0.09330396
-0.21378677 -0.12363596 0.0 0.0 0.0 -0.004378386 0.0005788568 -0.005516418
0.0174292 -0.039090708 -0.026061457 0.0 0.0 0.0 -0.34677744 -0.52933544
-0.1942614 0.0064152903 0.010647339 -0.005107348 -0.0016944887 -0.0017793747 0.00023758173 0.01507023
0.1019263 0.13277291 0.0759566 0.15914181 0.07931939 -0.14191332 -0.4006227 -0.26566464
-0.19683734 -0.21322495 -0.03969771 0.00023698341 -0.062271915 -0.15304872 0.059935324 -0.04661911
-0.11516997 0.10199967 0.1967138 0.13292566 -0.009382781 0.06867424 0.02700935 0.011129779
-0.03639175 -0.00050058356 0.002223748 0.004738912 -0.008626873 -0.000113797134 2.1225987e-05 -5.8177666e-05
00000000: d0c7 063d 487b 703e 5eed a13d 266b 5bbe
00000010: 5e76 96be 6823 f4bd cd39 45be d726 81be
00000020: 56a0 22be a09d a1bd cc9a c0bd be78 c63c
00000030: c9e4 a23d 6091 a93e 6f30 9a3e 0000 0000
00000040: 0000 0000 0000 0000 0000 0000 0000 0000
00000050: 0000 0000 0000 0000 0000 0000 0000 0000
00000060: 9e35 aabd 94e0 42be 7b99 1cbd d091 233d
00000070: 0e44 243e 7505 103e bce3 183d 9aa1 003d
00000080: f8eb aabc 91b5 703c 3abe 953c e6fe cd3b
00000090: d1fc 71bd 9398 a4bd 80ce f03a da80 ccba
000000a0: d885 b83a 03e2 783b 0000 0000 0000 0000
000000b0: 0000 0000 b546 46bd 4e59 e9bd a8ed 1ebc
000000c0: 7f25 7e3c 61b0 b5bc 367a 60bd de17 e93c
000000d0: 22b3 b7bd 1ccb 53be 0377 2ebd 28d3 ab3c
000000e0: ead3 053e 3cf7 843d 5572 a1bd 33eb 9abd
000000f0: 12c2 ff3c 0ae2 3a3e 8fbb 483e 0000 0000
00000100: 0000 0000 0000 0000 26e1 623a d4f9 8bba
00000110: 09ee f2b9 30fc 4fbc 7a1f e1bd 16f0 05be
00000120: d258 89be cd51 0cbf 0a1b c3be 29ca ab3e
00000130: ae16 233f b092 a73e 0092 c73b 0ea0 ba3d
00000140: 6595 563d dd6d 76bd 441f bebe 0894 c1be
00000150: 44f8 ae3d 09a7 023e 9095 843d 5481 8d3d
00000160: 7a18 e43d 2c91 7c3d b0ae c43a c209 83bd
00000170: edbf 093b 4450 86bc 96cc d7bb 732d ebbc
00000180: 4a6a e13c 3225 45be 80b7 09be 1a30 8bba
00000190: f201 efbc 0a83 93bd 5c35 63bd c26d 64be
000001a0: ecb6 e8bd ec00 cdbd 3cfd 90be 2c9d 1cbe
000001b0: 785b c6bc 391d d9bd d47d bbbd 23f0 76bc
000001c0: 52fc 2c3d b86f 303d 0000 0000 0000 0000
000001d0: 0000 0000 7086 0e3d 54f6 863e 3803 133e
000001e0: 2f34 3f39 6034 77b2 3954 1d39 ea6d c8bd
000001f0: ce2d 89be 9ec0 0ebe 14fc 613e b64c e43e
00000200: 068a 613e 73b7 1c3e fb43 ed3e fcc8 9b3e
00000210: 387b 61be c308 14bf 0604 acbe 2616 bfbd
00000220: ebea 5abe da34 fdbd 0000 0000 0000 0000
00000230: 0000 0000 9078 8fbb 6cbe 173a 11c3 b4bb
00000240: aec7 8e3c 941d 20bd d67e d5bc 0000 0000
00000250: 0000 0000 0000 0000 d08c b1be 8782 07bf
00000260: 76ec 46be 5b37 d23b 2d72 2e3c 8a5b a7bb
00000270: 9b19 deba e839 e9ba 5c1f 7939 20e9 763c
00000280: bcbe d03d 9ff5 073e 228f 9b3d 12f6 223e
00000290: 3472 a23d ba51 11be 6b1e cdbe 3205 88be
000002a0: ba8f 49be a457 5abe 119a 22bd c07e 7839
000002b0: d610 7fbd ceb8 1cbe be7e 753d aef3 3ebd
000002c0: 3cde ebbd 34e5 d03d 586f 493e aa1d 083e
000002d0: 3cba 19bc 14a5 8c3d b642 dd3c ad59 363c
000002e0: 840f 15bd 9839 03ba 4dbc 113b e048 9b3b
000002f0: ba57 0dbc 5fa6 eeb8 760e b237 cb03 74b8

momentum_buffer f4 [64]
-0.00067581655 -0.026132222 -0.078039214 -0.010107556 0.06856305 0.0 0.0 0.0
-0.0155384885 0.019094214 -0.0077367574 0.0051497314 -0.00891662 0.0005857746 0.0 -0.012299599
-0.004760515 -0.034371696 0.033630174 -0.01775014 0.04533649 0.0 -0.00019378963 -0.031993076
-0.099391736 0.055509355 -0.017192727 -0.058338534 0.025620315 -0.0061075883 -0.008941753 -0.007978138
-0.04148179 -0.01402876 -0.005066554 -0.015980639 0.000385392 0.013689218 0.0 0.035147287
2.26254e-05 -0.008474392 0.036676213 0.03812155 -0.07681692 -0.0074215457 0.0 -2.3183966e-06
-0.0062146555 0.0 -0.05357096 0.0018743782 -0.00026993462 0.022811936 0.0044502695 -0.028090088
0.00037800334 -0.04133512 -0.018874438 0.02071772 0.018453458 -0.005753508 -0.0003911272 -2.6468258e-06
00000000: 4829 31ba 3e13 d6bc 06d3 9fbd 2a9a 25bc
00000010: c96a 8c3d 0000 0000 0000 0000 0000 0000
00000020: 2595 7ebc 786b 9c3c a084 fdbb 14bf a83b
00000030: 0417 12bc ab8e 193a 0000 0000 4284 49bc
00000040: 18fe 9bbb 56c9 0cbd cbbf 093d be68 91bc
00000050: c1b2 393d 0000 0000 0234 4bb9 2c0b 03bd
00000060: e58d cbbd c75d 633d c3d7 8cbc 63f4 6ebd
00000070: b2e1 d13c 2a22 c8bb 6e80 12bc bcb6 02bc
00000080: cfe8 29bd e2d8 65bc 5605 a6bb d4e9 82bc
00000090: 700e ca39 be48 603c 0000 0000 9af6 0f3d
000000a0: adcb bd37 2dd8 0abc cc39 163d 5825 1c3d
000000b0: 3052 9dbd 7030 f3bb 0000 0000 c095 1bb6
000000c0: 4fa4 cbbb 0000 0000 396d 5bbd b2ad f53a
000000d0: 0386 8db9 19e0 ba3c 91d3 913b 2f1d e6bc
000000e0: c02e c639 044f 29bd 919e 9abc 35b8 a93c
000000f0: b52b 973c ec87 bcbb 3410 cdb9 1fa0 31b6

momentum_buffer f4 [16, 64]
0.10645248 0.0061817244 0.0020233225 0.035291295 0.0004480034 0.0 0.0 0.0
0.014039651 -0.0027495138 0.015567561 -0.032615937 0.033580184 -3.910253e-05 0.0 0.13044025
0.006636239 0.032077804 0.038877018 -0.016534861 0.060878787 0.0 -0.002018989 0.08140718
0.059544742 -0.10871153 0.061824523 0.053759307 -0.1377011 0.10466844 0.009751076 0.011576457
-0.10949733 0.0142105045 0.15985806 0.108846426 0.06409802 -0.04141812 0.0 0.03183015
5.503008e-07 0.18969256 0.02005659 -0.01818239 -0.07762486 -0.0049736574 0.0 0.0061492124
-0.05292464 0.0 -0.030955223 0.00043642195 -0.008631248 0.11459994 0.04534771 0.00084677525
-0.04198838 0.032989677 0.0368659 0.09650349 0.04941739 0.0023284946 0.013194919 9.0231064e-05
0.0021461905 3.74513e-06 -0.0090601295 1.3364819e-07 5.9538095e-05 0.0 0.0 0.0
5.2013743e-08 4.6732748e-05 -0.009156892 8.2076986e-07 3.24914e-07 9.488858e-08 0.0 0.0012288844
-0.0070601166 -0.01153994 6.605931e-05 -0.0030388488 0.00011364218 0.0 1.0442961e-11 -0.014704909
-0.022356834 0.009743506 0.006560879 -0.024011232 0.003706808 0.0027218214 2.4936382e-09 -0.005005661
0.0026497177 -0.010140311 0.0049239774 -0.0056470274 0.001533502 8.753976e-08 0.0 -0.0027666308
-7.60936e-07 0.0062679057 7.278521e-05 0.012547061 1.2957147e-06 0.0033132827 0.0 -0.004805556
4.4938424e-06 0.0 -0.009196062 -0.00566968 -5.8385733e-05 0.011254345 0.0007423211 -0.005159961
0.00043753578 -0.017481511 0.0013178327 0.00019787901 0.0008623361 2.2884081e-09 -0.0068463166 2.391747e-05
0.05143559 0.0023868354 0.001467174 0.0039251116 0.05715904 0.0 0.0 0.0
0.021759784 0.0065025347 0.004361727 0.010580268 0.0017229354 1.4754501e-07 0.0 0.08416557
5.9287275e-05 0.004932983 0.039605647 0.02223095 0.052415222 0.0 1.231587e-05 0.045667082
0.036093906 0.041202486 0.037885554 0.02697452 0.031229578 0.07032888 0.0011571088 9.36043e-06
0.014555797 2.1156546e-05 0.094746314 0.05604551 0.03475085 0.014541429 0.0 0.026584813
2.1642233e-19 0.08140169 0.03517689 0.064292505 0.025153834 0.04887827 0.0 1.9791992e-07
0.016596707 0.0 0.00093913986 3.3543375e-07 2.40499e-07 0.08354672 0.022140214 0.031543914
0.054188285 0.03811717 0.0036679665 0.04953146 0.03462238 0.0013146828 4.3600785e-06 3.732355e-09
0.00012881134 8.874252e-08 0.0030956264 9.628697e-06 0.015359195 0.0 0.0 0.0
0.00044209798 -0.0023893071 0.03396555 -0.0014942009 1.1953803e-06 0.0010958755 0.0 0.027530788
0.007740508 0.053902447 -0.0063715745 0.052572396 -0.00034584326 0.0 1.3515372e-06 0.037875377
0.062658735 0.09151631 8.291917e-05 0.06938271 0.09593533 0.027755719 0.00017529345 2.257112e-06
0.1020821 0.012102587 0.0036396068 0.0063874866 0.0017974981 -0.0069259107 0.0 1.046241e-05
4.7043287e-22 0.00041127927 -0.00036898348 0.066822864 -0.0077798683 0.04184293 0.0 5.4267932e-09
0.017285574 0.0 2.586399e-07 3.9199075e-09 1.2328119e-13 -0.006220295 0.00032014644 0.03901527
0.050778314 0.022871401 0.053994425 0.00017258618 8.20027e-06 0.00052381353 1.4392926e-06 1.7896975e-06
00000000: c203 da3d 1090 ca3b b899 043b 9b8d 103d
00000010: 00e2 ea39 0000 0000 0000 0000 0000 0000
00000020: 9006 663c 3031 34bb 150f 7f3c 4a98 05bd
00000030: 608b 093d 0602 24b8 0000 0000 2192 053e
00000040: cf74 d93b 0464 033d 823d 1f3d 1e74 87bc
00000050: 095c 793d 0000 0000 0451 04bb cfb8 a63d
00000060: 30e5 733d 27a4 debd b63b 7d3d b832 5c3d
00000070: 8401 0dbe 685c d63d fac2 1f3c 2eab 3d3c
00000080: 2340 e0bd 2dd3 683c d5b1 233e e0ea de3d
00000090: d345 833d 0ca6 29bd 0000 0000 5560 023d
000000a0: 62b8 1335 c43e 423e b84d a43c 3cf3 94bc
000000b0: c8f9 9ebd 10fa a2bb 0000 0000 557f c93b
000000c0: 82c7 58bd 0000 0000 cf95 fdbc 90cf e439
000000d0: 146a 0dbc 60b3 ea3d 85be 393d 20fa 5d3a
000000e0: 02fc 2bbd 2f20 073d b300 173d 9fa3 c53d
000000f0: e469 4a3d a899 183b 802f 583c 6f3a bd38
00000100: 1aa7 0c3b d854 7b36 f070 14bc ef80 0f34
00000110: 8bb8 7938 0000 0000 0000 0000 0000 0000
00000120: b765 5f33 e802 4438 ca06 16bc e052 5c35
00000130: d76f ae34 8cc5 cb33 0000 0000 8512 a13a
00000140: 8d58 e7bb 0412 3dbc 5289 8a38 6c27 47bb
00000150: 2e53 ee38 0000 0000 eab6 372d dcec 70bc
00000160: ae25 b7bc 3aa3 1f3c a4fc d63b 34b3 c4bc
00000170: ebed 723b 9660 323b 8c5c 2b31 8706 a4bb
00000180: e3a6 2d3b 8c23 26bc 5159 a13b b30a b9bb
00000190: caff c83a 7efd bb33 0000 0000 5d50 35bb
000001a0: 2043 4cb5 0163 cd3b 43a4 9838 3092 4d3c
000001b0: 6be8 ad35 a923 593b 0000 0000 ed77 9dbb
000001c0: d0c9 9636 0000 0000 14ab 16bc b9c8 b9bb
000001d0: 34e3 74b8 2564 383c 5398 423a e414 a9bb
000001e0: 0f65 e539 6335 8fbc 21bb ac3a be7d 4f39
000001f0: 650e 623a 1a42 1d31 1157 e0bb 60a2 c837
00000200: 20ae 523d 746c 1c3b 314e c03a 399e 803b
00000210: 991f 6a3d 0000 0000 0000 0000 0000 0000
00000220: 9341 b23c 3713 d53b d1ec 8e3b dc58 2d3c
00000230: 1ed4 e13a dd6c 1e34 0000 0000 005f ac3d
00000240: 3aab 7838 dca4 a13b 8839 223d ae1d b63c
00000250: 58b1 563d 0000 0000 42a0 4e37 680d 3b3d
00000260: 34d7 133d f0c3 283d e22d 1b3d abf9 dc3c
00000270: 2cd5 ff3c 9608 903d 21aa 973a be0a 1d37
00000280: 707b 6e3c 5679 b137 5b0a c23d fa8f 653d
00000290: e856 0e3d 2c3f 6e3c 0000 0000 65c8 d93c
000002a0: a381 7f20 eeb5 a63d a515 103d caab 833d
000002b0: 6a0f ce3c 9534 483d 0000 0000 d083 5434
000002c0: d1f5 873c 0000 0000 9c30 763a aa15 b434
000002d0: ee1d 8134 8b1a ab3d 655f b53c 3134 013d
000002e0: 89f4 5d3d c020 1c3d 4462 703b 80e1 4a3d
000002f0: 32d0 0d3d 6f51 ac3a ca4c 9236 243e 8031
00000300: 8811 0739 b792 be33 fedf 4a3b f08a 2137
00000310: 22a5 7b3c 0000 0000 0000 0000 0000 0000
00000320: 63c9 e739 ec95 1cbb 761f 0b3d 10d9 c3ba
00000330: f470 a035 7ba3 8f3a 0000 0000 3f88 e13c
00000340: 16a4 fd3b d0c8 5c3d a4c8 d0bb 2756 573d
00000350: 4c52 b5b9 0000 0000 7766 b535 3623 1b3d
00000360: 3953 803d e76c bb3d e4e4 ad38 8618 8e3d
00000370: be79 c43d f65f e33c face 3739 e478 1736
00000380: 6c10 d13d ee49 463c 7886 6e3b 1f4e d13b
00000390: 079a eb3a c0f2 e2bb 0000 0000 b587 2f37
000003a0: fb2d 0e1c f8a0 d739 2074 c1b9 6dda 883d
000003b0: 44ee febb 7e63 2b3d 0000 0000 9476 ba31
000003c0: 7a9a 8d3c 0000 0000 32db 8a34 dfaf 8631
000003d0: 62cd 0a2a 9ed3 cbbb 54d9 a739 7ace 1f3d
000003e0: ecfc 4f3d ce5c bb3c 4229 5d3d 40f8 3439
000003f0: e493 0937 8850 093a b82d c135 8a35 f035

momentum_buffer f4 [16]
0.013807212 0.006629752 0.01587383 0.01341336 -0.034535587 -0.082034685 0.09285664 0.027837943
-0.03487443 -0.038950466 0.035539612 0.026234837 -0.06178733 0.040674046 0.025215773 -0.04590045
00000000: a537 623c 643e d93b d609 823c b6c3 5b3c
00000010: 3075 0dbd cd01 a8bd 9f2b be3d 660c e43c
00000020: 7ed8 0ebd 868a 1fbd fc91 113d 71ea d63c
00000030: b614 7dbd d499 263d 4f91 ce3c 1c02 3cbd
