notebooks/checkpoints/checkpoint-0-width-10-layers-10.ckpt (torch, 13519 bytes, 8 tensors)

linear_relu_stack.0.weight f4 [64, 3]
00000000: 58d2 7dbd 0c52 113f 459c 713e a479 313f
00000010: eae7 5a3e a44b a8be 1c5c 02bf 6fef 123e
00000020: 0f84 303f 4d6b 9d3d 3e64 e83c 12cc fdbd
00000030: 67d3 4abe 21a0 1c3e 908a 09bf 6cb8 15bf
00000040: ca33 7cbd 9d0c 433f 3cf6 c23d c8a5 1e3f
00000050: f5a0 773d b91e 34bf bea4 80be 473c 243f
00000060: 10ef 1abe 903d f7be 5c94 2abe 9bfe 003f
00000070: 5fd7 85bd 54d8 ffbd 961b ba3e 2687 d9bb
00000080: a42c 003f 77fe 3b3f 4b21 483e 40b5 c73e
00000090: a783 12bf 1ad7 ddbe 0d77 0abe e5df 8d3e
000000a0: d7c1 483e 8f20 bbbe 512d 993e e3ea 2b3e
000000b0: 0cf4 9abe 2efc 173f fad2 813e d641 bc3d
000000c0: 9b8e ac3e 065a 7cbe c6b3 4e3e 14b5 c9be
000000d0: a359 b4be 3ad4 6fbd e4ce f2bd a4f2 47be
000000e0: 3ce0 1f3e 87f0 01bf b5d7 66be 28db b0be
000000f0: a4fc 02bf bd77 c5be a245 dabe accc f8bd
00000100: 9050 01be e305 b9be 8450 b33e 595d 0c3f
00000110: 554d 89be 6f93 593e 8da0 2e3f b2c9 b8be
00000120: 53f8 e43d f943 aabe 4dd1 7e3e bb32 213f
00000130: 9d3e 0cbf 7214 d23e 92c7 28bf 9814 103d
00000140: 7f24 7d39 4c25 f73e 25e4 6cbe 04c9 e03e
00000150: 3c9b ea3e c124 04bf 7e80 063f 079d 15bf
00000160: 5c6e 90be fc6b 873e d2c9 283f 11e3 10bf
00000170: b0fa 2b3f 1575 c4be d2b8 2a3e e578 66be
00000180: 3f84 9dbd 0ccd eb3a 9be3 fcbe 774b 0c3f
00000190: 3fc3 553e aa39 f53e f7d1 1e3f 5d41 afbd
000001a0: b690 dbbe 5214 0fbf 3b21 0e3f 61c0 803e
000001b0: c707 c5be 525f a93e 4633 90be 0d8a b1be
000001c0: a202 783e 9cf3 55be 8fb9 d6be ae7c 213f
000001d0: 91ae d5be a43e dcbe 6d83 e6be eb46 bf3e
000001e0: ab34 243f ab87 803e 753b 26be e8fc f63e
000001f0: ec4f afbe 7b06 673e 5b9c b93d 606d 183f
00000200: cd58 ab3e 8966 8fbe c1ff c83e eb6f 643e
00000210: 52af c2be 0556 173f 9879 d8be 33df 0fbf
00000220: eed5 eabd 9d2c a9be bdd9 d1be a25b 283e
00000230: 1033 143f e85c 1ebf fa03 1e3f 7f46 04bf
00000240: 329b 81bd e537 09be 8216 173f f36d 163d
00000250: 0799 eb3d a0d6 ccbe 3f8a ec3e ae86 70be
00000260: 27ff e6be aace 1d3f 3707 e33d e25f 9ebe
00000270: 97bc 093f 407c 76be 2b65 f4be 3ef8 023f
00000280: 08d6 4f3e 4fec 9abe 39da 813d d1a6 4ebe
00000290: 666e c53e 34de dbbd e85f 73be eb87 0dbf
000002a0: 1f6e 10bf 029a bc3e a376 ebbd fe6c 693e
000002b0: f3a8 85be d181 d03e 2873 bdbd 50be 3bbe
000002c0: a737 05bf 5ff2 083f 1816 883d dcdf 343e
000002d0: d516 923c e84a c93e 4597 e93d 4c49 3f3e
000002e0: 0e2c f9be e69a 2d3f d604 3e3e 0a31 a13e
000002f0: cdcd 923a 7687 20bf b078 cb3e 8c94 173f
-0.061968178 0.5676582 0.23594768 0.69326234 0.2137753 -0.3287021 -0.509218 0.14349149
0.68951505 0.076864816 0.028368112 -0.12392439 -0.19807206 0.1529546 -0.53727055 -0.5848453
-0.061572827 0.7619112 0.09519622 0.6197171 0.060456235 -0.7035938 -0.25125688 0.64154476
-0.15130258 -0.48289156 -0.16658157 0.503885 -0.065352194 -0.12492433 0.3634917 -0.0066384254
0.50068116 0.7343516 0.1954395 0.3900547 -0.57232136 -0.43328172 -0.13521977 0.2770988
0.19605194 -0.36548278 0.29917386 0.16788821 -0.30264318 0.5936917 0.25356275 0.09192245
0.3370255 -0.24643716 0.20185766 -0.39395964 -0.35224637 -0.058552004 -0.118558675 -0.19526154
0.15612882 -0.5075764 -0.22543223 -0.34542203 -0.5116675 -0.38567916 -0.4263125 -0.12148413
-0.12628388 -0.36137304 0.35022366 0.5482994 -0.26816812 0.21247648 0.6821373 -0.3609138
0.111801766 -0.33254984 0.2488453 0.62968034 -0.5478304 0.41031224 -0.6592952 0.03517589
0.00024141556 0.48270643 -0.23133905 0.43903363 0.4582156 -0.5161858 0.52539814 -0.5844273
-0.28209198 0.26449573 0.65932953 -0.56596476 0.67179394 -0.38370577 0.16672066 -0.22507055
-0.076912396 0.0017990186 -0.493924 0.5480265 0.20875262 0.47895557 0.6203913 -0.08557389
-0.42883843 -0.5589038 0.55519456 0.25146773 -0.38482496 0.33080536 -0.2816412 -0.34675637
0.24219754 -0.20893711 -0.41938445 0.6308087 -0.41734746 -0.4301654 -0.45022145 0.37358794
0.64142865 0.25103506 -0.16233619 0.48239827 -0.34240663 0.22561066 0.090630256 0.59541893
0.33466187 -0.28007916 0.39257625 0.22308318 -0.38024384 0.5911563 -0.4228027 -0.5619995
-0.11466585 -0.3304185 -0.40986434 0.16441205 0.57890415 -0.61860514 0.6172482 -0.5167007
-0.06328429 -0.13400228 0.5901872 0.03672595 0.11503797 -0.40007496 0.46199223 -0.23488876
-0.4511654 0.6164347 0.110853605 -0.30932528 0.5380339 -0.24070835 -0.47733435 0.5116004
0.2029649 -0.30258414 0.06340451 -0.20180823 0.3856079 -0.10735741 -0.23767054 -0.5528552
-0.5641803 0.3683625 -0.114972375 0.22795483 -0.2610546 0.40724042 -0.0925048 -0.18334317
-0.52038044 0.5349483 0.06644839 0.1766352 0.017833153 0.3931496 0.114058055 0.18680304
-0.48666424 0.6781448 0.18556532 0.31482726 0.001120025 -0.62706697 0.39740515 0.5921104

linear_relu_stack.0.bias f4 [64]
00000000: d1ff d23d 0477 b83e 57ba 52be c0f6 56be
00000010: be72 bcbe 6d02 82bc f8a6 debe af2c aebd
00000020: 4409 f4bd 90ea 04bf 07e3 763c 4c16 94be
00000030: 3798 133e e560 12bf 09f9 8bbd ea6b ba3c
00000040: 6e9e f73e d8c3 e23e 36d6 a5bd 4e3e fd3e
00000050: 69f2 0b3f b81d e9be 5299 37bd 8d0c 0b3f
00000060: 06e4 0fbe fa3a f5bb 2fcc c93e 806b 933e
00000070: 5a04 b43d 9b38 a7be e3b7 8b3e 6b54 d63e
00000080: dc4e 993e cc38 b33d bc31 a6be 0923 03bf
00000090: 7d21 9f3e 3281 ccbe e744 aebe 7dec 39be
000000a0: 2c87 aa3e 56e6 04bf 9a02 a8bc cd9b f9be
000000b0: 74fa 103e d7e5 a83e bc8d 92bb 8e61 15bd
000000c0: 105d b3be 527b c93e 4850 6e3d 64eb 893d
000000d0: 1d10 d93e 8512 3cbe 6815 3f3e 46ab a4be
000000e0: f2c2 a7be 042b e2be 6850 d2bd 48c3 993d
000000f0: c263 723e ee1e ec3d 6634 d43e 17cf f1bb
0.10302699 0.36028302 -0.20578896 -0.20992565 -0.3680629 -0.015870297 -0.43486762 -0.085046165
-0.1191583 -0.51920414 0.015068776 -0.2892326 0.14413534 -0.571791 -0.06834609 0.022756536
0.4836306 0.44290042 -0.08097498 0.49461597 0.54666764 -0.45530486 -0.044823952 0.54316026
-0.14051828 -0.007483837 0.39413592 0.28792953 0.087898925 -0.32660374 0.27288732 0.4186128
0.29942977 0.087510675 -0.3245982 -0.51225334 0.31080237 -0.39942318 -0.34036943 -0.1815662
0.33306253 -0.51913965 -0.020509053 -0.4875168 0.1415804 0.32987854 -0.0044724625 -0.03646999
-0.3503194 0.39351898 0.05818203 0.0673435 0.42395106 -0.1836644 0.1866051 -0.3216192
-0.3276592 -0.44173443 -0.102692425 0.0750795 0.23670867 0.11529337 0.41446227 -0.0073794234

linear_relu_stack.2.weight f4 [16, 64]
00000000: 244c e83d dbb1 333d 4782 193e 5a60 12bd
00000010: 233c c0bd 4615 1c3e 78e3 b0bd bf5e 103e
00000020: 20c3 abbc 6b38 253e 500b 723d 00df 8fbb
00000030: 998e 443d 396f d43d d566 29bd 3f5e f6bd
00000040: 5973 833c 0110 ba3d cb84 c13d ed93 d8bd
00000050: 9352 db3d d619 fb3d 0259 753d 7994 85bb
00000060: d818 073e db65 2f3e 8c7e 5d3e e4a8 0dbd
00000070: 898f d63d ff5d a23d e448 0f3e 00b6 083d
00000080: 36ce 093d 4b67 b43d dbef 8d3d ff3a 593c
00000090: c767 fd3b 05b7 4b3e 6b48 ab3d 0924 b2bc
000000a0: 7713 1d3d a3bf 333c 330f 133d 588f e1bd
000000b0: 1fa0 023e 05d9 733d bd7e e2bc 9d00 5f3e
000000c0: 7f00 a1bc 199d 3b3d b6c0 613c 75ad 873d
000000d0: 696a c63c 733d c33d 6797 ab3b 4014 b23b
000000e0: a35c 463e 167a 813d 9c34 a73d 9fa9 ebbc
000000f0: cb2b e33d 3d6d de3d b6ce bf3c 598a 553d
00000100: 83bd ffbd baf7 db3d 1133 04be 5758 d0ba
00000110: 9176 a7bd f99c 25bc 84d3 52be db61 c6bd
00000120: 9073 0c3d db16 ce3d b519 91bb 3931 003e
00000130: f1fc 853d 67da c93d ee5c 6ebd 1c24 cb3d
00000140: 5c04 023c c460 37bd fd42 ffbb 21dd bb3c
00000150: f54d 56bc 60e4 983d 319f e3bd 3e58 93be
00000160: e596 a63d 8b95 bd3e e297 8fbd c240 dc3d
00000170: 5ca1 843e fffb 54bd 4f03 bc3e 2c28 b23c
00000180: 8224 673d b1f9 54bc 3e9f f03d a035 30be
00000190: 6c0a 81bc 53cb 213c eb56 073d e638 9abd
000001a0: 5cb8 33bd 492c 823e 105d 91be 5cf1 12be
000001b0: daf4 0fbd 34d2 9abd bf75 aebd f04a f3bd
000001c0: 0d19 a03d bbed c5bd 224e 85bd a72a fa3d
000001d0: 0683 88ba d2bb c9bd e80f 763d 74c0 d63d
000001e0: a60a c5bd 0e0c d93d d44a 393d c03b d63d
000001f0: b950 67be 36a7 2e3e 123f aabd 001b 45be
00000200: f654 a23c 583e 8bbd c953 4e3e db73 c13d
00000210: 51ea e13c 079e 233e 1756 b33d 908f 0abe
00000220: 02f5 cf3d c9f4 a3bd e32e c1bd a482 b03c
00000230: 38bb 6e3d 5236 833d 68f3 f8bd 3593 83bd
00000240: 4b99 65be fe95 b43d 2519 2d3d 08cc 9fbc
00000250: 95ba 26bd 0652 edbd 3a2d 8bbd 0581 ca3d
00000260: ef33 0d3d 9426 903d d9b8 1ebe 824e e03a
00000270: 539a 9abd 07db dbbd 380d 90be c02c 73bc
00000280: 7303 923d 522b 23bd d86a 093e 13bd e73d
00000290: 257d 26bd 8663 17be 9fc7 e73d 147f 7ebd
000002a0: 99c1 8fbd 2d64 ccbd ef42 c03d 73e0 183e
000002b0: 2758 083e ce18 2ebd 98a2 4c3d dbad 80bc
000002c0: fec1 87bb 0cbe 4a3d 3b2e eb3c acce 6cbe
000002d0: 7145 ac3d e449 62be 3dc2 a33d 001f 373c
000002e0: 4c9b 203e 303d 09be 5090 b1bd ea83 9c3d
000002f0: f8cb 123d 86dd 44be a8b6 ba3d 6127 b23d
00000300: 2380 55bb 3547 a3bc 4d7c 9b3e 0eca 653d
00000310: 6243 f3bc b1af 573e e446 b0bd bfa1 8d3e
00000320: b021 22bc cf15 ca3d 9c8a dfbc 1e4f 96be
00000330: 85d1 66bd a130 383d d7a1 ae3d 1759 57be
00000340: 7fad 2cbd 0de2 e9bd b4c3 d0bc 576b bc3d
00000350: 2ea6 eb3d f46b cf3d 12b8 bebd 10ab 7ebe
00000360: 4aa3 08be de01 07be f07a 7c3e 6b60 42be
00000370: a08d 69be 0571 423e 6c22 e1bd 65c8 1fbd
00000380: 8348 babc 6c8b dfbd d33c 87bd 12b2 ad3d
00000390: 12da a83d 8554 d73c f7ea 42be a91d 1b3e
000003a0: 46ea 12be 15c8 153d 4703 babd 2eed 5a3e
000003b0: 32fa 96bd 6ec8 d5bc 71d5 753e 9e4d 70bd
000003c0: daaf 2d3e 53f4 1a3d d161 ccbd 6ab6 cd3c
000003d0: 70a7 e5bd e61a eabd 3792 bc3d a881 543d
000003e0: 6613 963d 0f23 443d aa65 f63d 91ae 92be
000003f0: 6ffa 2cbd baaa 673d adc4 3fbd e05e 243e
0.11342648 0.043870788 0.14991103 -0.03573642 -0.0938647 0.1524249 -0.08637136 0.14098643
-0.020967066 0.16134803 0.05909282 -0.0043905973 0.047987554 0.103727765 -0.041357834 -0.12029695
0.016046213 0.09085084 0.094491564 -0.105750896 0.10709109 0.12260787 0.059899338 -0.004076537
0.13193071 0.17128699 0.21630305 -0.034584895 0.10476596 0.079280846 0.1399265 0.033376694
0.033643924 0.08808764 0.069305144 0.013258695 0.0077333185 0.19894035 0.08363422 -0.021745699
0.03834864 0.010970983 0.035903167 -0.11013669 0.12756394 0.059533138 -0.027648324 0.21777578
-0.019653557 0.045804117 0.013778856 0.06624881 0.024220662 0.09533205 0.0052365544 0.005434543
0.19371276 0.06322114 0.08164331 -0.028767405 0.11092337 0.10860679 0.023413997 0.05213389
-0.12487318 0.107406095 -0.12910105 -0.0015895468 -0.081769116 -0.010108226 -0.205885 -0.09686633
0.034289896 0.10062953 -0.0044281133 0.12518777 0.06542385 0.0985611 -0.058194093 0.09918997
0.00793561 -0.044770017 -0.007789968 0.02293259 -0.01308011 0.07465434 -0.11114348 -0.2877826
0.081342496 0.37028155 -0.07011391 0.10754539 0.25904357 -0.051998135 0.36721274 0.021747671
0.0564313 -0.012998984 0.11749123 -0.17207956 -0.01575204 0.009875136 0.033041876 -0.07530384
-0.04387699 0.25424412 -0.28391314 -0.14349884 -0.035145618 -0.07559624 -0.08518552 -0.118795276
0.07817278 -0.09664484 -0.06509043 0.122151665 -0.0010415025 -0.09850277 0.060073763 0.10485926
-0.09621172 0.105980024 0.045237377 0.10460615 -0.22589387 0.17055973 -0.08312811 -0.19248581
0.019815903 -0.067990005 0.20149149 0.09445926 0.027577551 0.15978251 0.08756655 -0.13531327
0.101541534 -0.080056734 -0.09432771 0.02154667 0.058284014 0.06406845 -0.12155801 -0.06424562
-0.22421758 0.08817671 0.042260308 -0.01950647 -0.040705282 -0.1158791 -0.06795736 0.0988789
0.034473356 0.07038608 -0.15500201 0.0017113241 -0.07548966 -0.107351355 -0.28135085 -0.014842212
0.07129564 -0.039836235 0.13419664 0.1131536 -0.04064669 -0.14784059 0.113173716 -0.06213291
-0.07019348 -0.099800445 0.093877666 0.1492937 0.13314877 -0.042504124 0.04995975 -0.0157079
-0.0041429987 0.04949765 0.028708568 -0.23125714 0.084116824 -0.220985 0.079960324 0.011176825
0.15684241 -0.13402247 -0.086701035 0.07642348 0.03583905 -0.1922513 0.0911687 0.08698917
-0.0032577596 -0.019931415 0.3036827 0.056100897 -0.029695217 0.21063115 -0.08607271 0.27662465
-0.009895727 0.09867441 -0.027287774 -0.29357237 -0.056352157 0.04496825 0.08526962 -0.21030079
-0.042157646 -0.11420069 -0.025483944 0.09200161 0.11506306 0.10128012 -0.093124524 -0.24869943
-0.1334354 -0.13184306 0.24656272 -0.18982093 -0.22807932 0.18988426 -0.109928936 -0.03900947
-0.022739654 -0.109152645 -0.06603398 0.0848123 0.082447186 0.02628542 -0.19034944 0.15148033
-0.1434718 0.036567766 -0.09082656 0.2137954 -0.0737194 -0.026096549 0.24007203 -0.05866777
0.16961613 0.037830662 -0.099795945 0.025111396 -0.11213577 -0.11430912 0.09207576 0.051881462
0.07327919 0.047884997 0.1203111 -0.2864881 -0.04223102 0.056559302 -0.046818424 0.16051817

linear_relu_stack.2.bias f4 [16]
00000000: b90d cb3d 2721 b13a 1767 d23d 2b21 9f3d
00000010: e554 d13d 4f40 c4bc baab b4bc 01d6 af3d
00000020: 3ffa 53bc d2b2 8cbe acc3 bb3d 233a 07be
00000030: 4b6f acbd fd7b f2bd eb04 a33b 47b3 ba3e
0.09914727 0.0013513908 0.10273569 0.07769998 0.102212705 -0.023956446 -0.022054542 0.0858574
-0.012938081 -0.2748018 0.09168181 -0.13205771 -0.08419665 -0.11840055 0.0049749515 0.36464903

momentum_buffer f4 [64, 3]
00000000: 962b 393e 0201 cb3e f66e 573e 8aa1 34be
00000010: 72ab eabd 50ad 31be 9a0f 93bc da66 cabe
00000020: 8ef3 12bd 32a0 32bd a72c 6cbe 5c12 cfbc
00000030: 0b61 9fbc b6bb f5bd 1c92 3cbc e83b e3bc
00000040: 3793 0abd 43a4 69bd 8028 01bb 3624 46bd
00000050: cf28 8a3d d49c ea3d 573d 353e 3228 2e3e
00000060: 0000 0000 0000 0000 0000 0000 14d7 b8be
00000070: 8e7c 07bf 07d9 8cbe ce6b c53c b46d e83d
00000080: fbb0 a6bc cc6f a3bd 405e 4bbe d244 b2bd
00000090: 0b1b 49b5 00f8 f735 530e 3436 2dcb 13be
000000a0: 230e a7be 248a d9bd fe83 843d 54c1 8f3e
000000b0: b41f 713d 4ed4 583c cbe5 c13d 589f 8dbd
000000c0: ae13 f3bc 7077 6cbd c723 c3bc 449c 3b3a
000000d0: 9f60 7fb9 985b 06bb 11a8 633c 35af 1d3c
000000e0: 95eb b13b 7a8e ab38 b4bb 81b9 1209 33b9
000000f0: ccb7 0cb9 b383 2639 3319 7438 0000 0000
00000100: 0000 0000 0000 0000 00e0 c339 e5c0 093e
00000110: 7ce0 b0bc 0673 373e 4271 073f 46d0 883e
00000120: 813e 813c 5693 463d 7624 c83c 5a55 73be
00000130: b903 95be 0937 82be 852d c83c 2027 c8bd
00000140: d153 9abd 7efe 13bd ada8 03be 0627 18be
00000150: e73e 84be 525e ccbe ab6d 9ebe 7688 323c
00000160: ad2f 39bc f494 2ebd 64a4 70bc f204 343d
00000170: fd28 48bd 7f3a 9e3c 2108 7abb 5200 8dbc
00000180: 1b31 a3bb cc1c 29bc d319 313a 1809 4d3d
00000190: 7b62 c83d 58dc 203d 607a 09be 54e4 02be
000001a0: c5c9 c5bd 960f 0f3e 6a88 4e3e 2011 123e
000001b0: 6d88 963d dc64 6b3e b6ae 39bd d8bd d83c
000001c0: 7fbf 923d f3b9 2abd 5818 8dbd 9f5b 6dbe
000001d0: f0fe 16be f72f c03c 003c 0b3c 6276 f3bb
000001e0: 70d5 97bd 5380 e7bd befe 31be e4aa 55be
000001f0: c34b 60be 4320 06be 1859 a3bd 0a82 90be
00000200: 8972 4bbd 4fd1 e83d 2c35 c53d 1d7d e73d
00000210: 392a 17be 1610 9abe 26d2 5abe a617 893b
00000220: f0c5 a3bb f077 a6bb f902 363e 0a37 573e
00000230: e473 ec3d 5481 9d3d df05 5b3e d061 dbbb
00000240: 3cf7 bebc 0090 0bbc c87c ebbd a2c9 e0bd
00000250: 7487 8cbe 4e8e 54bd 40bd acba e02a 3ebb
00000260: efd3 caba 33bc abbd 48fb 953d 06a2 7cbd
00000270: b4f7 c7bd c7a6 e6bd de06 6ebd a9ed bdbd
00000280: a5ed 153d 4ea6 0ebe b6eb 133e b79e b93e
00000290: ac9b 6a3e 0000 0000 0000 0000 0000 0000
000002a0: 0a53 98bd 8aaf babe d616 17be 0291 ddbd
000002b0: ebec 1bbe 5569 0abe 0000 0000 0000 0000
000002c0: 0000 0000 08db 9dbd 5f6f 6cbe bf71 9dbd
000002d0: 63bc 6ebd 2030 0dbe 885d 633b a55b c5bd
000002e0: 72ab 19be ad25 15be a604 333e de27 d03e
000002f0: 84dc 953e a1a5 3e3d 98e7 68bd 80f9 213b
0.18083033 0.39649206 0.21038422 -0.17639747 -0.11458482 -0.1735127 -0.017951775 -0.39531595
-0.035876803 -0.043609805 -0.23063909 -0.02527731 -0.019455453 -0.11998694 -0.011509445 -0.027738526
-0.0338318 -0.057041418 -0.0019707978 -0.048374377 0.06746065 0.11455694 0.1769918 0.17007521
0.0 0.0 0.0 -0.36101592 -0.5292443 -0.2750933 0.024099257 0.11349049
-0.020348063 -0.07980308 -0.19860172 -0.08704533 -7.491769e-07 1.8475112e-06 2.6830428e-06 -0.14432974
-0.32627973 -0.10622051 0.06470488 0.28077185 0.058868125 0.013234211 0.09467658 -0.06915158
-0.02967247 -0.057731092 -0.02382077 0.0007156769 -0.00024354689 -0.0020501371 0.013895051 0.009624292
0.005429695 8.180454e-05 -0.00024744647 -0.00017074149 -0.0001341991 0.00015880055 5.8197602e-05 0.0
0.0 0.0 0.0003736019 0.1345249 -0.021591417 0.17914972 0.5290719 0.267214
0.015776874 0.048480354 0.024431448 -0.23763028 -0.29104403 -0.25432613 0.024435768 -0.097730875
-0.07535518 -0.036131375 -0.12857313 -0.14858636 -0.2582924 -0.3991571 -0.30943045 0.010896793
-0.011302871 -0.04262252 -0.014687631 0.04395003 -0.048867214 0.019315002 -0.0038151818 -0.017212067
-0.004980219 -0.010321807 0.0006755862 0.0500575 0.09784409 0.039272636 -0.13425589 -0.12782413
-0.09657625 0.1397079 0.20169225 0.14264345 0.0735024 0.22987694 -0.045332633 0.026457712
0.07165431 -0.04168124 -0.06889409 -0.23179482 -0.14745688 0.023460371 0.008498192 -0.007429884
-0.07413757 -0.11303773 -0.17382333 -0.20865971 -0.21903901 -0.13098244 -0.07975978 -0.28224212
-0.049669776 0.113680474 0.09629282 0.1130316 -0.147622 -0.30090398 -0.21369228 0.0041837273
-0.004997961 -0.0050802156 0.17774571 0.2101709 0.11545542 0.07690683 0.21388958 -0.00669501
-0.02331125 -0.008518219 -0.114984095 -0.109759584 -0.27447093 -0.051893525 -0.001317896 -0.0029017255
-0.0015474538 -0.083855055 0.07323319 -0.061677955 -0.097640425 -0.11262279 -0.058112018 -0.09273846
0.03660359 -0.13930628 0.14445385 0.36253902 0.22910947 0.0 0.0 0.0
-0.074377134 -0.3646205 -0.14754805 -0.10818674 -0.15227096 -0.13516743 0.0 0.0
0.0 -0.077077925 -0.2308936 -0.07687711 -0.05828513 -0.1378789 0.00346932 -0.096366204
-0.15006807 -0.14565153 0.17482242 0.40655416 0.29269803 0.046544675 -0.05686149 0.0024715364

momentum_buffer f4 [64]
00000000: f87c 4f3d 986e f8bc 6825 4bbd 56ed d4bc
00000010: e06c 64bc 9e98 c3bc 6519 003d 8ba9 c33c
00000020: 0000 0000 1c34 87bd 030f ccbb 937d cfbc
00000030: ec61 8633 2171 22bd 8a0f 1b3d 0732 733c
00000040: a7c2 0ebd e54c 4dba 884d 4a3a eb72 7cb8
00000050: c94a 0638 0000 0000 da10 153d e283 8e3d
00000060: a698 4c3b a734 8cbd bf21 8fbc e0ae 42bd
00000070: 10d7 b9bd 7978 d7bb 3837 12bd 801b b5ba
00000080: 5eb8 e2ba 1856 7a3b d3df 8bbc 6447 353d
00000090: 0943 c33c 7933 803c c990 c4bc 36fa 95ba
000000a0: 3f15 46bd 001b 06bd 391f 91bc ab72 403d
000000b0: 72c9 46bd bd4d 86ba c9b0 c33c 4633 ef3c
000000c0: 8002 7eb9 61ce 0fbd 608b 383a 42e9 4e3c
000000d0: fa8d 84bc a469 d73b 0220 183d 0000 0000
000000e0: 31e3 3fbd 7340 a6bc 0000 0000 1777 ddbc
000000f0: cfea f5bc af5b 0fbd f9f4 743d d199 68bc
0.05065629 -0.030326173 -0.04959622 -0.025992077 -0.013941973 -0.023876484 0.031274218 0.023884555
0.0 -0.06601736 -0.0062273755 -0.025328433 6.257673e-08 -0.03965867 0.037856616 0.01484347
-0.034853604 -0.00078315876 0.00077172415 -6.0188508e-05 3.201774e-05 0.0 0.036393024 0.069587484
0.0031218915 -0.0684598 -0.017472146 -0.047530055 -0.09074223 -0.0065756408 -0.035697192 -0.00138174
-0.0017297377 0.0038198289 -0.017074501 0.044257537 0.023835676 0.015649544 -0.02399482 -0.0011442367
-0.048360106 -0.032740593 -0.017715083 0.046984356 -0.048531957 -0.0010246556 0.023888009 0.029199254
-0.00024224259 -0.035108928 0.00070398115 0.012628855 -0.016180981 0.0065738726 0.0371399 0.0
-0.046847526 -0.020294404 0.0 -0.027034326 -0.030019192 -0.034999546 0.059803937 -0.014196829

momentum_buffer f4 [16, 64]
00000000: 26a9 28bf cc95 f7be c334 52be d881 8dbb
00000010: 2968 ed3b 746f e2bd 2ce1 17bf e86c 71bc
00000020: 0000 0000 9c8c a5bd 451f f0be 5e4e 3ebf
00000030: 7ca4 87b8 a98c 82bd 901e 1cbe 26b4 1ebf
00000040: ec43 10be 9063 33bb 34ea 6bbb 1f95 b6b9
00000050: 95ed c934 0000 0000 2f32 11bf 107c 2fbf
00000060: e223 22bc d396 9cbd b50b 4ebc 6337 a4be
00000070: 4c5e afbd f806 ebbb a46a 57be 2849 a33c
00000080: 8693 b03a 56c7 46bf 7ea4 5ebd eecb 8bbe
00000090: efa5 20bd e1a7 4a3c 3c52 f9bd 59d8 37bc
000000a0: e330 10bf b13d cbbc 502e 4cbf 98a5 7ebe
000000b0: c824 3bbe be05 aab9 3d7d 82be c529 47bd
000000c0: cd2c c1bd 0205 40bc 108d 62bb 2424 99be
000000d0: f303 42bc a9ea 8fbe 99b9 a3bd 0000 0000
000000e0: 8452 6dbc 6cae cebc 0000 0000 c8cd edbe
000000f0: dcff fcbe 9646 88bd 8f05 f8be d71f bbbe
00000100: 9b4e d53c d7d5 89bc 363c 583c 5ac8 4036
00000110: d5e2 f333 dd97 043c a874 913c c4e1 c03b
00000120: 0000 0000 8039 18bd 7c68 2cbd 7805 65bd
00000130: 5f5f d82d 5108 1939 75dd 443b a803 ebbc
00000140: e8e6 11bd 64f1 0937 103a 70b8 a5e5 2f30
00000150: 0753 c12a 0000 0000 2202 863c 95f1 2b3d
00000160: 0853 0ebd 729f acbd 63d9 3d38 1cb1 63bd
00000170: f774 98bd ceb6 ae39 3d6e bebd 577b 4c36
00000180: d886 2435 7e47 29bd df82 bfbc 33ce 843b
00000190: 3481 6b38 1c2e b934 21fc a438 5a60 123b
000001a0: 1280 97bc 2816 83bd 5026 483c 8754 173c
000001b0: 5964 c639 8c6c 0f31 99a6 663c 0725 6937
000001c0: faca ecbc 01f3 bf38 ef0f 15bb 8613 acbc
000001d0: 5e8b 72bc 8253 48bc 8de0 d5bc 0000 0000
000001e0: da26 6937 1b9b 48bd 0000 0000 0567 17bd
000001f0: 63a5 933c 6476 77bd f494 1c3c 0345 133d
00000200: 8129 17bf 585c e3be 1bc5 b03d a892 cdbb
00000210: 14aa 44bd 6be6 2f3e 7850 24bf 5dcb 523d
00000220: 0000 0000 4e7b 763b 3405 4b3d 7a9c 5dbe
00000230: 996e 9636 b76d 65be 7fdd 88be fa4b b8be
00000240: fee8 fd3c 72a1 eb37 b64b a43a 81a7 ab38
00000250: 9bc4 5333 0000 0000 6225 37bf 1026 6fbf
00000260: 470c 503a a2b1 1a3c b21a c53c 688a d43d
00000270: 1574 ce3c bb8d 9c3b b2d6 8d3d b62c 4fbe
00000280: 68b0 a639 4c9b 6cbe 3e1d 5d3a b600 d8be
00000290: 52b5 cebe 64ee 39be 10b4 2dbf bb96 893b
000002a0: bc5f e5be 634a 983a d79a 1bbf 4ad5 94be
000002b0: 464c 33bf af0e 8c39 a0e6 81bb a30b 2fbf
000002c0: a5b5 ce3d 7b34 5abe 3863 f137 46f6 85be
000002d0: 0087 3e39 14f1 a6be e14a 433d 0000 0000
000002e0: 5d6c 99be 8c6a b43c 0000 0000 759a 02be
000002f0: d7b8 e4be c8f2 4a3d 896f dcbe c4ef 67be
00000300: 18c5 b8bc d0b3 823a 0d60 4cbd f608 5434
00000310: 563a d737 efb5 56bd a92c 07bc d8a7 4ebd
00000320: 0000 0000 3dec a537 e8ea 603b 70b2 cd3c
00000330: 7a36 4e37 6755 9737 5540 f438 7c85 be3c
00000340: ac96 a93c 331c fa39 faca a9bb 240d 2e39
00000350: 0bc0 d633 0000 0000 2eef 243c 34c6 923c
00000360: 546c 3f3c a0d4 4b3c 7eb0 11bd 21ad 9a3c
00000370: da39 f03c 73c2 ebbc 8552 1a3d 3863 62bc
00000380: 4e16 9b34 eb68 103c aa08 a536 6cb7 3dbd
00000390: 7d0a 63bc f712 b53b 5120 973b 4462 acbc
000003a0: 7d63 be3b dea6 9439 6276 92bc cdad e3bc
000003b0: 0761 08bb 25d8 1e3b cc8e 2dbd 10d1 a0b9
000003c0: cbad 8fbc 6d99 ed37 58bc 7334 f7e2 b239
000003d0: cabd c336 80ff 9539 cc08 a6bb 0000 0000
000003e0: 617a 00bd a0d8 253c 0000 0000 3cb3 cd3c
000003f0: b5b7 3cbc c0af 68ba 2ce8 d43a 2ad5 70bd
-0.658831 -0.48356473 -0.2052794 -0.004318457 0.007245083 -0.11056414 -0.5932796 -0.014735438
0.0 -0.0808346 -0.46898857 -0.7433833 -6.467939e-05 -0.06374485 -0.15246034 -0.61993635
-0.1408841 -0.0027372576 -0.003599775 -0.0003482485 3.761203e-07 0.0 -0.567172 -0.6854868
-0.00989625 -0.07645955 -0.012576033 -0.32073507 -0.085629076 -0.0071724616 -0.21036774 0.019932345
0.00134717 -0.7764791 -0.05435609 -0.27304024 -0.039220747 0.012369127 -0.12173888 -0.011221015
-0.56324595 -0.02480969 -0.7975817 -0.24867857 -0.1827575 -0.00032429205 -0.25486174 -0.04862382
-0.09432373 -0.011719944 -0.0034568943 -0.29910386 -0.011841762 -0.2810872 -0.07994384 0.0
-0.014485005 -0.025229655 0.0 -0.4644606 -0.49413955 -0.06654088 -0.4844174 -0.3654773
0.026038459 -0.0168256 0.013197949 2.872685e-06 1.135683e-07 0.008092848 0.017755821 0.0058862884
0.0 -0.03716421 -0.04209183 -0.05591342 2.459871e-11 0.00014594315 0.0030039225 -0.028688267
-0.0356206 8.2220395e-06 -5.7274534e-05 6.3990974e-10 3.43413e-13 0.0 0.016358439 0.041978437
-0.034747154 -0.08428849 4.526357e-05 -0.055588827 -0.07444184 0.00033324066 -0.0929837 3.0470162e-06
6.1290984e-07 -0.041327946 -0.023377834 0.004052901 5.6148696e-05 3.4492484e-07 7.867092e-05 0.0022335262
-0.018493686 -0.0640071 0.012216166 0.0092364615 0.00037840268 2.087094e-09 0.014077806 1.3896503e-05
-0.02890538 9.152853e-05 -0.0022745093 -0.021005403 -0.014803736 -0.012226941 -0.02610805 0.0
1.3896928e-05 -0.048976045 0.0 -0.03696348 0.018023198 -0.06041564 0.009556998 0.035954487
-0.59047705 -0.4440639 0.08631345 -0.0062735863 -0.04801376 0.17177741 -0.64185286 0.051463474
0.0 0.0037610116 0.04956551 -0.21641722 4.4832236e-06 -0.22405134 -0.26731488 -0.35995466
0.030994888 2.8089362e-05 0.0012534771 8.1851154e-05 4.9306077e-08 0.0 -0.71541417 -0.93417454
0.00079364 0.009441765 0.02406058 0.103779614 0.025201837 0.004777638 0.069257155 -0.202319
0.0003179342 -0.23106116 0.00084348384 -0.42188042 -0.4037271 -0.18157345 -0.6785288 0.0041988767
-0.44799602 0.0011618849 -0.6078314 -0.29068977 -0.7003826 0.0002671382 -0.00396426 -0.6837713
0.1009324 -0.21309082 2.8775641e-05 -0.26164454 0.00018170103 -0.32605803 0.047678832 0.0
-0.29965487 0.022023462 0.0 -0.12754233 -0.44672272 0.04954794 -0.43053845 -0.22650057
-0.02255492 0.0009971801 -0.04989629 1.9747299e-07 2.5657162e-05 -0.0524196 -0.008250394 -0.050453037
0.0 1.977954e-05 0.0034319703 0.0251095 1.2291241e-05 1.8040371e-05 0.000116468094 0.02325701
0.020701729 0.00047704726 -0.0051816674 0.00016598828 1.0000084e-07 0.0 0.0100667905 0.017916776
0.011683542 0.0124408305 -0.035568707 0.018881382 0.02932446 -0.028779244 0.037676353 -0.013817601
2.888723e-07 0.008814077 4.918392e-06 -0.046317503 -0.013857481 0.0055259424 0.0046120067 -0.02104295
0.0058102 0.00028353086 -0.017878715 -0.027792836 -0.0020809786 0.002423772 -0.04237251 -0.00030673342
-0.017538926 2.8324046e-05 2.2699658e-07 0.00034119908 5.833547e-06 0.00028609857 -0.0050669666 0.0
-0.03136671 0.010122448 0.0 0.02510988 -0.011518409 -0.00088762864 0.0016243509 -0.05879704

momentum_buffer f4 [16]
00000000: fe81 47be e53f 593c 8a70 f6bd 58e2 5dbb
00000010: fadf 6d3c 4b9f 5d3e a41d ef3d ac7e bc3d
00000020: 8521 11be 0b2a 5fbd bc1d 063e 5312 bb3c
00000030: 5bed 96bd 8a87 b73d f202 06bd f51b 9abd
-0.19483182 0.013259863 -0.12033184 -0.0033856835 0.014518732 0.21642797 0.116755754 0.09203848
-0.14172943 -0.054483455 0.1309728 0.022835886 -0.07369491 0.08961399 -0.032717653 -0.07524864
