notebooks/checkpoints/checkpoint-1-width-10-layers-10.ckpt (torch, 13583 bytes, 8 tensors)

linear_relu_stack.0.weight f4 [64, 3]
0	0x3f4568bd	0.7711294
1	0x3dddb25d	0.10825036
2	0xbeb66f95	-0.35632005
3	0x3f1e3f20	0.6181507
4	0x3e8abfca	0.27099448
5	0xbf6eaadf	-0.9322948
6	0x3f299b1b	0.662523
7	0xbf1684b9	-0.5879627
8	0x3e3ce629	0.18447174
9	0xbcc3e9dc	-0.023915224
10	0x3eb6bfa3	0.35693082
11	0xbf69d497	-0.9134001
12	0xbf42cec4	-0.7609675
13	0x3f56e779	0.8394695
14	0xbe323fd4	-0.17407161
15	0x3e71cef8	0.23614109
16	0xbf0d582c	-0.55212665
17	0xbee0ea62	-0.4392882
18	0xbe36fc78	-0.17869747
19	0xbf00978b	-0.50231236
20	0xbee2c3e4	-0.44290078
21	0xbf0c4d62	-0.54805577
22	0xbec4d6e3	-0.38445196
23	0xbeb3b528	-0.3509915
24	0xbe8ce897	-0.27521202
25	0x3f095dfd	0.5365904
26	0xbf244c74	-0.6417916
27	0xbe8c1205	-0.27357498
28	0x3e19a6f6	0.15005097
29	0xbdf2a3f7	-0.1184768
30	0x3e2c1bd4	0.1680749
31	0xbf0523ab	-0.5200755
32	0x3eefded9	0.46849707
33	0xbef0a5e8	-0.47001576
34	0x3e0055a8	0.12532675
35	0xbe60ec1b	-0.21965067
36	0x3cccab4f	0.02498403
37	0x3e67efa7	0.22650014
38	0xbf342d03	-0.7038118
39	0xbef222b6	-0.47292107
40	0xbecb2e8e	-0.39683956
41	0xbcb67e75	-0.022277096
42	0xbf0e18a4	-0.5550635
43	0xbf055924	-0.5208914
44	0xbef209ef	-0.47273204
45	0x3ecc06cc	0.39848936
46	0x3e9b9a31	0.30391076
47	0x3e7ac857	0.24490486
48	0x3e1a954f	0.15096019
49	0xbe64e9b8	-0.22354782
50	0x3e5ebdd6	0.21752104
51	0xbeb3bf40	-0.3510685
52	0xbf479dc8	-0.7797513
53	0x3f44e25c	0.76907897
54	0xbe212ec5	-0.15740497
55	0x3f0d4188	0.5517812
56	0xbe5ed47f	-0.21760748
57	0xbef9e8df	-0.4881048
58	0xbe979d74	-0.29612315
59	0x3f0f0a49	0.5587507
60	0xbe0f392c	-0.13986653
61	0x3f3e7a67	0.7440552
62	0xbee999fb	-0.4562529
63	0x3cc72d00	0.02431345
64	0xbf00f305	-0.5037082
65	0xbf07a492	-0.5298549
66	0xbed13c33	-0.4086624
67	0xbdd3e9a9	-0.103473015
68	0xbea9648f	-0.33084533
69	0x3f6e86b6	0.931743
70	0xbea00eb4	-0.31261218
71	0x3f17b510	0.59260654
72	0x3f46bdb8	0.7763324
73	0xbf5efc9f	-0.8710422
74	0x3f8a6815	1.0813013
75	0xbf5e88bd	-0.86927396
76	0x3e147add	0.14499994
77	0x3f3508b9	0.70716435
78	0x3e3c51e6	0.18390617
79	0x3e5da569	0.2164513
80	0xbe28c1ca	-0.16480175
81	0x3f00339b	0.50078744
82	0xbf5819a2	-0.8441411
83	0x3f9e4e3b	1.2367624
84	0xbf980a40	-1.1878128
85	0x3e58db0f	0.21177314
86	0x3f70f905	0.94129974
87	0x3e9f27a7	0.3108494
88	0x3e55e73a	0.20888987
89	0x3e3649c5	0.17801578
90	0xbec59bc6	-0.38595408
91	0x3e46530a	0.19367614
92	0xbf278e73	-0.65451735
93	0x3e5ceedd	0.21575494
94	0xbebbcf8f	-0.36681792
95	0x3d251526	0.04030337
96	0xbf6f970a	-0.9358984
97	0xbe599233	-0.21247177
98	0x3f851841	1.0398027
99	0x3e00b45f	0.12568806
100	0xbf1b0ae0	-0.6056347
101	0x3ead4491	0.33841375
102	0x3ecd2f13	0.40074977
103	0x3f366151	0.71242243
104	0xbdaaae4e	-0.08334027
105	0x3ef3e666	0.47636718
106	0x3e62b700	0.22140121
107	0x3e5f0ab8	0.21781433
108	0x3df45492	0.11930193
109	0x3eae9a73	0.3410221
110	0xbdebf1ab	-0.11520704
111	0xbf25e60d	-0.64804155
112	0x3f0941d0	0.53616047
113	0xbf11de81	-0.5698014
114	0x3e5f8c2c	0.21830815
115	0xbf0284da	-0.50983965
116	0xbf06079b	-0.52355355
117	0x3f63496c	0.8878391
118	0xbdb1b7c7	-0.08677631
119	0xbed4f815	-0.41595522
120	0x3e943867	0.28949282
121	0xbf0db2b0	-0.5535078
122	0xbe8d8faf	-0.27648684
123	0x3f15d973	0.58534926
124	0x3f36a408	0.7134404
125	0xbf0ac21d	-0.54202443
126	0xbee240fe	-0.4419021
127	0x3f32b261	0.69803435
128	0xbf368eaf	-0.7131147
129	0xbf16cf3b	-0.5890996
130	0x3e1f3fee	0.15551731
131	0x3ed834db	0.42227826
132	0xbfa01dc8	-1.2509089
133	0x3f7a2416	0.9771131
134	0xbf17be83	-0.5927507
135	0xbebd0e01	-0.36924747
136	0x3ebb7da7	0.36619303
137	0x3ec3d49c	0.38248146
138	0x3d37aa40	0.044840097
139	0xbdaee544	-0.08539823
140	0xbe3ab9b2	-0.182349
141	0x3e7fe5b1	0.24989964
142	0xbe9bc351	-0.30422452
143	0xbd97ca4a	-0.074116305
144	0xbf20735a	-0.6267601
145	0x3db15bb2	0.086600676
146	0x3e075d3d	0.13219161
147	0xbe928da5	-0.2862369
148	0xbeb3ea53	-0.35139713
149	0xbedd6e6e	-0.43248314
150	0x3f9fd21d	1.2485996
151	0xbe58d06a	-0.21173254
152	0xbf244a7f	-0.6417617
153	0x3ed954ef	0.42447612
154	0xbeb294c4	-0.34879124
155	0xbe45953a	-0.19295207
156	0x3ee182a4	0.44044983
157	0xbe87799b	-0.26459965
158	0xbeceb041	-0.40368846
159	0x3e269609	0.16268171
160	0x3f333c8f	0.7001428
161	0xbe49413d	-0.19653793
162	0x3d466a4b	0.048441213
163	0x3e9c38c4	0.3051206
164	0xbecd1bf0	-0.40060377
165	0xbd9a2bea	-0.07527907
166	0x3e32040d	0.17384358
167	0x3f08a272	0.5337287
168	0xbf5d45a3	-0.8643438
169	0x3f0c5828	0.54822016
170	0x3ee1218d	0.4397091
171	0x3f6991ff	0.912384
172	0xbf16ec64	-0.58954453
173	0x3f1f74aa	0.6228739
174	0xbf2ab38d	-0.6668022
175	0xbf6da6db	-0.92832726
176	0x3f21f09f	0.63257784
177	0x3e0543c8	0.13014138
178	0x3f3557b5	0.70836955
179	0xbf483f66	-0.7822174
180	0x3f4bc96b	0.79604214
181	0x3e31fb3b	0.17380993
182	0xbf1279fa	-0.5721737
183	0xbed4eedf	-0.41588494
184	0x3e304dc4	0.17217165
185	0xbf1766fa	-0.59141505
186	0x3e8c54a7	0.27408335
187	0xbebf9193	-0.37415752
188	0x3d519af7	0.051173177
189	0xbdd11186	-0.102084205
190	0xbedd68f4	-0.43244135
191	0x3d1cbd80	0.03826666

linear_relu_stack.0.bias f4 [64]
0	0x3f3545cd	0.7080963
1	0xbf17baf4	-0.5926964
2	0x3f86907c	1.0512843
3	0xbb1e1aa9	-0.0024124777
4	0xbe506460	-0.2035079
5	0xbed65454	-0.41861212
6	0x3eb456fe	0.3522262
7	0x3d81c440	0.0633626
8	0xbee09c5d	-0.43869296
9	0x3f0e86a2	0.55674183
10	0x3f0b6fbc	0.5446737
11	0x3f062bca	0.52410567
12	0x3e614746	0.21999845
13	0xbdf408e9	-0.11915762
14	0xbd5597a0	-0.052146554
15	0x3e7ae735	0.24502261
16	0xbe647d3f	-0.22313403
17	0xbe2b0fb0	-0.16705203
18	0xbf09b7d7	-0.5379614
19	0x3c834397	0.01602344
20	0xbe7e9b5f	-0.24863957
21	0xbe63eb9c	-0.22257847
22	0xbe29c1bf	-0.16577815
23	0x3e9d9f56	0.30785626
24	0x3f026ca7	0.5094704
25	0x3f8a1888	1.0788736
26	0x3f43b3e5	0.7644637
27	0xbe89f18d	-0.269421
28	0xbe10deb2	-0.14147452
29	0x3f173fd1	0.5908175
30	0x3eb134d0	0.34610605
31	0x3eb3440c	0.35012853
32	0x3f34c004	0.7060549
33	0x3e8ba40b	0.27273592
34	0xbf25232f	-0.6450681
35	0xbf385cbf	-0.7201652
36	0xbef1e49c	-0.47244728
37	0x3c949161	0.018135728
38	0x3f122fee	0.57104385
39	0xbe01684b	-0.12637441
40	0xbf002921	-0.5006276
41	0xbf5a81df	-0.8535442
42	0x3f4fdea4	0.811991
43	0x3f858432	1.0430968
44	0xbeb852ee	-0.3600077
45	0xbf128ff6	-0.57250917
46	0xbe08fc9e	-0.13377616
47	0x3c82a656	0.015948456
48	0xbf099a17	-0.5375075
49	0xbeeb06df	-0.4590368
50	0xbef4033d	-0.4765872
51	0xbdba00de	-0.09082197
52	0xbec1ae01	-0.37828067
53	0xbd2a59b0	-0.04158944
54	0x3f0e8a78	0.55680037
55	0xbf76e631	-0.96444994
56	0xbf6785ad	-0.9043835
57	0x3eebbc73	0.46042213
58	0x3d260879	0.040535424
59	0x3e999dfe	0.3000335
60	0xbe8bb165	-0.2728378
61	0x3edd6d56	0.4324748
62	0x3e438e02	0.1909714
63	0xbd897df5	-0.067134775

linear_relu_stack.2.weight f4 [16, 64]
0	0x3e722c4e	0.23649713
1	0x3e339114	0.17535812
2	0x3f017f33	0.50584716
3	0xbe8a7650	-0.2704339
4	0x3e218b80	0.15775871
5	0x3d96d2f0	0.07364452
6	0xbde2947a	-0.11063476
7	0xbd80d914	-0.06291404
8	0x3e1a4b81	0.15067865
9	0x3da8cfef	0.08242785
10	0x3e8ee754	0.27910864
11	0x3e813ab3	0.25240096
12	0xbe43ef24	-0.19134194
13	0x3afd89c2	0.0019343423
14	0xbda78cf0	-0.081811786
15	0xbdee7fd8	-0.11645478
16	0xbc9757d8	-0.018474504
17	0xbc8cdea4	-0.017196007
18	0x3cc0c156	0.02352969
19	0x3dbd0c53	0.09230866
20	0x3e575981	0.21030237
21	0x3b917280	0.0044386983
22	0xbc052b2f	-0.008127972
23	0x3e7059a7	0.234717
24	0x3eb32a9d	0.3499345
25	0x3e9e1924	0.30878556
26	0xbc719762	-0.014745565
27	0xbcde92a0	-0.027169526
28	0x3e57ed3a	0.21086589
29	0xbd25f35f	-0.0405153
30	0xbdcf79f3	-0.10130682
31	0xbd65096b	-0.055917185
32	0x3eaa4825	0.33258167
33	0x3e81bac5	0.25337806
34	0xba5185e0	-0.0007992666
35	0xbe95b05c	-0.29236114
36	0x3d05eed5	0.03269847
37	0x3eb8a9b8	0.36066985
38	0x3dd2c9b4	0.10292378
39	0x3e533a87	0.20627795
40	0x3d8bc1c3	0.068240665
41	0x3d6fbb7a	0.0585284
42	0x3e693c2a	0.22776857
43	0x3de9755e	0.11399339
44	0x3f030bb6	0.51189744
45	0xbddd5257	-0.10806721
46	0x3da326a4	0.079663545
47	0xbdc5a0fa	-0.096498445
48	0x3e941556	0.28922528
49	0x3dfb5a7e	0.122731194
50	0x3ed4415a	0.4145611
51	0xbdaf41a9	-0.085574456
52	0xbca2ca1b	-0.019871762
53	0xbddc3785	-0.10752777
54	0x3e1fc852	0.1560376
55	0xbe12bfb5	-0.14330943
56	0xbe2dc29c	-0.16968769
57	0x3f1791ff	0.5920715
58	0x3e61328a	0.21991935
59	0x3e51bf0d	0.20483036
60	0x3d8bb2a9	0.06821186
61	0x3c35e3dd	0.01110169
62	0x3d7680eb	0.06018154
63	0xbde0fd45	-0.10985807
64	0xbcff81b9	-0.031189786
65	0x3da92fab	0.08261045
66	0x3e4137b1	0.18868901
67	0xbcdde1ef	-0.027085273
68	0x3dd32515	0.10309807
69	0xbd1abdb4	-0.03777857
70	0xbce6fb58	-0.028196022
71	0xbc341a30	-0.010992572
72	0x3c82628c	0.015916131
73	0xbccf7805	-0.025325784
74	0x3e55051f	0.20802735
75	0x3de4d8eb	0.11174186
76	0x3deb14e7	0.11478596
77	0xbdbe023f	-0.09277772
78	0xbb2d8080	-0.0026474297
79	0xbe545e5f	-0.20739125
80	0x3e4c5244	0.19953257
81	0x3e510ca2	0.20414975
82	0xbc959976	-0.018261652
83	0x3d17dc64	0.037075415
84	0xbd36d924	-0.044640675
85	0x3d8ed2e6	0.069738194
86	0x3d394c94	0.045239046
87	0x3e4dfd54	0.20116168
88	0x3f0fd367	0.5618195
89	0xbebe4be0	-0.37167263
90	0xbe7b395f	-0.24533604
91	0x3f042442	0.51617825
92	0xbcedff9d	-0.02905255
93	0xbe3bced1	-0.18340613
94	0x3dd08326	0.101812646
95	0x3e429198	0.19000852
96	0xbe045b1f	-0.12925385
97	0x3ecb7a3e	0.397417
98	0xbe5820df	-0.2110629
99	0x3db8fa99	0.09032173
100	0xbe1e76e4	-0.1547504
101	0x3ceca255	0.028886
102	0xbc8f8778	-0.017520651
103	0x3d9820fb	0.074281655
104	0xbdc27d4e	-0.09496556
105	0xbec2fa35	-0.38081518
106	0xbd771005	-0.06031801
107	0xbeef7958	-0.46772265
108	0x3dde3c9f	0.10851406
109	0xbdccb4d8	-0.09995431
110	0xbdf9f070	-0.12204063
111	0x3dd10320	0.10205674
112	0x3b702e54	0.0036648707
113	0xbc9c0b28	-0.019048288
114	0x3ea27d52	0.31736237
115	0x3e0a5a3b	0.13510983
116	0xbd62eb41	-0.055400137
117	0xbf0f4a9b	-0.55973214
118	0x3ccb1129	0.024788456
119	0x3bc3c2a2	0.00597413
120	0x3deb4047	0.11486869
121	0x3ee20416	0.44143742
122	0xbdf72ca2	-0.1206906
123	0xbce49676	-0.027903777
124	0xbe360a3d	-0.17777343
125	0x3db7173c	0.089399785
126	0x3e6aa151	0.229131
127	0xbe01373a	-0.12618724
128	0x3bdc7092	0.0067272866
129	0x3ee1d253	0.44105777
130	0x3de3f275	0.111302294
131	0x3e170946	0.14749631
132	0x3df27a26	0.11839704
133	0x3db177be	0.08665417
134	0xbc57f570	-0.013181075
135	0x3dd1bfee	0.10241686
136	0xbe7b7f87	-0.24560367
137	0x3ddc3a47	0.10753303
138	0xbe567bac	-0.20945615
139	0xbd92aff8	-0.071624696
140	0x3e392e13	0.18083982
141	0xbcba9c1e	-0.02277952
142	0x3c576520	0.013146669
143	0x3dd7c7d9	0.10536165
144	0x3de2d292	0.11075319
145	0xbe3646d2	-0.17800453
146	0x3c8a3c90	0.016874582
147	0xbed79226	-0.4210369
148	0x3dfbb013	0.12289443
149	0xbd719fd4	-0.058990315
150	0x3c7149bb	0.014727051
151	0x3de5952d	0.11210094
152	0xbf1bd44e	-0.60870826
153	0x3e5913cd	0.2119896
154	0x3d3d1269	0.046160135
155	0xbf0c6f32	-0.5485717
156	0x3ec0f48a	0.37686568
157	0x3e1824f4	0.14857846
158	0x3db0b429	0.08628113
159	0xbcf7761e	-0.03020769
160	0x3f02dac9	0.5111509
161	0x3d80c2ca	0.06287153
162	0xbc4cc34c	-0.012497734
163	0x3c8b614e	0.017014172
164	0x3d5dc51e	0.054143064
165	0xbcb2490d	-0.021763349
166	0xbdcaa0f0	-0.09893978
167	0x3d60e62f	0.05490702
168	0xbc2b4e86	-0.010455733
169	0xbc9a8ce8	-0.018866017
170	0x3d3d7c12	0.0462609
171	0x3e5f2318	0.21790731
172	0x3e61d575	0.22054084
173	0xbdd4d61e	-0.10392402
174	0x3de4c112	0.11169638
175	0xbde753fa	-0.11295314
176	0xbe9299ac	-0.28632867
177	0x3d3183c4	0.043338552
178	0x3edc772b	0.43059668
179	0x3dc201a8	0.09472972
180	0x3e027205	0.12738807
181	0xbca3c80a	-0.019992847
182	0x3db6057a	0.08887763
183	0xbc738453	-0.0148630915
184	0x3cf15a68	0.029462054
185	0xbe9b8a15	-0.30378786
186	0xbe3ac80b	-0.18240373
187	0xbe195410	-0.14973474
188	0x3d300ecc	0.04298286
189	0x3b759139	0.0037470593
190	0x3d8afeb6	0.067868635
191	0xbdd90bd3	-0.105979584
192	0xbdeb7104	-0.114961654
193	0x3d9b0d02	0.075708404
194	0xbe3e1b65	-0.18565138
195	0x3c906db8	0.017630443
196	0x3e048ae8	0.12943614
197	0xbdfb969e	-0.12284587
198	0x3aa0dd80	0.0012273043
199	0x3c6bd1d0	0.014393285
200	0xbd655663	-0.055990588
201	0x3d1fd22f	0.039018806
202	0xbd85c5b7	-0.06531852
203	0xbcd078bd	-0.025448197
204	0xbc65ae8e	-0.014018668
205	0x3cfac58b	0.030611774
206	0xbda3f560	-0.08005786
207	0xbe4aa643	-0.19789986
208	0xbda332f5	-0.07968704
209	0x3e6d516f	0.23175596
210	0xbd00d750	-0.031455338
211	0x3e908ead	0.28233853
212	0xbe37530f	-0.17902778
213	0x3d87060e	0.06592952
214	0x3dbfba53	0.093617104
215	0xbea0281f	-0.3128061
216	0xbe9ec899	-0.3101242
217	0x3eb108af	0.34576938
218	0xbe178cfa	-0.14799872
219	0xbd1735fb	-0.036916714
220	0x3ec184f9	0.37796763
221	0xbe8047f8	-0.25054908
222	0x3c1597f4	0.009130467
223	0xbd2c8665	-0.042120356
224	0x3ebca88c	0.3684734
225	0xbe505be3	-0.20347552
226	0xbf0d8651	-0.55283076
227	0xbe8140f6	-0.25244874
228	0xbd86034b	-0.06543597
229	0xbe37f17c	-0.17963213
230	0xbb25b300	-0.0025283694
231	0xbdc28b7e	-0.09499262
232	0x3d06fad0	0.032954037
233	0xbe373719	-0.17892112
234	0xbe9e6fc3	-0.30944642
235	0x3e4f1042	0.20221046
236	0x3d37e5a8	0.04489675
237	0x3cf4fd12	0.02990583
238	0x3dec1542	0.11527492
239	0x3da1ad5b	0.07894393
240	0x3d5e966e	0.05434268
241	0x3beb3d40	0.0071789324
242	0xbdf56e05	-0.11983875
243	0x3dbded69	0.09273798
244	0x3d703343	0.058642637
245	0xbe40012d	-0.18750449
246	0xbdc74e4e	-0.09731732
247	0x3dd9d115	0.10635582
248	0x3e8d44bc	0.27591503
249	0xbf0105af	-0.503993
250	0x3ec2ffa1	0.38085654
251	0xbdcee9a3	-0.101031564
252	0xbdbe7feb	-0.09301742
253	0x3da545af	0.08069932
254	0x3c9677c1	0.01836765
255	0xbe032df9	-0.12810506

linear_relu_stack.2.bias f4 [16]
0	0x3e6120a9	0.21985115
1	0xbe19053a	-0.149434
2	0x3dd55ae8	0.104177296
3	0xbe07cb71	-0.132612
4	0xbdbaedd0	-0.091273904
5	0xbea4ef09	-0.3221362
6	0x3d13f224	0.036119595
7	0x3e930265	0.28712764
8	0xbed0f9ec	-0.40815675
9	0xbf4b3e4f	-0.7939195
10	0x3e88172c	0.2658018
11	0xbe289c46	-0.16465864
12	0xbe03dc96	-0.12877116
13	0xbe84635d	-0.25857058
14	0x3c8ee793	0.017444408
15	0x3f874b96	1.0569942

momentum_buffer f4 [64, 3]
0	0x3e0e3d84	0.13890654
1	0x3ed3c169	0.41358498
2	0x3e2aadc0	0.16667843
3	0xbe812f99	-0.25231627
4	0xbec4edd4	-0.38462698
5	0xbe3247d5	-0.17410214
6	0xbe939e60	-0.28831768
7	0xbeded26b	-0.4351991
8	0xbe6af3bd	-0.22944541
9	0xbd8ff9fd	-0.07030103
10	0xbd7c4268	-0.061586767
11	0x3cdbe39f	0.026841937
12	0x3d0869cc	0.03330402
13	0x3e771824	0.24130303
14	0x3e7b6e4e	0.24553797
15	0x00000000	0.0
16	0x00000000	0.0
17	0x00000000	0.0
18	0x00000000	0.0
19	0x00000000	0.0
20	0x00000000	0.0
21	0x00000000	0.0
22	0x00000000	0.0
23	0x00000000	0.0
24	0xbe33694e	-0.1752064
25	0xbece50d8	-0.40296054
26	0xbe2543fa	-0.16139212
27	0x3dd823f1	0.1055373
28	0x3e902d90	0.2815976
29	0x3e4ed55a	0.20198575
30	0x3d64bee4	0.05584611
31	0x3d59d8c1	0.05318523
32	0xbaf88820	-0.0018961467
33	0x3bf1b3e8	0.007376183
34	0x3c13b4b0	0.009015247
35	0x3c7035b6	0.014661243
36	0xbd38867e	-0.045050137
37	0xbd92977e	-0.07157801
38	0x3a82612d	0.0009947174
39	0xbadfc3d6	-0.0017071913
40	0x3aca7163	0.0015445169
41	0x3b879db5	0.004138673
42	0x00000000	0.0
43	0x00000000	0.0
44	0x00000000	0.0
45	0xbc48b242	-0.012249531
46	0xbd1f99f8	-0.038965195
47	0x3d065c63	0.03280295
48	0x3c644082	0.0139313955
49	0xbd1115a2	-0.03542102
50	0xbd955143	-0.0729089
51	0x3ce5acf9	0.028036581
52	0xbdc5cb0a	-0.09657867
53	0xbe5d782c	-0.21627873
54	0xbdb973f0	-0.090553164
55	0xbda9b25d	-0.08285973
56	0x3d5f9646	0.05458667
57	0x3d3f43e4	0.046695605
58	0xbdb2aec7	-0.087247424
59	0xbdc52774	-0.09626666
60	0x3d2389ce	0.039926343
61	0x3e443d16	0.19163927
62	0x3e4921c8	0.19641793
63	0x00000000	0.0
64	0x00000000	0.0
65	0x00000000	0.0
66	0x3a379410	0.0007002959
67	0xba5c5d9c	-0.0008406283
68	0xb9c8807b	-0.00038242698
69	0x3d4dacef	0.05021375
70	0x3db308d1	0.08741916
71	0xbca8f7fc	-0.02062606
72	0xbea01862	-0.31268603
73	0xbf34a81a	-0.70569
74	0xbeeb5988	-0.45966744
75	0x3eda0898	0.42584682
76	0x3f5ee8b6	0.8707384
77	0x3ef11045	0.47082725
78	0x3dfd1900	0.12358284
79	0x3ea42b42	0.32064253
80	0x3e3c4547	0.18385802
81	0xbcc44400	-0.023958206
82	0xbe7a0e8d	-0.24419613
83	0xbe9a55f2	-0.30143696
84	0x3e1862e9	0.14881481
85	0x3e64f480	0.22358894
86	0x3dd62904	0.10457042
87	0x3e0a1513	0.13484602
88	0x3e852e8e	0.2601208
89	0x3e2498f8	0.16073978
90	0xbbac7e3c	-0.0052640717
91	0xbdba3e39	-0.09093899
92	0x3a7c7184	0.0009629952
93	0xbc72b16a	-0.014812807
94	0xbb9c7a69	-0.0047753346
95	0xbcc7cc48	-0.024389401
96	0x3d78a262	0.060701735
97	0xbe01d605	-0.12679298
98	0xbd9f0eff	-0.07766532
99	0xbc1ff6a4	-0.009763394
100	0xbd0b2b37	-0.03397676
101	0xbd949270	-0.07254493
102	0xbdd8fc88	-0.105950415
103	0xbea1bf18	-0.31591105
104	0xbe2568d5	-0.16153271
105	0xbe2e8481	-0.17042734
106	0xbeda698b	-0.42658648
107	0xbe7c6a67	-0.24649964
108	0xbd7dc96a	-0.06195966
109	0xbe372dad	-0.17888518
110	0xbe0376db	-0.12838309
111	0xbc9d89d5	-0.019230762
112	0x3d11d588	0.03560403
113	0x3cf87eba	0.030333865
114	0x00000000	0.0
115	0x00000000	0.0
116	0x00000000	0.0
117	0x3c2223bb	0.009896214
118	0x3df7d63a	0.12101407
119	0x3d8eb596	0.069682285
120	0x3843619f	4.658254e-05
121	0x339bc7f9	7.254125e-08
122	0x3820008b	3.814748e-05
123	0xbe239c44	-0.1597758
124	0xbedc205e	-0.42993444
125	0xbe80df8f	-0.25170562
126	0x3e9b7098	0.3035934
127	0x3f212bd2	0.6295749
128	0x3ea53cc2	0.32272917
129	0x3e800147	0.25000975
130	0x3f2f954c	0.68587184
131	0x3ee1a92d	0.44074383
132	0xbe9797ad	-0.29607907
133	0xbf3d85ec	-0.74032474
134	0xbed42fd0	-0.41442728
135	0xbe2f7780	-0.1713543
136	0xbeba332c	-0.36367166
137	0xbe4f3dd6	-0.20238432
138	0x00000000	0.0
139	0x00000000	0.0
140	0x00000000	0.0
141	0xbbc8c016	-0.006126414
142	0x388fa000	6.848574e-05
143	0xbbdc161c	-0.006716503
144	0x3c8fb5a1	0.017542662
145	0xbd69320e	-0.0569325
146	0xbd50cc5c	-0.050976142
147	0x00000000	0.0
148	0x00000000	0.0
149	0x00000000	0.0
150	0xbe84ed13	-0.25962123
151	0xbebcaa4b	-0.36848673
152	0xbdb7da3d	-0.089771725
153	0x3be1f2b1	0.006895386
154	0x3c516741	0.012780965
155	0xbb9d4ee9	-0.0048006666
156	0xbb145f4e	-0.0022639814
157	0xbb1712b5	-0.0023051922
158	0x3a1f8e17	0.00060865417
159	0x3d0fedc5	0.035138864
160	0x3e025ca3	0.1273065
161	0x3e0ea074	0.13928396
162	0x3e1b1bc1	0.15147306
163	0x3ea81a60	0.32832623
164	0x3e359868	0.1773392
165	0xbe856293	-0.2605177
166	0xbf275da2	-0.6537725
167	0xbecc10dc	-0.39856613
168	0xbe9a1581	-0.3009453
169	0xbee17b35	-0.44039312
170	0xbe45714e	-0.19281504
171	0x3d07d57f	0.03316259
172	0xbb82cfb0	-0.0039920434
173	0xbdc7a92c	-0.09749064
174	0x3d736b16	0.059428297
175	0xbd3482d7	-0.04407009
176	0xbde1e14c	-0.110293
177	0x3e274f6a	0.16338888
178	0x3eb23910	0.3480916
179	0x3e5d64dc	0.21620506
180	0x3cc08d52	0.023504887
181	0x3de89db7	0.11358207
182	0x3d6775ed	0.056508947
183	0x3ba61eb8	0.00506958
184	0xbd3b7cc4	-0.045773283
185	0x3bd69800	0.0065488815
186	0xb9ae08a0	-0.00033194292
187	0x3b0bb66e	0.0021318453
188	0xbc4a9df2	-0.012366759
189	0xb89cb094	-7.47155e-05
190	0x377e49c0	1.5156751e-05
191	0xb8ca4a95	-9.6460026e-05

momentum_buffer f4 [64]
0	0x3ce1958f	0.027537135
1	0xbd076fb2	-0.033065505
2	0xbdb985d0	-0.09058726
3	0xbb992e71	-0.0046747257
4	0x3d580e68	0.052748114
5	0x00000000	0.0
6	0x00000000	0.0
7	0x00000000	0.0
8	0xbd380dcd	-0.044935036
9	0x3d04d17e	0.03242635
10	0xba8570a4	-0.0010180664
11	0x3b8e8738	0.0043496154
12	0xbbf13de5	-0.0073621147
13	0x3a26e660	0.0006366726
14	0x00000000	0.0
15	0xbae94bac	-0.0017799041
16	0xbc17f7ba	-0.009275371
17	0xbd135b5c	-0.0359758
18	0x3c809bc0	0.015699267
19	0xbc9eb1f8	-0.019371971
20	0x3d391aee	0.045191698
21	0x00000000	0.0
22	0xb91d5f92	-0.0001500829
23	0xbb91a660	-0.0044448823
24	0xbde6accc	-0.11263427
25	0x3db4def6	0.08831589
26	0x3ca0ba0c	0.019619964
27	0xbd3a82d0	-0.04553491
28	0x3d1301a6	0.035890244
29	0x3ca781ec	0.020447694
30	0xbc5159af	-0.01277773
31	0xbbaf3647	-0.0053470465
32	0xbce98e75	-0.028510312
33	0xbc7ce500	-0.015435457
34	0xbca72d62	-0.020407382
35	0xbd23a293	-0.039949965
36	0xbc516b1b	-0.012781884
37	0x3c51f3b8	0.012814455
38	0x00000000	0.0
39	0x3cb79abe	0.022412654
40	0x36c0e893	5.749121e-06
41	0xbd113f1c	-0.035460576
42	0x3d7a25f2	0.061071344
43	0x3d95120a	0.07278831
44	0xbdcf39fb	-0.10118481
45	0xbd0945a2	-0.033513673
46	0x00000000	0.0
47	0xba25dee8	-0.0006327466
48	0xbc2e7ddc	-0.010650124
49	0x00000000	0.0
50	0xbcf2e974	-0.029652335
51	0x3ae88033	0.0017738402
52	0xb9cfca33	-0.00039632767
53	0x3ccebaeb	0.025235614
54	0x3cefb06e	0.029258933
55	0xbd88dc6e	-0.066826686
56	0xbd37bf5f	-0.04486024
57	0xbcf27e0f	-0.029601125
58	0xbc944924	-0.018101282
59	0x3d290cea	0.04127208
60	0x3cd3023c	0.025757901
61	0xbbf1aa05	-0.0073750042
62	0xbadc53d9	-0.0016809657
63	0xb760349f	-1.3363692e-05

momentum_buffer f4 [16, 64]
0	0x3dba20a7	0.09088259
1	0x3b800638	0.0039069913
2	0x3cb6c521	0.022310795
3	0x3d0c83bc	0.03430532
4	0x3bb63760	0.0055608004
5	0x00000000	0.0
6	0x00000000	0.0
7	0x00000000	0.0
8	0x3bf5f4e0	0.007505998
9	0xbbf0fcc8	-0.0073543526
10	0x3cda9667	0.026683046
11	0xbd04db1c	-0.03243552
12	0x3cd9dd06	0.02659465
13	0xb79a9db0	-1.843166e-05
14	0x00000000	0.0
15	0x3e092a80	0.13395119
16	0x3c4c2d0e	0.012461914
17	0x3d25b8d0	0.040459454
18	0x3d055990	0.032556117
19	0xbc2ee168	-0.010673858
20	0x3d6bc7c6	0.057563566
21	0x00000000	0.0
22	0xbae31253	-0.0017324187
23	0x3deac89f	0.11464047
24	0x3de337e2	0.11094643
25	0xbda98ecb	-0.08279189
26	0x3d7edb02	0.06222058
27	0x3dbc2664	0.0918701
28	0xbe00f053	-0.12591676
29	0x3ddd2a0c	0.107990354
30	0x3c226542	0.009911837
31	0x3c3feb24	0.011713777
32	0xbdb8f5a7	-0.090312295
33	0x3ca9c13e	0.020722028
34	0x3e1757a8	0.14779532
35	0x3ddbf40d	0.10739908
36	0x3d6fcf86	0.05854752
37	0xbd0a262a	-0.033727802
38	0x00000000	0.0
39	0x3c83e237	0.016099079
40	0x33da2ea3	1.0159899e-07
41	0x3e1e6cd4	0.15471202
42	0x3c2dfb40	0.010618985
43	0xbd2bface	-0.041987233
44	0xbd9b667a	-0.07587905
45	0xb95ad400	-0.00020869076
46	0x00000000	0.0
47	0x3bdc8afe	0.0067304363
48	0xbd6b6ce8	-0.057476908
49	0x00000000	0.0
50	0xbc51230c	-0.0127647035
51	0x3afae3a2	0.0019141326
52	0xbc4ee6ff	-0.012628316
53	0x3ddc4ad0	0.10756457
54	0x3d30e5f8	0.043188065
55	0x3ceb0591	0.028689178
56	0xbd6ddbe2	-0.058071025
57	0x3d9aafcb	0.07553061
58	0x3d22cbc5	0.03974511
59	0x3dad0cb1	0.08449686
60	0x3d484ea2	0.048903115
61	0x3b96e198	0.0046045296
62	0x3c740774	0.014894355
63	0x390a6a15	0.00013200224
64	0xbb5205b0	-0.0032046847
65	0x36510d84	3.1151294e-06
66	0xbc4328f2	-0.011911618
67	0x33b64292	8.4871445e-08
68	0x38356af6	4.3253378e-05
69	0x00000000	0.0
70	0x00000000	0.0
71	0x00000000	0.0
72	0x3345a91d	4.6021444e-08
73	0x37cf1845	2.4687624e-05
74	0xbc14a362	-0.009072157
75	0x340f4238	1.3342003e-07
76	0x34230b27	1.5184615e-07
77	0x33638930	5.2977327e-08
78	0x00000000	0.0
79	0xbb411e03	-0.0029467351
80	0xbbcfd0e8	-0.0063420422
81	0xbc0747e3	-0.008256885
82	0x3825941a	3.9476996e-05
83	0x3a1431e3	0.00056531857
84	0x388db0c1	6.756327e-05
85	0x00000000	0.0
86	0x2c256b53	2.3507487e-12
87	0xbc924b44	-0.017858155
88	0xbcc9c75e	-0.024631198
89	0x3c0f78b7	0.008756808
90	0x3b65e96c	0.0035081757
91	0xbcc9c0fa	-0.024628151
92	0x3b5bfd40	0.0033567697
93	0xbaa684a0	-0.001270432
94	0x30c20890	1.4117791e-09
95	0xbbb029ff	-0.0053761
96	0x3b7d69c1	0.003866777
97	0xbc161730	-0.009160802
98	0x3a8dfd8a	0.0010833007
99	0xbbf23f39	-0.0073927906
100	0x3a9236c0	0.0011155233
101	0x33012dde	3.007687e-08
102	0x00000000	0.0
103	0xbc035140	-0.008014977
104	0xb401e6cf	-1.2098029e-07
105	0x3b5899f6	0.0033050752
106	0x37efab5d	2.8570817e-05
107	0x3bf561ff	0.0074884887
108	0x359baf1d	1.1599365e-06
109	0x3b395a70	0.0028282665
110	0x00000000	0.0
111	0xbb9a3453	-0.0047059446
112	0x36723c66	3.6095967e-06
113	0x00000000	0.0
114	0xbc43a55c	-0.01194128
115	0xbbc6bb78	-0.0060648285
116	0xb92ad009	-0.00016289963
117	0x3bdfe276	0.006832416
118	0x39c28caa	0.00037107366
119	0xbb91819e	-0.0044405004
120	0x39b925d9	0.00035314148
121	0xbca4b5ec	-0.020106278
122	0x3ac2f697	0.0014874515
123	0x38b994af	8.849182e-05
124	0xbb31ab74	-0.002711025
125	0x30b45c20	1.3122907e-09
126	0xbbdbf762	-0.00671284
127	0x378aef14	1.6562211e-05
128	0x3d3af650	0.04564506
129	0x3b792117	0.0038014108
130	0x3a708c7b	0.00091762067
131	0x3b4215f9	0.0029615148
132	0x3d76f208	0.060289413
133	0x00000000	0.0
134	0x00000000	0.0
135	0x00000000	0.0
136	0x3c903b51	0.01760641
137	0x3c19a73c	0.009378251
138	0x3b3489bc	0.0027547916
139	0x3c00dcca	0.00786514
140	0x3b063c73	0.0020482808
141	0x32ba6d8e	2.170307e-08
142	0x00000000	0.0
143	0x3d9ab004	0.075531036
144	0x37823ded	1.5526044e-05
145	0x3b22362b	0.0024751525
146	0x3d26695d	0.040627826
147	0x3c859a05	0.016308794
148	0x3d625a0f	0.055261668
149	0x00000000	0.0
150	0x365da4ad	3.302742e-06
151	0x3d39ac10	0.045330107
152	0x3ce1c4c0	0.027559638
153	0x3d3d2d6d	0.0461859
154	0x3d1a1cae	0.037625007
155	0x3c8c1ad0	0.017102629
156	0x3d17bf40	0.037047625
157	0x3d7a749e	0.06114637
158	0x3a7c6d84	0.0009629356
159	0x35f58250	1.8291848e-06
160	0x3c8e4df3	0.017371153
161	0x36f3816a	7.25703e-06
162	0x3dbaae2e	0.091152534
163	0x3d4e0f1b	0.050307374
164	0x3d074dfc	0.033033356
165	0x3c4b4dc8	0.012408681
166	0x00000000	0.0
167	0x3c00e6fb	0.00786757
168	0x1a2ea999	3.6119357e-23
169	0x3d90bfab	0.07067808
170	0x3d1aca54	0.03779061
171	0x3d24b503	0.04021169
172	0x3ceb345d	0.028711492
173	0x3d3cb838	0.046074122
174	0x00000000	0.0
175	0x350b1f1a	5.1826794e-07
176	0x3c556cdf	0.013026445
177	0x00000000	0.0
178	0x3b0332a7	0.0020019205
179	0x379898a1	1.8190885e-05
180	0x386460fc	5.444976e-05
181	0x3da9032c	0.08252558
182	0x3ccd5bfa	0.025068272
183	0x3d184ea8	0.037184387
184	0x3d40114f	0.046891507
185	0x3cfe0f40	0.031013131
186	0x3accea7c	0.0015633847
187	0x3d568bb0	0.05237931
188	0x3cdeeaf5	0.027211646
189	0x3a80678e	0.0009796487
190	0x35acf37c	1.2885862e-06
191	0x2f9a278c	2.8040537e-10
192	0x37f6bf6e	2.9414627e-05
193	0x3290b6b4	1.684689e-08
194	0x38f76c77	0.00011798081
195	0x34ccae32	3.8124705e-07
196	0x3ca0d82f	0.019634334
197	0x00000000	0.0
198	0x00000000	0.0
199	0x00000000	0.0
200	0x3957a60c	0.00020565855
201	0x3be68478	0.0070348345
202	0x3d1634b1	0.036671344
203	0x3af01ae0	0.0018318556
204	0x33fcae62	1.17663845e-07
205	0x3a669c5d	0.00087971037
206	0x00000000	0.0
207	0x3cb81334	0.022470094
208	0x3be52b88	0.0069937147
209	0x3d83eb2f	0.06441342
210	0xbbc4e345	-0.006008538
211	0x3d78ec8e	0.06077247
212	0xbacda342	-0.0015688913
213	0x00000000	0.0
214	0x34471a06	1.8542787e-07
215	0x3cf72d61	0.030173006
216	0x3d93e618	0.07221621
217	0x3de05694	0.109540135
218	0x39316560	0.000169178
219	0x3daa505c	0.083161086
220	0x3e007ed3	0.1254838
221	0x3cacd742	0.021098737
222	0x3840973e	4.5917222e-05
223	0x356c7ccb	8.809845e-07
224	0x3e058bf5	0.1304167
225	0x3c908a3f	0.017644046
226	0xb8229c64	-3.876946e-05
227	0x3b917979	0.0044395295
228	0x3a2a0722	0.0006486048
229	0xbb93f4f1	-0.0045152833
230	0x00000000	0.0
231	0x351d5bcd	5.8620645e-07
232	0x135b2013	2.76575e-27
233	0x38885038	6.499927e-05
234	0xbb8a1e18	-0.0042150132
235	0x3d983594	0.07432094
236	0xbbc5ecd4	-0.006040195
237	0x3d3fc9a9	0.046823177
238	0x00000000	0.0
239	0x2f54a481	1.9339731e-10
240	0x3cc78aef	0.02435824
241	0x00000000	0.0
242	0x332a99c4	3.972106e-08
243	0x2f53a689	1.9249503e-10
244	0x2b7d492f	8.998522e-13
245	0xbbeecd4e	-0.007287658
246	0x39535c5a	0.00020156932
247	0x3d332c3c	0.043743357
248	0x3d85d7e2	0.06535317
249	0x3cb7d394	0.022439755
250	0x3d798066	0.060913466
251	0x39108b15	0.00013784722
252	0x35b41365	1.341669e-06
253	0x3935eb3d	0.00017349138
254	0x3512753e	5.455985e-07
255	0x348cf4f7	2.6255267e-07

momentum_buffer f4 [16]
0	0x3c9fe00f	0.01951602
1	0x3b465cb0	0.0030267648
2	0x3c8a1b22	0.016858641
3	0x3c6074a0	0.013699681
4	0xbd0de3ed	-0.034641195
5	0xbda2a212	-0.07941069
6	0x3d995ad3	0.074880265
7	0x3cf31d22	0.029676978
8	0xbd12397a	-0.035699345
9	0xbd52ac15	-0.05143364
10	0x3d0cd7f4	0.034385636
11	0x3cad1668	0.021128848
12	0xbd711163	-0.058854472
13	0x3cf63f2d	0.030059421
14	0x3d1fa0ad	0.03897159
15	0xbcb59243	-0.02216447
